…
I0727 13:26:46.951598  9114 upgrade_proto.cpp:77] Attempting to upgrade batch norm layers using deprecated params: models/sign/ResNet101/faster_rcnn_end2end/train.prototxt
I0727 13:26:46.951624  9114 upgrade_proto.cpp:80] Successfully upgraded batch norm layers using deprecated params.
I0727 13:26:46.954095  9114 net.cpp:51] Initializing net from parameters: 
name: "Resnet 101"
state {
  phase: TRAIN
}
layer {
  name: "input-data"
  type: "Python"
  top: "data"
  top: "im_info"
  top: "gt_boxes"
  python_param {
    module: "roi_data_layer.layer"
    layer: "RoIDataLayer"
    param_str: "\'num_classes\': 2"
  }
}
layer {
  name: "conv1"
  type: "Convolution"
  bottom: "data"
  top: "conv1"
  param {
    lr_mult: 0
    decay_mult: 0
  }
  convolution_param {
    num_output: 64
    bias_term: false
    pad: 3
    kernel_size: 7
    stride: 2
  }
}
layer {
  name: "bn_conv1"
  type: "BatchNorm"
  bottom: "conv1"
  top: "conv1"
  param {
    lr_mult: 0
    decay_mult: 0
  }
  param {
    lr_mult: 0
    decay_mult: 0
  }
  param {
    lr_mult: 0
    decay_mult: 0
  }
  batch_norm_param {
    use_global_stats: false
  }
}
layer {
  name: "scale_conv1"
  type: "Scale"
  bottom: "conv1"
  top: "conv1"
  param {
    lr_mult: 0
    decay_mult: 0
  }
  param {
    lr_mult: 0
    decay_mult: 0
  }
  scale_param {
    bias_term: true
  }
}
layer {
  name: "conv1_relu"
  type: "ReLU"
  bottom: "conv1"
  top: "conv1"
}
layer {
  name: "pool1"
  type: "Pooling"
  bottom: "conv1"
  top: "pool1"
  pooling_param {
    pool: MAX
    kernel_size: 3
    stride: 2
  }
}
layer {
  name: "res2a_branch1"
  type: "Convolution"
  bottom: "pool1"
  top: "res2a_branch1"
  param {
    lr_mult: 0
    decay_mult: 0
  }
  convolution_param {
    num_output: 256
    bias_term: false
    pad: 0
    kernel_size: 1
    stride: 1
  }
}
layer {
  name: "bn2a_branch1"
  type: "BatchNorm"
  bottom: "res2a_branch1"
  top: "res2a_branch1"
  param {
    lr_mult: 0
    decay_mult: 0
  }
  param {
    lr_mult: 0
    decay_mult: 0
  }
  param {
    lr_mult: 0
    decay_mult: 0
  }
  batch_norm_param {
    use_global_stats: false
  }
}
layer {
  name: "scale2a_branch1"
  type: "Scale"
  bottom: "res2a_branch1"
  top: "res2a_branch1"
  param {
    lr_mult: 0
    decay_mult: 0
  }
  param {
    lr_mult: 0
    decay_mult: 0
  }
  scale_param {
    bias_term: true
  }
}
layer {
  name: "res2a_branch2a"
  type: "Convolution"
  bottom: "pool1"
  top: "res2a_branch2a"
  param {
    lr_mult: 0
    decay_mult: 0
  }
  convolution_param {
    num_output: 64
    bias_term: false
    pad: 0
    kernel_size: 1
    stride: 1
  }
}
layer {
  name: "bn2a_branch2a"
  type: "BatchNorm"
  bottom: "res2a_branch2a"
  top: "res2a_branch2a"
  param {
    lr_mult: 0
    decay_mult: 0
  }
  param {
    lr_mult: 0
    decay_mult: 0
  }
  param {
    lr_mult: 0
    decay_mult: 0
  }
  batch_norm_param {
    use_global_stats: false
  }
}
layer {
  name: "scale2a_branch2a"
  type: "Scale"
  bottom: "res2a_branch2a"
  top: "res2a_branch2a"
  param {
    lr_mult: 0
    decay_mult: 0
  }
  param {
    lr_mult: 0
    decay_mult: 0
  }
  scale_param {
    bias_term: true
  }
}
layer {
  name: "res2a_branch2a_relu"
  type: "ReLU"
  bottom: "res2a_branch2a"
  top: "res2a_branch2a"
}
layer {
  name: "res2a_branch2b"
  type: "Convolution"
  bottom: "res2a_branch2a"
  top: "res2a_branch2b"
  param {
    lr_mult: 0
    decay_mult: 0
  }
  convolution_param {
    num_output: 64
    bias_term: false
    pad: 1
    kernel_size: 3
    stride: 1
  }
}
layer {
  name: "bn2a_branch2b"
  type: "BatchNorm"
  bottom: "res2a_branch2b"
  top: "res2a_branch2b"
  param {
    lr_mult: 0
    decay_mult: 0
  }
  param {
    lr_mult: 0
    decay_mult: 0
  }
  param {
    lr_mult: 0
    decay_mult: 0
  }
  batch_norm_param {
    use_global_stats: false
  }
}
layer {
  name: "scale2a_branch2b"
  type: "Scale"
  bottom: "res2a_branch2b"
  top: "res2a_branch2b"
  param {
    lr_mult: 0
    decay_mult: 0
  }
  param {
    lr_mult: 0
    decay_mult: 0
  }
  scale_param {
    bias_term: true
  }
}
layer {
  name: "res2a_branch2b_relu"
  type: "ReLU"
  bottom: "res2a_branch2b"
  top: "res2a_branch2b"
}
layer {
  name: "res2a_branch2c"
  type: "Convolution"
  bottom: "res2a_branch2b"
  top: "res2a_branch2c"
  param {
    lr_mult: 0
    decay_mult: 0
  }
  convolution_param {
    num_output: 256
    bias_term: false
    pad: 0
    kernel_size: 1
    stride: 1
  }
}
layer {
  name: "bn2a_branch2c"
  type: "BatchNorm"
  bottom: "res2a_branch2c"
  top: "res2a_branch2c"
  param {
    lr_mult: 0
    decay_mult: 0
  }
  param {
    lr_mult: 0
    decay_mult: 0
  }
  param {
    lr_mult: 0
    decay_mult: 0
  }
  batch_norm_param {
    use_global_stats: false
  }
}
layer {
  name: "scale2a_branch2c"
  type: "Scale"
  bottom: "res2a_branch2c"
  top: "res2a_branch2c"
  param {
    lr_mult: 0
    decay_mult: 0
  }
  param {
    lr_mult: 0
    decay_mult: 0
  }
  scale_param {
    bias_term: true
  }
}
layer {
  name: "res2a"
  type: "Eltwise"
  bottom: "res2a_branch1"
  bottom: "res2a_branch2c"
  top: "res2a"
}
layer {
  name: "res2a_relu"
  type: "ReLU"
  bottom: "res2a"
  top: "res2a"
}
layer {
  name: "res2b_branch2a"
  type: "Convolution"
  bottom: "res2a"
  top: "res2b_branch2a"
  param {
    lr_mult: 0
    decay_mult: 0
  }
  convolution_param {
    num_output: 64
    bias_term: false
    pad: 0
    kernel_size: 1
    stride: 1
  }
}
layer {
  name: "bn2b_branch2a"
  type: "BatchNorm"
  bottom: "res2b_branch2a"
  top: "res2b_branch2a"
  param {
    lr_mult: 0
    decay_mult: 0
  }
  param {
    lr_mult: 0
    decay_mult: 0
  }
  param {
    lr_mult: 0
    decay_mult: 0
  }
  batch_norm_param {
    use_global_stats: false
  }
}
layer {
  name: "scale2b_branch2a"
  type: "Scale"
  bottom: "res2b_branch2a"
  top: "res2b_branch2a"
  param {
    lr_mult: 0
    decay_mult: 0
  }
  param {
    lr_mult: 0
    decay_mult: 0
  }
  scale_param {
    bias_term: true
  }
}
layer {
  name: "res2b_branch2a_relu"
  type: "ReLU"
  bottom: "res2b_branch2a"
  top: "res2b_branch2a"
}
layer {
  name: "res2b_branch2b"
  type: "Convolution"
  bottom: "res2b_branch2a"
  top: "res2b_branch2b"
  param {
    lr_mult: 0
    decay_mult: 0
  }
  convolution_param {
    num_output: 64
    bias_term: false
    pad: 1
    kernel_size: 3
    stride: 1
  }
}
layer {
  name: "bn2b_branch2b"
  type: "BatchNorm"
  bottom: "res2b_branch2b"
  top: "res2b_branch2b"
  param {
    lr_mult: 0
    decay_mult: 0
  }
  param {
    lr_mult: 0
    decay_mult: 0
  }
  param {
    lr_mult: 0
    decay_mult: 0
  }
  batch_norm_param {
    use_global_stats: false
  }
}
layer {
  name: "scale2b_branch2b"
  type: "Scale"
  bottom: "res2b_branch2b"
  top: "res2b_branch2b"
  param {
    lr_mult: 0
    decay_mult: 0
  }
  param {
    lr_mult: 0
    decay_mult: 0
  }
  scale_param {
    bias_term: true
  }
}
layer {
  name: "res2b_branch2b_relu"
  type: "ReLU"
  bottom: "res2b_branch2b"
  top: "res2b_branch2b"
}
layer {
  name: "res2b_branch2c"
  type: "Convolution"
  bottom: "res2b_branch2b"
  top: "res2b_branch2c"
  param {
    lr_mult: 0
    decay_mult: 0
  }
  convolution_param {
    num_output: 256
    bias_term: false
    pad: 0
    kernel_size: 1
    stride: 1
  }
}
layer {
  name: "bn2b_branch2c"
  type: "BatchNorm"
  bottom: "res2b_branch2c"
  top: "res2b_branch2c"
  param {
    lr_mult: 0
    decay_mult: 0
  }
  param {
    lr_mult: 0
    decay_mult: 0
  }
  param {
    lr_mult: 0
    decay_mult: 0
  }
  batch_norm_param {
    use_global_stats: false
  }
}
layer {
  name: "scale2b_branch2c"
  type: "Scale"
  bottom: "res2b_branch2c"
  top: "res2b_branch2c"
  param {
    lr_mult: 0
    decay_mult: 0
  }
  param {
    lr_mult: 0
    decay_mult: 0
  }
  scale_param {
    bias_term: true
  }
}
layer {
  name: "res2b"
  type: "Eltwise"
  bottom: "res2a"
  bottom: "res2b_branch2c"
  top: "res2b"
}
layer {
  name: "res2b_relu"
  type: "ReLU"
  bottom: "res2b"
  top: "res2b"
}
layer {
  name: "res2c_branch2a"
  type: "Convolution"
  bottom: "res2b"
  top: "res2c_branch2a"
  param {
    lr_mult: 0
    decay_mult: 0
  }
  convolution_param {
    num_output: 64
    bias_term: false
    pad: 0
    kernel_size: 1
    stride: 1
  }
}
layer {
  name: "bn2c_branch2a"
  type: "BatchNorm"
  bottom: "res2c_branch2a"
  top: "res2c_branch2a"
  param {
    lr_mult: 0
    decay_mult: 0
  }
  param {
    lr_mult: 0
    decay_mult: 0
  }
  param {
    lr_mult: 0
    decay_mult: 0
  }
  batch_norm_param {
    use_global_stats: false
  }
}
layer {
  name: "scale2c_branch2a"
  type: "Scale"
  bottom: "res2c_branch2a"
  top: "res2c_branch2a"
  param {
    lr_mult: 0
    decay_mult: 0
  }
  param {
    lr_mult: 0
    decay_mult: 0
  }
  scale_param {
    bias_term: true
  }
}
layer {
  name: "res2c_branch2a_relu"
  type: "ReLU"
  bottom: "res2c_branch2a"
  top: "res2c_branch2a"
}
layer {
  name: "res2c_branch2b"
  type: "Convolution"
  bottom: "res2c_branch2a"
  top: "res2c_branch2b"
  param {
    lr_mult: 0
    decay_mult: 0
  }
  convolution_param {
    num_output: 64
    bias_term: false
    pad: 1
    kernel_size: 3
    stride: 1
  }
}
layer {
  name: "bn2c_branch2b"
  type: "BatchNorm"
  bottom: "res2c_branch2b"
  top: "res2c_branch2b"
  param {
    lr_mult: 0
    decay_mult: 0
  }
  param {
    lr_mult: 0
    decay_mult: 0
  }
  param {
    lr_mult: 0
    decay_mult: 0
  }
  batch_norm_param {
    use_global_stats: false
  }
}
layer {
  name: "scale2c_branch2b"
  type: "Scale"
  bottom: "res2c_branch2b"
  top: "res2c_branch2b"
  param {
    lr_mult: 0
    decay_mult: 0
  }
  param {
    lr_mult: 0
    decay_mult: 0
  }
  scale_param {
    bias_term: true
  }
}
layer {
  name: "res2c_branch2b_relu"
  type: "ReLU"
  bottom: "res2c_branch2b"
  top: "res2c_branch2b"
}
layer {
  name: "res2c_branch2c"
  type: "Convolution"
  bottom: "res2c_branch2b"
  top: "res2c_branch2c"
  param {
    lr_mult: 0
    decay_mult: 0
  }
  convolution_param {
    num_output: 256
    bias_term: false
    pad: 0
    kernel_size: 1
    stride: 1
  }
}
layer {
  name: "bn2c_branch2c"
  type: "BatchNorm"
  bottom: "res2c_branch2c"
  top: "res2c_branch2c"
  param {
    lr_mult: 0
    decay_mult: 0
  }
  param {
    lr_mult: 0
    decay_mult: 0
  }
  param {
    lr_mult: 0
    decay_mult: 0
  }
  batch_norm_param {
    use_global_stats: false
  }
}
layer {
  name: "scale2c_branch2c"
  type: "Scale"
  bottom: "res2c_branch2c"
  top: "res2c_branch2c"
  param {
    lr_mult: 0
    decay_mult: 0
  }
  param {
    lr_mult: 0
    decay_mult: 0
  }
  scale_param {
    bias_term: true
  }
}
layer {
  name: "res2c"
  type: "Eltwise"
  bottom: "res2b"
  bottom: "res2c_branch2c"
  top: "res2c"
}
layer {
  name: "res2c_relu"
  type: "ReLU"
  bottom: "res2c"
  top: "res2c"
}
layer {
  name: "res3a_branch1"
  type: "Convolution"
  bottom: "res2c"
  top: "res3a_branch1"
  param {
    lr_mult: 1
  }
  convolution_param {
    num_output: 512
    bias_term: false
    pad: 0
    kernel_size: 1
    stride: 2
  }
}
layer {
  name: "bn3a_branch1"
  type: "BatchNorm"
  bottom: "res3a_branch1"
  top: "res3a_branch1"
  param {
    lr_mult: 0
    decay_mult: 0
  }
  param {
    lr_mult: 0
    decay_mult: 0
  }
  param {
    lr_mult: 0
    decay_mult: 0
  }
  batch_norm_param {
    use_global_stats: false
  }
}
layer {
  name: "scale3a_branch1"
  type: "Scale"
  bottom: "res3a_branch1"
  top: "res3a_branch1"
  param {
    lr_mult: 0
    decay_mult: 0
  }
  param {
    lr_mult: 0
    decay_mult: 0
  }
  scale_param {
    bias_term: true
  }
}
layer {
  name: "res3a_branch2a"
  type: "Convolution"
  bottom: "res2c"
  top: "res3a_branch2a"
  param {
    lr_mult: 1
  }
  convolution_param {
    num_output: 128
    bias_term: false
    pad: 0
    kernel_size: 1
    stride: 2
  }
}
layer {
  name: "bn3a_branch2a"
  type: "BatchNorm"
  bottom: "res3a_branch2a"
  top: "res3a_branch2a"
  param {
    lr_mult: 0
    decay_mult: 0
  }
  param {
    lr_mult: 0
    decay_mult: 0
  }
  param {
    lr_mult: 0
    decay_mult: 0
  }
  batch_norm_param {
    use_global_stats: false
  }
}
layer {
  name: "scale3a_branch2a"
  type: "Scale"
  bottom: "res3a_branch2a"
  top: "res3a_branch2a"
  param {
    lr_mult: 0
    decay_mult: 0
  }
  param {
    lr_mult: 0
    decay_mult: 0
  }
  scale_param {
    bias_term: true
  }
}
layer {
  name: "res3a_branch2a_relu"
  type: "ReLU"
  bottom: "res3a_branch2a"
  top: "res3a_branch2a"
}
layer {
  name: "res3a_branch2b"
  type: "Convolution"
  bottom: "res3a_branch2a"
  top: "res3a_branch2b"
  param {
    lr_mult: 1
  }
  convolution_param {
    num_output: 128
    bias_term: false
    pad: 1
    kernel_size: 3
    stride: 1
  }
}
layer {
  name: "bn3a_branch2b"
  type: "BatchNorm"
  bottom: "res3a_branch2b"
  top: "res3a_branch2b"
  param {
    lr_mult: 0
    decay_mult: 0
  }
  param {
    lr_mult: 0
    decay_mult: 0
  }
  param {
    lr_mult: 0
    decay_mult: 0
  }
  batch_norm_param {
    use_global_stats: false
  }
}
layer {
  name: "scale3a_branch2b"
  type: "Scale"
  bottom: "res3a_branch2b"
  top: "res3a_branch2b"
  param {
    lr_mult: 0
    decay_mult: 0
  }
  param {
    lr_mult: 0
    decay_mult: 0
  }
  scale_param {
    bias_term: true
  }
}
layer {
  name: "res3a_branch2b_relu"
  type: "ReLU"
  bottom: "res3a_branch2b"
  top: "res3a_branch2b"
}
layer {
  name: "res3a_branch2c"
  type: "Convolution"
  bottom: "res3a_branch2b"
  top: "res3a_branch2c"
  param {
    lr_mult: 1
  }
  convolution_param {
    num_output: 512
    bias_term: false
    pad: 0
    kernel_size: 1
    stride: 1
  }
}
layer {
  name: "bn3a_branch2c"
  type: "BatchNorm"
  bottom: "res3a_branch2c"
  top: "res3a_branch2c"
  param {
    lr_mult: 0
    decay_mult: 0
  }
  param {
    lr_mult: 0
    decay_mult: 0
  }
  param {
    lr_mult: 0
    decay_mult: 0
  }
  batch_norm_param {
    use_global_stats: false
  }
}
layer {
  name: "scale3a_branch2c"
  type: "Scale"
  bottom: "res3a_branch2c"
  top: "res3a_branch2c"
  param {
    lr_mult: 0
    decay_mult: 0
  }
  param {
    lr_mult: 0
    decay_mult: 0
  }
  scale_param {
    bias_term: true
  }
}
layer {
  name: "res3a"
  type: "Eltwise"
  bottom: "res3a_branch1"
  bottom: "res3a_branch2c"
  top: "res3a"
}
layer {
  name: "res3a_relu"
  type: "ReLU"
  bottom: "res3a"
  top: "res3a"
}
layer {
  name: "res3b1_branch2a"
  type: "Convolution"
  bottom: "res3a"
  top: "res3b1_branch2a"
  param {
    lr_mult: 1
  }
  convolution_param {
    num_output: 128
    bias_term: false
    pad: 0
    kernel_size: 1
    stride: 1
  }
}
layer {
  name: "bn3b1_branch2a"
  type: "BatchNorm"
  bottom: "res3b1_branch2a"
  top: "res3b1_branch2a"
  param {
    lr_mult: 0
    decay_mult: 0
  }
  param {
    lr_mult: 0
    decay_mult: 0
  }
  param {
    lr_mult: 0
    decay_mult: 0
  }
  batch_norm_param {
    use_global_stats: false
  }
}
layer {
  name: "scale3b1_branch2a"
  type: "Scale"
  bottom: "res3b1_branch2a"
  top: "res3b1_branch2a"
  param {
    lr_mult: 0
    decay_mult: 0
  }
  param {
    lr_mult: 0
    decay_mult: 0
  }
  scale_param {
    bias_term: true
  }
}
layer {
  name: "res3b1_branch2a_relu"
  type: "ReLU"
  bottom: "res3b1_branch2a"
  top: "res3b1_branch2a"
}
layer {
  name: "res3b1_branch2b"
  type: "Convolution"
  bottom: "res3b1_branch2a"
  top: "res3b1_branch2b"
  param {
    lr_mult: 1
  }
  convolution_param {
    num_output: 128
    bias_term: false
    pad: 1
    kernel_size: 3
    stride: 1
  }
}
layer {
  name: "bn3b1_branch2b"
  type: "BatchNorm"
  bottom: "res3b1_branch2b"
  top: "res3b1_branch2b"
  param {
    lr_mult: 0
    decay_mult: 0
  }
  param {
    lr_mult: 0
    decay_mult: 0
  }
  param {
    lr_mult: 0
    decay_mult: 0
  }
  batch_norm_param {
    use_global_stats: false
  }
}
layer {
  name: "scale3b1_branch2b"
  type: "Scale"
  bottom: "res3b1_branch2b"
  top: "res3b1_branch2b"
  param {
    lr_mult: 0
    decay_mult: 0
  }
  param {
    lr_mult: 0
    decay_mult: 0
  }
  scale_param {
    bias_term: true
  }
}
layer {
  name: "res3b1_branch2b_relu"
  type: "ReLU"
  bottom: "res3b1_branch2b"
  top: "res3b1_branch2b"
}
layer {
  name: "res3b1_branch2c"
  type: "Convolution"
  bottom: "res3b1_branch2b"
  top: "res3b1_branch2c"
  param {
    lr_mult: 1
  }
  convolution_param {
    num_output: 512
    bias_term: false
    pad: 0
    kernel_size: 1
    stride: 1
  }
}
layer {
  name: "bn3b1_branch2c"
  type: "BatchNorm"
  bottom: "res3b1_branch2c"
  top: "res3b1_branch2c"
  param {
    lr_mult: 0
    decay_mult: 0
  }
  param {
    lr_mult: 0
    decay_mult: 0
  }
  param {
    lr_mult: 0
    decay_mult: 0
  }
  batch_norm_param {
    use_global_stats: false
  }
}
layer {
  name: "scale3b1_branch2c"
  type: "Scale"
  bottom: "res3b1_branch2c"
  top: "res3b1_branch2c"
  param {
    lr_mult: 0
    decay_mult: 0
  }
  param {
    lr_mult: 0
    decay_mult: 0
  }
  scale_param {
    bias_term: true
  }
}
layer {
  name: "res3b1"
  type: "Eltwise"
  bottom: "res3a"
  bottom: "res3b1_branch2c"
  top: "res3b1"
}
layer {
  name: "res3b1_relu"
  type: "ReLU"
  bottom: "res3b1"
  top: "res3b1"
}
layer {
  name: "res3b2_branch2a"
  type: "Convolution"
  bottom: "res3b1"
  top: "res3b2_branch2a"
  param {
    lr_mult: 1
  }
  convolution_param {
    num_output: 128
    bias_term: false
    pad: 0
    kernel_size: 1
    stride: 1
  }
}
layer {
  name: "bn3b2_branch2a"
  type: "BatchNorm"
  bottom: "res3b2_branch2a"
  top: "res3b2_branch2a"
  param {
    lr_mult: 0
    decay_mult: 0
  }
  param {
    lr_mult: 0
    decay_mult: 0
  }
  param {
    lr_mult: 0
    decay_mult: 0
  }
  batch_norm_param {
    use_global_stats: false
  }
}
layer {
  name: "scale3b2_branch2a"
  type: "Scale"
  bottom: "res3b2_branch2a"
  top: "res3b2_branch2a"
  param {
    lr_mult: 0
    decay_mult: 0
  }
  param {
    lr_mult: 0
    decay_mult: 0
  }
  scale_param {
    bias_term: true
  }
}
layer {
  name: "res3b2_branch2a_relu"
  type: "ReLU"
  bottom: "res3b2_branch2a"
  top: "res3b2_branch2a"
}
layer {
  name: "res3b2_branch2b"
  type: "Convolution"
  bottom: "res3b2_branch2a"
  top: "res3b2_branch2b"
  param {
    lr_mult: 1
  }
  convolution_param {
    num_output: 128
    bias_term: false
    pad: 1
    kernel_size: 3
    stride: 1
  }
}
layer {
  name: "bn3b2_branch2b"
  type: "BatchNorm"
  bottom: "res3b2_branch2b"
  top: "res3b2_branch2b"
  param {
    lr_mult: 0
    decay_mult: 0
  }
  param {
    lr_mult: 0
    decay_mult: 0
  }
  param {
    lr_mult: 0
    decay_mult: 0
  }
  batch_norm_param {
    use_global_stats: false
  }
}
layer {
  name: "scale3b2_branch2b"
  type: "Scale"
  bottom: "res3b2_branch2b"
  top: "res3b2_branch2b"
  param {
    lr_mult: 0
    decay_mult: 0
  }
  param {
    lr_mult: 0
    decay_mult: 0
  }
  scale_param {
    bias_term: true
  }
}
layer {
  name: "res3b2_branch2b_relu"
  type: "ReLU"
  bottom: "res3b2_branch2b"
  top: "res3b2_branch2b"
}
layer {
  name: "res3b2_branch2c"
  type: "Convolution"
  bottom: "res3b2_branch2b"
  top: "res3b2_branch2c"
  param {
    lr_mult: 1
  }
  convolution_param {
    num_output: 512
    bias_term: false
    pad: 0
    kernel_size: 1
    stride: 1
  }
}
layer {
  name: "bn3b2_branch2c"
  type: "BatchNorm"
  bottom: "res3b2_branch2c"
  top: "res3b2_branch2c"
  param {
    lr_mult: 0
    decay_mult: 0
  }
  param {
    lr_mult: 0
    decay_mult: 0
  }
  param {
    lr_mult: 0
    decay_mult: 0
  }
  batch_norm_param {
    use_global_stats: false
  }
}
layer {
  name: "scale3b2_branch2c"
  type: "Scale"
  bottom: "res3b2_branch2c"
  top: "res3b2_branch2c"
  param {
    lr_mult: 0
    decay_mult: 0
  }
  param {
    lr_mult: 0
    decay_mult: 0
  }
  scale_param {
    bias_term: true
  }
}
layer {
  name: "res3b2"
  type: "Eltwise"
  bottom: "res3b1"
  bottom: "res3b2_branch2c"
  top: "res3b2"
}
layer {
  name: "res3b2_relu"
  type: "ReLU"
  bottom: "res3b2"
  top: "res3b2"
}
layer {
  name: "res3b3_branch2a"
  type: "Convolution"
  bottom: "res3b2"
  top: "res3b3_branch2a"
  param {
    lr_mult: 1
  }
  convolution_param {
    num_output: 128
    bias_term: false
    pad: 0
    kernel_size: 1
    stride: 1
  }
}
layer {
  name: "bn3b3_branch2a"
  type: "BatchNorm"
  bottom: "res3b3_branch2a"
  top: "res3b3_branch2a"
  param {
    lr_mult: 0
    decay_mult: 0
  }
  param {
    lr_mult: 0
    decay_mult: 0
  }
  param {
    lr_mult: 0
    decay_mult: 0
  }
  batch_norm_param {
    use_global_stats: false
  }
}
layer {
  name: "scale3b3_branch2a"
  type: "Scale"
  bottom: "res3b3_branch2a"
  top: "res3b3_branch2a"
  param {
    lr_mult: 0
    decay_mult: 0
  }
  param {
    lr_mult: 0
    decay_mult: 0
  }
  scale_param {
    bias_term: true
  }
}
layer {
  name: "res3b3_branch2a_relu"
  type: "ReLU"
  bottom: "res3b3_branch2a"
  top: "res3b3_branch2a"
}
layer {
  name: "res3b3_branch2b"
  type: "Convolution"
  bottom: "res3b3_branch2a"
  top: "res3b3_branch2b"
  param {
    lr_mult: 1
  }
  convolution_param {
    num_output: 128
    bias_term: false
    pad: 1
    kernel_size: 3
    stride: 1
  }
}
layer {
  name: "bn3b3_branch2b"
  type: "BatchNorm"
  bottom: "res3b3_branch2b"
  top: "res3b3_branch2b"
  param {
    lr_mult: 0
    decay_mult: 0
  }
  param {
    lr_mult: 0
    decay_mult: 0
  }
  param {
    lr_mult: 0
    decay_mult: 0
  }
  batch_norm_param {
    use_global_stats: false
  }
}
layer {
  name: "scale3b3_branch2b"
  type: "Scale"
  bottom: "res3b3_branch2b"
  top: "res3b3_branch2b"
  param {
    lr_mult: 0
    decay_mult: 0
  }
  param {
    lr_mult: 0
    decay_mult: 0
  }
  scale_param {
    bias_term: true
  }
}
layer {
  name: "res3b3_branch2b_relu"
  type: "ReLU"
  bottom: "res3b3_branch2b"
  top: "res3b3_branch2b"
}
layer {
  name: "res3b3_branch2c"
  type: "Convolution"
  bottom: "res3b3_branch2b"
  top: "res3b3_branch2c"
  param {
    lr_mult: 1
  }
  convolution_param {
    num_output: 512
    bias_term: false
    pad: 0
    kernel_size: 1
    stride: 1
  }
}
layer {
  name: "bn3b3_branch2c"
  type: "BatchNorm"
  bottom: "res3b3_branch2c"
  top: "res3b3_branch2c"
  param {
    lr_mult: 0
    decay_mult: 0
  }
  param {
    lr_mult: 0
    decay_mult: 0
  }
  param {
    lr_mult: 0
    decay_mult: 0
  }
  batch_norm_param {
    use_global_stats: false
  }
}
layer {
  name: "scale3b3_branch2c"
  type: "Scale"
  bottom: "res3b3_branch2c"
  top: "res3b3_branch2c"
  param {
    lr_mult: 0
    decay_mult: 0
  }
  param {
    lr_mult: 0
    decay_mult: 0
  }
  scale_param {
    bias_term: true
  }
}
layer {
  name: "res3b3"
  type: "Eltwise"
  bottom: "res3b2"
  bottom: "res3b3_branch2c"
  top: "res3b3"
}
layer {
  name: "res3b3_relu"
  type: "ReLU"
  bottom: "res3b3"
  top: "res3b3"
}
layer {
  name: "res4a_branch1"
  type: "Convolution"
  bottom: "res3b3"
  top: "res4a_branch1"
  param {
    lr_mult: 1
  }
  convolution_param {
    num_output: 1024
    bias_term: false
    pad: 0
    kernel_size: 1
    stride: 2
  }
}
layer {
  name: "bn4a_branch1"
  type: "BatchNorm"
  bottom: "res4a_branch1"
  top: "res4a_branch1"
  param {
    lr_mult: 0
    decay_mult: 0
  }
  param {
    lr_mult: 0
    decay_mult: 0
  }
  param {
    lr_mult: 0
    decay_mult: 0
  }
  batch_norm_param {
    use_global_stats: false
  }
}
layer {
  name: "scale4a_branch1"
  type: "Scale"
  bottom: "res4a_branch1"
  top: "res4a_branch1"
  param {
    lr_mult: 0
    decay_mult: 0
  }
  param {
    lr_mult: 0
    decay_mult: 0
  }
  scale_param {
    bias_term: true
  }
}
layer {
  name: "res4a_branch2a"
  type: "Convolution"
  bottom: "res3b3"
  top: "res4a_branch2a"
  param {
    lr_mult: 1
  }
  convolution_param {
    num_output: 256
    bias_term: false
    pad: 0
    kernel_size: 1
    stride: 2
  }
}
layer {
  name: "bn4a_branch2a"
  type: "BatchNorm"
  bottom: "res4a_branch2a"
  top: "res4a_branch2a"
  param {
    lr_mult: 0
    decay_mult: 0
  }
  param {
    lr_mult: 0
    decay_mult: 0
  }
  param {
    lr_mult: 0
    decay_mult: 0
  }
  batch_norm_param {
    use_global_stats: false
  }
}
layer {
  name: "scale4a_branch2a"
  type: "Scale"
  bottom: "res4a_branch2a"
  top: "res4a_branch2a"
  param {
    lr_mult: 0
    decay_mult: 0
  }
  param {
    lr_mult: 0
    decay_mult: 0
  }
  scale_param {
    bias_term: true
  }
}
layer {
  name: "res4a_branch2a_relu"
  type: "ReLU"
  bottom: "res4a_branch2a"
  top: "res4a_branch2a"
}
layer {
  name: "res4a_branch2b"
  type: "Convolution"
  bottom: "res4a_branch2a"
  top: "res4a_branch2b"
  param {
    lr_mult: 1
  }
  convolution_param {
    num_output: 256
    bias_term: false
    pad: 1
    kernel_size: 3
    stride: 1
  }
}
layer {
  name: "bn4a_branch2b"
  type: "BatchNorm"
  bottom: "res4a_branch2b"
  top: "res4a_branch2b"
  param {
    lr_mult: 0
    decay_mult: 0
  }
  param {
    lr_mult: 0
    decay_mult: 0
  }
  param {
    lr_mult: 0
    decay_mult: 0
  }
  batch_norm_param {
    use_global_stats: false
  }
}
layer {
  name: "scale4a_branch2b"
  type: "Scale"
  bottom: "res4a_branch2b"
  top: "res4a_branch2b"
  param {
    lr_mult: 0
    decay_mult: 0
  }
  param {
    lr_mult: 0
    decay_mult: 0
  }
  scale_param {
    bias_term: true
  }
}
layer {
  name: "res4a_branch2b_relu"
  type: "ReLU"
  bottom: "res4a_branch2b"
  top: "res4a_branch2b"
}
layer {
  name: "res4a_branch2c"
  type: "Convolution"
  bottom: "res4a_branch2b"
  top: "res4a_branch2c"
  param {
    lr_mult: 1
  }
  convolution_param {
    num_output: 1024
    bias_term: false
    pad: 0
    kernel_size: 1
    stride: 1
  }
}
layer {
  name: "bn4a_branch2c"
  type: "BatchNorm"
  bottom: "res4a_branch2c"
  top: "res4a_branch2c"
  param {
    lr_mult: 0
    decay_mult: 0
  }
  param {
    lr_mult: 0
    decay_mult: 0
  }
  param {
    lr_mult: 0
    decay_mult: 0
  }
  batch_norm_param {
    use_global_stats: false
  }
}
layer {
  name: "scale4a_branch2c"
  type: "Scale"
  bottom: "res4a_branch2c"
  top: "res4a_branch2c"
  param {
    lr_mult: 0
    decay_mult: 0
  }
  param {
    lr_mult: 0
    decay_mult: 0
  }
  scale_param {
    bias_term: true
  }
}
layer {
  name: "res4a"
  type: "Eltwise"
  bottom: "res4a_branch1"
  bottom: "res4a_branch2c"
  top: "res4a"
}
layer {
  name: "res4a_relu"
  type: "ReLU"
  bottom: "res4a"
  top: "res4a"
}
layer {
  name: "res4b1_branch2a"
  type: "Convolution"
  bottom: "res4a"
  top: "res4b1_branch2a"
  param {
    lr_mult: 1
  }
  convolution_param {
    num_output: 256
    bias_term: false
    pad: 0
    kernel_size: 1
    stride: 1
  }
}
layer {
  name: "bn4b1_branch2a"
  type: "BatchNorm"
  bottom: "res4b1_branch2a"
  top: "res4b1_branch2a"
  param {
    lr_mult: 0
    decay_mult: 0
  }
  param {
    lr_mult: 0
    decay_mult: 0
  }
  param {
    lr_mult: 0
    decay_mult: 0
  }
  batch_norm_param {
    use_global_stats: false
  }
}
layer {
  name: "scale4b1_branch2a"
  type: "Scale"
  bottom: "res4b1_branch2a"
  top: "res4b1_branch2a"
  param {
    lr_mult: 0
    decay_mult: 0
  }
  param {
    lr_mult: 0
    decay_mult: 0
  }
  scale_param {
    bias_term: true
  }
}
layer {
  name: "res4b1_branch2a_relu"
  type: "ReLU"
  bottom: "res4b1_branch2a"
  top: "res4b1_branch2a"
}
layer {
  name: "res4b1_branch2b"
  type: "Convolution"
  bottom: "res4b1_branch2a"
  top: "res4b1_branch2b"
  param {
    lr_mult: 1
  }
  convolution_param {
    num_output: 256
    bias_term: false
    pad: 1
    kernel_size: 3
    stride: 1
  }
}
layer {
  name: "bn4b1_branch2b"
  type: "BatchNorm"
  bottom: "res4b1_branch2b"
  top: "res4b1_branch2b"
  param {
    lr_mult: 0
    decay_mult: 0
  }
  param {
    lr_mult: 0
    decay_mult: 0
  }
  param {
    lr_mult: 0
    decay_mult: 0
  }
  batch_norm_param {
    use_global_stats: false
  }
}
layer {
  name: "scale4b1_branch2b"
  type: "Scale"
  bottom: "res4b1_branch2b"
  top: "res4b1_branch2b"
  param {
    lr_mult: 0
    decay_mult: 0
  }
  param {
    lr_mult: 0
    decay_mult: 0
  }
  scale_param {
    bias_term: true
  }
}
layer {
  name: "res4b1_branch2b_relu"
  type: "ReLU"
  bottom: "res4b1_branch2b"
  top: "res4b1_branch2b"
}
layer {
  name: "res4b1_branch2c"
  type: "Convolution"
  bottom: "res4b1_branch2b"
  top: "res4b1_branch2c"
  param {
    lr_mult: 1
  }
  convolution_param {
    num_output: 1024
    bias_term: false
    pad: 0
    kernel_size: 1
    stride: 1
  }
}
layer {
  name: "bn4b1_branch2c"
  type: "BatchNorm"
  bottom: "res4b1_branch2c"
  top: "res4b1_branch2c"
  param {
    lr_mult: 0
    decay_mult: 0
  }
  param {
    lr_mult: 0
    decay_mult: 0
  }
  param {
    lr_mult: 0
    decay_mult: 0
  }
  batch_norm_param {
    use_global_stats: false
  }
}
layer {
  name: "scale4b1_branch2c"
  type: "Scale"
  bottom: "res4b1_branch2c"
  top: "res4b1_branch2c"
  param {
    lr_mult: 0
    decay_mult: 0
  }
  param {
    lr_mult: 0
    decay_mult: 0
  }
  scale_param {
    bias_term: true
  }
}
layer {
  name: "res4b1"
  type: "Eltwise"
  bottom: "res4a"
  bottom: "res4b1_branch2c"
  top: "res4b1"
}
layer {
  name: "res4b1_relu"
  type: "ReLU"
  bottom: "res4b1"
  top: "res4b1"
}
layer {
  name: "res4b2_branch2a"
  type: "Convolution"
  bottom: "res4b1"
  top: "res4b2_branch2a"
  param {
    lr_mult: 1
  }
  convolution_param {
    num_output: 256
    bias_term: false
    pad: 0
    kernel_size: 1
    stride: 1
  }
}
layer {
  name: "bn4b2_branch2a"
  type: "BatchNorm"
  bottom: "res4b2_branch2a"
  top: "res4b2_branch2a"
  param {
    lr_mult: 0
    decay_mult: 0
  }
  param {
    lr_mult: 0
    decay_mult: 0
  }
  param {
    lr_mult: 0
    decay_mult: 0
  }
  batch_norm_param {
    use_global_stats: false
  }
}
layer {
  name: "scale4b2_branch2a"
  type: "Scale"
  bottom: "res4b2_branch2a"
  top: "res4b2_branch2a"
  param {
    lr_mult: 0
    decay_mult: 0
  }
  param {
    lr_mult: 0
    decay_mult: 0
  }
  scale_param {
    bias_term: true
  }
}
layer {
  name: "res4b2_branch2a_relu"
  type: "ReLU"
  bottom: "res4b2_branch2a"
  top: "res4b2_branch2a"
}
layer {
  name: "res4b2_branch2b"
  type: "Convolution"
  bottom: "res4b2_branch2a"
  top: "res4b2_branch2b"
  param {
    lr_mult: 1
  }
  convolution_param {
    num_output: 256
    bias_term: false
    pad: 1
    kernel_size: 3
    stride: 1
  }
}
layer {
  name: "bn4b2_branch2b"
  type: "BatchNorm"
  bottom: "res4b2_branch2b"
  top: "res4b2_branch2b"
  param {
    lr_mult: 0
    decay_mult: 0
  }
  param {
    lr_mult: 0
    decay_mult: 0
  }
  param {
    lr_mult: 0
    decay
I0727 13:26:46.955691  9114 layer_factory.hpp:77] Creating layer input-data
I0727 13:26:46.964326  9114 net.cpp:84] Creating Layer input-data
I0727 13:26:46.964342  9114 net.cpp:380] input-data -> data
I0727 13:26:46.964351  9114 net.cpp:380] input-data -> im_info
I0727 13:26:46.964359  9114 net.cpp:380] input-data -> gt_boxes
RoiDataLayer: name_to_top: {'gt_boxes': 2, 'data': 0, 'im_info': 1}
I0727 13:26:46.976677  9114 net.cpp:122] Setting up input-data
I0727 13:26:46.976692  9114 net.cpp:129] Top shape: 1 3 720 1280 (2764800)
I0727 13:26:46.976702  9114 net.cpp:129] Top shape: 1 3 (3)
I0727 13:26:46.976707  9114 net.cpp:129] Top shape: 1 4 (4)
I0727 13:26:46.976711  9114 net.cpp:137] Memory required for data: 11059228
I0727 13:26:46.976714  9114 layer_factory.hpp:77] Creating layer data_input-data_0_split
I0727 13:26:46.976723  9114 net.cpp:84] Creating Layer data_input-data_0_split
I0727 13:26:46.976727  9114 net.cpp:406] data_input-data_0_split <- data
I0727 13:26:46.976732  9114 net.cpp:380] data_input-data_0_split -> data_input-data_0_split_0
I0727 13:26:46.976740  9114 net.cpp:380] data_input-data_0_split -> data_input-data_0_split_1
I0727 13:26:46.976814  9114 net.cpp:122] Setting up data_input-data_0_split
I0727 13:26:46.976821  9114 net.cpp:129] Top shape: 1 3 720 1280 (2764800)
I0727 13:26:46.976826  9114 net.cpp:129] Top shape: 1 3 720 1280 (2764800)
I0727 13:26:46.976828  9114 net.cpp:137] Memory required for data: 33177628
I0727 13:26:46.976832  9114 layer_factory.hpp:77] Creating layer im_info_input-data_1_split
I0727 13:26:46.976836  9114 net.cpp:84] Creating Layer im_info_input-data_1_split
I0727 13:26:46.976840  9114 net.cpp:406] im_info_input-data_1_split <- im_info
I0727 13:26:46.976845  9114 net.cpp:380] im_info_input-data_1_split -> im_info_input-data_1_split_0
I0727 13:26:46.976850  9114 net.cpp:380] im_info_input-data_1_split -> im_info_input-data_1_split_1
I0727 13:26:46.976887  9114 net.cpp:122] Setting up im_info_input-data_1_split
I0727 13:26:46.976894  9114 net.cpp:129] Top shape: 1 3 (3)
I0727 13:26:46.976898  9114 net.cpp:129] Top shape: 1 3 (3)
I0727 13:26:46.976902  9114 net.cpp:137] Memory required for data: 33177652
I0727 13:26:46.976904  9114 layer_factory.hpp:77] Creating layer gt_boxes_input-data_2_split
I0727 13:26:46.976908  9114 net.cpp:84] Creating Layer gt_boxes_input-data_2_split
I0727 13:26:46.976912  9114 net.cpp:406] gt_boxes_input-data_2_split <- gt_boxes
I0727 13:26:46.976917  9114 net.cpp:380] gt_boxes_input-data_2_split -> gt_boxes_input-data_2_split_0
I0727 13:26:46.976922  9114 net.cpp:380] gt_boxes_input-data_2_split -> gt_boxes_input-data_2_split_1
I0727 13:26:46.976958  9114 net.cpp:122] Setting up gt_boxes_input-data_2_split
I0727 13:26:46.976965  9114 net.cpp:129] Top shape: 1 4 (4)
I0727 13:26:46.976969  9114 net.cpp:129] Top shape: 1 4 (4)
I0727 13:26:46.976971  9114 net.cpp:137] Memory required for data: 33177684
I0727 13:26:46.976974  9114 layer_factory.hpp:77] Creating layer conv1
I0727 13:26:46.976982  9114 net.cpp:84] Creating Layer conv1
I0727 13:26:46.976989  9114 net.cpp:406] conv1 <- data_input-data_0_split_0
I0727 13:26:46.976994  9114 net.cpp:380] conv1 -> conv1
I0727 13:26:47.806561  9114 net.cpp:122] Setting up conv1
I0727 13:26:47.806596  9114 net.cpp:129] Top shape: 1 64 360 640 (14745600)
I0727 13:26:47.806599  9114 net.cpp:137] Memory required for data: 92160084
I0727 13:26:47.806612  9114 layer_factory.hpp:77] Creating layer bn_conv1
I0727 13:26:47.806623  9114 net.cpp:84] Creating Layer bn_conv1
I0727 13:26:47.806628  9114 net.cpp:406] bn_conv1 <- conv1
I0727 13:26:47.806634  9114 net.cpp:367] bn_conv1 -> conv1 (in-place)
I0727 13:26:47.807592  9114 net.cpp:122] Setting up bn_conv1
I0727 13:26:47.807608  9114 net.cpp:129] Top shape: 1 64 360 640 (14745600)
I0727 13:26:47.807611  9114 net.cpp:137] Memory required for data: 151142484
I0727 13:26:47.807623  9114 layer_factory.hpp:77] Creating layer scale_conv1
I0727 13:26:47.807636  9114 net.cpp:84] Creating Layer scale_conv1
I0727 13:26:47.807639  9114 net.cpp:406] scale_conv1 <- conv1
I0727 13:26:47.807644  9114 net.cpp:367] scale_conv1 -> conv1 (in-place)
I0727 13:26:47.807703  9114 layer_factory.hpp:77] Creating layer scale_conv1
I0727 13:26:47.809149  9114 net.cpp:122] Setting up scale_conv1
I0727 13:26:47.809165  9114 net.cpp:129] Top shape: 1 64 360 640 (14745600)
I0727 13:26:47.809168  9114 net.cpp:137] Memory required for data: 210124884
I0727 13:26:47.809177  9114 layer_factory.hpp:77] Creating layer conv1_relu
I0727 13:26:47.809185  9114 net.cpp:84] Creating Layer conv1_relu
I0727 13:26:47.809187  9114 net.cpp:406] conv1_relu <- conv1
I0727 13:26:47.809192  9114 net.cpp:367] conv1_relu -> conv1 (in-place)
I0727 13:26:47.809825  9114 net.cpp:122] Setting up conv1_relu
I0727 13:26:47.809840  9114 net.cpp:129] Top shape: 1 64 360 640 (14745600)
I0727 13:26:47.809844  9114 net.cpp:137] Memory required for data: 269107284
I0727 13:26:47.809847  9114 layer_factory.hpp:77] Creating layer pool1
I0727 13:26:47.809856  9114 net.cpp:84] Creating Layer pool1
I0727 13:26:47.809859  9114 net.cpp:406] pool1 <- conv1
I0727 13:26:47.809865  9114 net.cpp:380] pool1 -> pool1
I0727 13:26:47.809926  9114 net.cpp:122] Setting up pool1
I0727 13:26:47.809934  9114 net.cpp:129] Top shape: 1 64 180 320 (3686400)
I0727 13:26:47.809937  9114 net.cpp:137] Memory required for data: 283852884
I0727 13:26:47.809940  9114 layer_factory.hpp:77] Creating layer pool1_pool1_0_split
I0727 13:26:47.809945  9114 net.cpp:84] Creating Layer pool1_pool1_0_split
I0727 13:26:47.809948  9114 net.cpp:406] pool1_pool1_0_split <- pool1
I0727 13:26:47.809953  9114 net.cpp:380] pool1_pool1_0_split -> pool1_pool1_0_split_0
I0727 13:26:47.809959  9114 net.cpp:380] pool1_pool1_0_split -> pool1_pool1_0_split_1
I0727 13:26:47.810004  9114 net.cpp:122] Setting up pool1_pool1_0_split
I0727 13:26:47.810011  9114 net.cpp:129] Top shape: 1 64 180 320 (3686400)
I0727 13:26:47.810015  9114 net.cpp:129] Top shape: 1 64 180 320 (3686400)
I0727 13:26:47.810017  9114 net.cpp:137] Memory required for data: 313344084
I0727 13:26:47.810020  9114 layer_factory.hpp:77] Creating layer res2a_branch1
I0727 13:26:47.810029  9114 net.cpp:84] Creating Layer res2a_branch1
I0727 13:26:47.810034  9114 net.cpp:406] res2a_branch1 <- pool1_pool1_0_split_0
I0727 13:26:47.810039  9114 net.cpp:380] res2a_branch1 -> res2a_branch1
I0727 13:26:47.812160  9114 net.cpp:122] Setting up res2a_branch1
I0727 13:26:47.812176  9114 net.cpp:129] Top shape: 1 256 180 320 (14745600)
I0727 13:26:47.812180  9114 net.cpp:137] Memory required for data: 372326484
I0727 13:26:47.812186  9114 layer_factory.hpp:77] Creating layer bn2a_branch1
I0727 13:26:47.812193  9114 net.cpp:84] Creating Layer bn2a_branch1
I0727 13:26:47.812196  9114 net.cpp:406] bn2a_branch1 <- res2a_branch1
I0727 13:26:47.812201  9114 net.cpp:367] bn2a_branch1 -> res2a_branch1 (in-place)
I0727 13:26:47.813005  9114 net.cpp:122] Setting up bn2a_branch1
I0727 13:26:47.813020  9114 net.cpp:129] Top shape: 1 256 180 320 (14745600)
I0727 13:26:47.813024  9114 net.cpp:137] Memory required for data: 431308884
I0727 13:26:47.813035  9114 layer_factory.hpp:77] Creating layer scale2a_branch1
I0727 13:26:47.813041  9114 net.cpp:84] Creating Layer scale2a_branch1
I0727 13:26:47.813045  9114 net.cpp:406] scale2a_branch1 <- res2a_branch1
I0727 13:26:47.813051  9114 net.cpp:367] scale2a_branch1 -> res2a_branch1 (in-place)
I0727 13:26:47.813105  9114 layer_factory.hpp:77] Creating layer scale2a_branch1
I0727 13:26:47.813308  9114 net.cpp:122] Setting up scale2a_branch1
I0727 13:26:47.813318  9114 net.cpp:129] Top shape: 1 256 180 320 (14745600)
I0727 13:26:47.813323  9114 net.cpp:137] Memory required for data: 490291284
I0727 13:26:47.813328  9114 layer_factory.hpp:77] Creating layer res2a_branch2a
I0727 13:26:47.813335  9114 net.cpp:84] Creating Layer res2a_branch2a
I0727 13:26:47.813340  9114 net.cpp:406] res2a_branch2a <- pool1_pool1_0_split_1
I0727 13:26:47.813346  9114 net.cpp:380] res2a_branch2a -> res2a_branch2a
I0727 13:26:47.815515  9114 net.cpp:122] Setting up res2a_branch2a
I0727 13:26:47.815531  9114 net.cpp:129] Top shape: 1 64 180 320 (3686400)
I0727 13:26:47.815536  9114 net.cpp:137] Memory required for data: 505036884
I0727 13:26:47.815541  9114 layer_factory.hpp:77] Creating layer bn2a_branch2a
I0727 13:26:47.815548  9114 net.cpp:84] Creating Layer bn2a_branch2a
I0727 13:26:47.815552  9114 net.cpp:406] bn2a_branch2a <- res2a_branch2a
I0727 13:26:47.815557  9114 net.cpp:367] bn2a_branch2a -> res2a_branch2a (in-place)
I0727 13:26:47.815860  9114 net.cpp:122] Setting up bn2a_branch2a
I0727 13:26:47.815870  9114 net.cpp:129] Top shape: 1 64 180 320 (3686400)
I0727 13:26:47.815872  9114 net.cpp:137] Memory required for data: 519782484
I0727 13:26:47.815879  9114 layer_factory.hpp:77] Creating layer scale2a_branch2a
I0727 13:26:47.815886  9114 net.cpp:84] Creating Layer scale2a_branch2a
I0727 13:26:47.815888  9114 net.cpp:406] scale2a_branch2a <- res2a_branch2a
I0727 13:26:47.815893  9114 net.cpp:367] scale2a_branch2a -> res2a_branch2a (in-place)
I0727 13:26:47.815946  9114 layer_factory.hpp:77] Creating layer scale2a_branch2a
I0727 13:26:47.816690  9114 net.cpp:122] Setting up scale2a_branch2a
I0727 13:26:47.816705  9114 net.cpp:129] Top shape: 1 64 180 320 (3686400)
I0727 13:26:47.816709  9114 net.cpp:137] Memory required for data: 534528084
I0727 13:26:47.816717  9114 layer_factory.hpp:77] Creating layer res2a_branch2a_relu
I0727 13:26:47.816725  9114 net.cpp:84] Creating Layer res2a_branch2a_relu
I0727 13:26:47.816728  9114 net.cpp:406] res2a_branch2a_relu <- res2a_branch2a
I0727 13:26:47.816733  9114 net.cpp:367] res2a_branch2a_relu -> res2a_branch2a (in-place)
I0727 13:26:47.817355  9114 net.cpp:122] Setting up res2a_branch2a_relu
I0727 13:26:47.817369  9114 net.cpp:129] Top shape: 1 64 180 320 (3686400)
I0727 13:26:47.817373  9114 net.cpp:137] Memory required for data: 549273684
I0727 13:26:47.817376  9114 layer_factory.hpp:77] Creating layer res2a_branch2b
I0727 13:26:47.817385  9114 net.cpp:84] Creating Layer res2a_branch2b
I0727 13:26:47.817389  9114 net.cpp:406] res2a_branch2b <- res2a_branch2a
I0727 13:26:47.817394  9114 net.cpp:380] res2a_branch2b -> res2a_branch2b
I0727 13:26:47.819545  9114 net.cpp:122] Setting up res2a_branch2b
I0727 13:26:47.819560  9114 net.cpp:129] Top shape: 1 64 180 320 (3686400)
I0727 13:26:47.819563  9114 net.cpp:137] Memory required for data: 564019284
I0727 13:26:47.819568  9114 layer_factory.hpp:77] Creating layer bn2a_branch2b
I0727 13:26:47.819576  9114 net.cpp:84] Creating Layer bn2a_branch2b
I0727 13:26:47.819579  9114 net.cpp:406] bn2a_branch2b <- res2a_branch2b
I0727 13:26:47.819584  9114 net.cpp:367] bn2a_branch2b -> res2a_branch2b (in-place)
I0727 13:26:47.819891  9114 net.cpp:122] Setting up bn2a_branch2b
I0727 13:26:47.819901  9114 net.cpp:129] Top shape: 1 64 180 320 (3686400)
I0727 13:26:47.819905  9114 net.cpp:137] Memory required for data: 578764884
I0727 13:26:47.819911  9114 layer_factory.hpp:77] Creating layer scale2a_branch2b
I0727 13:26:47.819917  9114 net.cpp:84] Creating Layer scale2a_branch2b
I0727 13:26:47.819921  9114 net.cpp:406] scale2a_branch2b <- res2a_branch2b
I0727 13:26:47.819926  9114 net.cpp:367] scale2a_branch2b -> res2a_branch2b (in-place)
I0727 13:26:47.819979  9114 layer_factory.hpp:77] Creating layer scale2a_branch2b
I0727 13:26:47.820735  9114 net.cpp:122] Setting up scale2a_branch2b
I0727 13:26:47.820751  9114 net.cpp:129] Top shape: 1 64 180 320 (3686400)
I0727 13:26:47.820755  9114 net.cpp:137] Memory required for data: 593510484
I0727 13:26:47.820760  9114 layer_factory.hpp:77] Creating layer res2a_branch2b_relu
I0727 13:26:47.820766  9114 net.cpp:84] Creating Layer res2a_branch2b_relu
I0727 13:26:47.820770  9114 net.cpp:406] res2a_branch2b_relu <- res2a_branch2b
I0727 13:26:47.820775  9114 net.cpp:367] res2a_branch2b_relu -> res2a_branch2b (in-place)
I0727 13:26:47.820943  9114 net.cpp:122] Setting up res2a_branch2b_relu
I0727 13:26:47.820955  9114 net.cpp:129] Top shape: 1 64 180 320 (3686400)
I0727 13:26:47.820958  9114 net.cpp:137] Memory required for data: 608256084
I0727 13:26:47.820961  9114 layer_factory.hpp:77] Creating layer res2a_branch2c
I0727 13:26:47.820969  9114 net.cpp:84] Creating Layer res2a_branch2c
I0727 13:26:47.820972  9114 net.cpp:406] res2a_branch2c <- res2a_branch2b
I0727 13:26:47.820978  9114 net.cpp:380] res2a_branch2c -> res2a_branch2c
I0727 13:26:47.823122  9114 net.cpp:122] Setting up res2a_branch2c
I0727 13:26:47.823138  9114 net.cpp:129] Top shape: 1 256 180 320 (14745600)
I0727 13:26:47.823143  9114 net.cpp:137] Memory required for data: 667238484
I0727 13:26:47.823148  9114 layer_factory.hpp:77] Creating layer bn2a_branch2c
I0727 13:26:47.823155  9114 net.cpp:84] Creating Layer bn2a_branch2c
I0727 13:26:47.823158  9114 net.cpp:406] bn2a_branch2c <- res2a_branch2c
I0727 13:26:47.823163  9114 net.cpp:367] bn2a_branch2c -> res2a_branch2c (in-place)
I0727 13:26:47.823464  9114 net.cpp:122] Setting up bn2a_branch2c
I0727 13:26:47.823473  9114 net.cpp:129] Top shape: 1 256 180 320 (14745600)
I0727 13:26:47.823477  9114 net.cpp:137] Memory required for data: 726220884
I0727 13:26:47.823483  9114 layer_factory.hpp:77] Creating layer scale2a_branch2c
I0727 13:26:47.823489  9114 net.cpp:84] Creating Layer scale2a_branch2c
I0727 13:26:47.823493  9114 net.cpp:406] scale2a_branch2c <- res2a_branch2c
I0727 13:26:47.823498  9114 net.cpp:367] scale2a_branch2c -> res2a_branch2c (in-place)
I0727 13:26:47.823551  9114 layer_factory.hpp:77] Creating layer scale2a_branch2c
I0727 13:26:47.824272  9114 net.cpp:122] Setting up scale2a_branch2c
I0727 13:26:47.824286  9114 net.cpp:129] Top shape: 1 256 180 320 (14745600)
I0727 13:26:47.824290  9114 net.cpp:137] Memory required for data: 785203284
I0727 13:26:47.824296  9114 layer_factory.hpp:77] Creating layer res2a
I0727 13:26:47.824302  9114 net.cpp:84] Creating Layer res2a
I0727 13:26:47.824306  9114 net.cpp:406] res2a <- res2a_branch1
I0727 13:26:47.824311  9114 net.cpp:406] res2a <- res2a_branch2c
I0727 13:26:47.824316  9114 net.cpp:380] res2a -> res2a
I0727 13:26:47.824359  9114 net.cpp:122] Setting up res2a
I0727 13:26:47.824368  9114 net.cpp:129] Top shape: 1 256 180 320 (14745600)
I0727 13:26:47.824371  9114 net.cpp:137] Memory required for data: 844185684
I0727 13:26:47.824374  9114 layer_factory.hpp:77] Creating layer res2a_relu
I0727 13:26:47.824379  9114 net.cpp:84] Creating Layer res2a_relu
I0727 13:26:47.824383  9114 net.cpp:406] res2a_relu <- res2a
I0727 13:26:47.824388  9114 net.cpp:367] res2a_relu -> res2a (in-place)
I0727 13:26:47.825031  9114 net.cpp:122] Setting up res2a_relu
I0727 13:26:47.825047  9114 net.cpp:129] Top shape: 1 256 180 320 (14745600)
I0727 13:26:47.825049  9114 net.cpp:137] Memory required for data: 903168084
I0727 13:26:47.825053  9114 layer_factory.hpp:77] Creating layer res2a_res2a_relu_0_split
I0727 13:26:47.825058  9114 net.cpp:84] Creating Layer res2a_res2a_relu_0_split
I0727 13:26:47.825062  9114 net.cpp:406] res2a_res2a_relu_0_split <- res2a
I0727 13:26:47.825067  9114 net.cpp:380] res2a_res2a_relu_0_split -> res2a_res2a_relu_0_split_0
I0727 13:26:47.825073  9114 net.cpp:380] res2a_res2a_relu_0_split -> res2a_res2a_relu_0_split_1
I0727 13:26:47.825132  9114 net.cpp:122] Setting up res2a_res2a_relu_0_split
I0727 13:26:47.825141  9114 net.cpp:129] Top shape: 1 256 180 320 (14745600)
I0727 13:26:47.825145  9114 net.cpp:129] Top shape: 1 256 180 320 (14745600)
I0727 13:26:47.825147  9114 net.cpp:137] Memory required for data: 1021132884
I0727 13:26:47.825151  9114 layer_factory.hpp:77] Creating layer res2b_branch2a
I0727 13:26:47.825158  9114 net.cpp:84] Creating Layer res2b_branch2a
I0727 13:26:47.825165  9114 net.cpp:406] res2b_branch2a <- res2a_res2a_relu_0_split_0
I0727 13:26:47.825170  9114 net.cpp:380] res2b_branch2a -> res2b_branch2a
I0727 13:26:47.826890  9114 net.cpp:122] Setting up res2b_branch2a
I0727 13:26:47.826905  9114 net.cpp:129] Top shape: 1 64 180 320 (3686400)
I0727 13:26:47.826910  9114 net.cpp:137] Memory required for data: 1035878484
I0727 13:26:47.826915  9114 layer_factory.hpp:77] Creating layer bn2b_branch2a
I0727 13:26:47.826923  9114 net.cpp:84] Creating Layer bn2b_branch2a
I0727 13:26:47.826926  9114 net.cpp:406] bn2b_branch2a <- res2b_branch2a
I0727 13:26:47.826932  9114 net.cpp:367] bn2b_branch2a -> res2b_branch2a (in-place)
I0727 13:26:47.827262  9114 net.cpp:122] Setting up bn2b_branch2a
I0727 13:26:47.827272  9114 net.cpp:129] Top shape: 1 64 180 320 (3686400)
I0727 13:26:47.827275  9114 net.cpp:137] Memory required for data: 1050624084
I0727 13:26:47.827288  9114 layer_factory.hpp:77] Creating layer scale2b_branch2a
I0727 13:26:47.827296  9114 net.cpp:84] Creating Layer scale2b_branch2a
I0727 13:26:47.827298  9114 net.cpp:406] scale2b_branch2a <- res2b_branch2a
I0727 13:26:47.827304  9114 net.cpp:367] scale2b_branch2a -> res2b_branch2a (in-place)
I0727 13:26:47.827363  9114 layer_factory.hpp:77] Creating layer scale2b_branch2a
I0727 13:26:47.827596  9114 net.cpp:122] Setting up scale2b_branch2a
I0727 13:26:47.827606  9114 net.cpp:129] Top shape: 1 64 180 320 (3686400)
I0727 13:26:47.827610  9114 net.cpp:137] Memory required for data: 1065369684
I0727 13:26:47.827615  9114 layer_factory.hpp:77] Creating layer res2b_branch2a_relu
I0727 13:26:47.827620  9114 net.cpp:84] Creating Layer res2b_branch2a_relu
I0727 13:26:47.827623  9114 net.cpp:406] res2b_branch2a_relu <- res2b_branch2a
I0727 13:26:47.827630  9114 net.cpp:367] res2b_branch2a_relu -> res2b_branch2a (in-place)
I0727 13:26:47.828269  9114 net.cpp:122] Setting up res2b_branch2a_relu
I0727 13:26:47.828284  9114 net.cpp:129] Top shape: 1 64 180 320 (3686400)
I0727 13:26:47.828287  9114 net.cpp:137] Memory required for data: 1080115284
I0727 13:26:47.828290  9114 layer_factory.hpp:77] Creating layer res2b_branch2b
I0727 13:26:47.828299  9114 net.cpp:84] Creating Layer res2b_branch2b
I0727 13:26:47.828303  9114 net.cpp:406] res2b_branch2b <- res2b_branch2a
I0727 13:26:47.828308  9114 net.cpp:380] res2b_branch2b -> res2b_branch2b
I0727 13:26:47.830554  9114 net.cpp:122] Setting up res2b_branch2b
I0727 13:26:47.830569  9114 net.cpp:129] Top shape: 1 64 180 320 (3686400)
I0727 13:26:47.830572  9114 net.cpp:137] Memory required for data: 1094860884
I0727 13:26:47.830577  9114 layer_factory.hpp:77] Creating layer bn2b_branch2b
I0727 13:26:47.830588  9114 net.cpp:84] Creating Layer bn2b_branch2b
I0727 13:26:47.830593  9114 net.cpp:406] bn2b_branch2b <- res2b_branch2b
I0727 13:26:47.830600  9114 net.cpp:367] bn2b_branch2b -> res2b_branch2b (in-place)
I0727 13:26:47.831516  9114 net.cpp:122] Setting up bn2b_branch2b
I0727 13:26:47.831532  9114 net.cpp:129] Top shape: 1 64 180 320 (3686400)
I0727 13:26:47.831534  9114 net.cpp:137] Memory required for data: 1109606484
I0727 13:26:47.831542  9114 layer_factory.hpp:77] Creating layer scale2b_branch2b
I0727 13:26:47.831548  9114 net.cpp:84] Creating Layer scale2b_branch2b
I0727 13:26:47.831552  9114 net.cpp:406] scale2b_branch2b <- res2b_branch2b
I0727 13:26:47.831557  9114 net.cpp:367] scale2b_branch2b -> res2b_branch2b (in-place)
I0727 13:26:47.831622  9114 layer_factory.hpp:77] Creating layer scale2b_branch2b
I0727 13:26:47.831862  9114 net.cpp:122] Setting up scale2b_branch2b
I0727 13:26:47.831872  9114 net.cpp:129] Top shape: 1 64 180 320 (3686400)
I0727 13:26:47.831876  9114 net.cpp:137] Memory required for data: 1124352084
I0727 13:26:47.831881  9114 layer_factory.hpp:77] Creating layer res2b_branch2b_relu
I0727 13:26:47.831887  9114 net.cpp:84] Creating Layer res2b_branch2b_relu
I0727 13:26:47.831889  9114 net.cpp:406] res2b_branch2b_relu <- res2b_branch2b
I0727 13:26:47.831893  9114 net.cpp:367] res2b_branch2b_relu -> res2b_branch2b (in-place)
I0727 13:26:47.832074  9114 net.cpp:122] Setting up res2b_branch2b_relu
I0727 13:26:47.832085  9114 net.cpp:129] Top shape: 1 64 180 320 (3686400)
I0727 13:26:47.832089  9114 net.cpp:137] Memory required for data: 1139097684
I0727 13:26:47.832093  9114 layer_factory.hpp:77] Creating layer res2b_branch2c
I0727 13:26:47.832100  9114 net.cpp:84] Creating Layer res2b_branch2c
I0727 13:26:47.832104  9114 net.cpp:406] res2b_branch2c <- res2b_branch2b
I0727 13:26:47.832110  9114 net.cpp:380] res2b_branch2c -> res2b_branch2c
I0727 13:26:47.834364  9114 net.cpp:122] Setting up res2b_branch2c
I0727 13:26:47.834380  9114 net.cpp:129] Top shape: 1 256 180 320 (14745600)
I0727 13:26:47.834384  9114 net.cpp:137] Memory required for data: 1198080084
I0727 13:26:47.834389  9114 layer_factory.hpp:77] Creating layer bn2b_branch2c
I0727 13:26:47.834398  9114 net.cpp:84] Creating Layer bn2b_branch2c
I0727 13:26:47.834401  9114 net.cpp:406] bn2b_branch2c <- res2b_branch2c
I0727 13:26:47.834406  9114 net.cpp:367] bn2b_branch2c -> res2b_branch2c (in-place)
I0727 13:26:47.834733  9114 net.cpp:122] Setting up bn2b_branch2c
I0727 13:26:47.834743  9114 net.cpp:129] Top shape: 1 256 180 320 (14745600)
I0727 13:26:47.834746  9114 net.cpp:137] Memory required for data: 1257062484
I0727 13:26:47.834753  9114 layer_factory.hpp:77] Creating layer scale2b_branch2c
I0727 13:26:47.834760  9114 net.cpp:84] Creating Layer scale2b_branch2c
I0727 13:26:47.834764  9114 net.cpp:406] scale2b_branch2c <- res2b_branch2c
I0727 13:26:47.834767  9114 net.cpp:367] scale2b_branch2c -> res2b_branch2c (in-place)
I0727 13:26:47.834827  9114 layer_factory.hpp:77] Creating layer scale2b_branch2c
I0727 13:26:47.835577  9114 net.cpp:122] Setting up scale2b_branch2c
I0727 13:26:47.835590  9114 net.cpp:129] Top shape: 1 256 180 320 (14745600)
I0727 13:26:47.835594  9114 net.cpp:137] Memory required for data: 1316044884
I0727 13:26:47.835600  9114 layer_factory.hpp:77] Creating layer res2b
I0727 13:26:47.835608  9114 net.cpp:84] Creating Layer res2b
I0727 13:26:47.835611  9114 net.cpp:406] res2b <- res2a_res2a_relu_0_split_1
I0727 13:26:47.835615  9114 net.cpp:406] res2b <- res2b_branch2c
I0727 13:26:47.835620  9114 net.cpp:380] res2b -> res2b
I0727 13:26:47.835660  9114 net.cpp:122] Setting up res2b
I0727 13:26:47.835669  9114 net.cpp:129] Top shape: 1 256 180 320 (14745600)
I0727 13:26:47.835672  9114 net.cpp:137] Memory required for data: 1375027284
I0727 13:26:47.835675  9114 layer_factory.hpp:77] Creating layer res2b_relu
I0727 13:26:47.835680  9114 net.cpp:84] Creating Layer res2b_relu
I0727 13:26:47.835683  9114 net.cpp:406] res2b_relu <- res2b
I0727 13:26:47.835690  9114 net.cpp:367] res2b_relu -> res2b (in-place)
I0727 13:26:47.836341  9114 net.cpp:122] Setting up res2b_relu
I0727 13:26:47.836357  9114 net.cpp:129] Top shape: 1 256 180 320 (14745600)
I0727 13:26:47.836360  9114 net.cpp:137] Memory required for data: 1434009684
I0727 13:26:47.836364  9114 layer_factory.hpp:77] Creating layer res2b_res2b_relu_0_split
I0727 13:26:47.836369  9114 net.cpp:84] Creating Layer res2b_res2b_relu_0_split
I0727 13:26:47.836374  9114 net.cpp:406] res2b_res2b_relu_0_split <- res2b
I0727 13:26:47.836379  9114 net.cpp:380] res2b_res2b_relu_0_split -> res2b_res2b_relu_0_split_0
I0727 13:26:47.836383  9114 net.cpp:380] res2b_res2b_relu_0_split -> res2b_res2b_relu_0_split_1
I0727 13:26:47.836457  9114 net.cpp:122] Setting up res2b_res2b_relu_0_split
I0727 13:26:47.836467  9114 net.cpp:129] Top shape: 1 256 180 320 (14745600)
I0727 13:26:47.836470  9114 net.cpp:129] Top shape: 1 256 180 320 (14745600)
I0727 13:26:47.836472  9114 net.cpp:137] Memory required for data: 1551974484
I0727 13:26:47.836475  9114 layer_factory.hpp:77] Creating layer res2c_branch2a
I0727 13:26:47.836484  9114 net.cpp:84] Creating Layer res2c_branch2a
I0727 13:26:47.836488  9114 net.cpp:406] res2c_branch2a <- res2b_res2b_relu_0_split_0
I0727 13:26:47.836494  9114 net.cpp:380] res2c_branch2a -> res2c_branch2a
I0727 13:26:47.838717  9114 net.cpp:122] Setting up res2c_branch2a
I0727 13:26:47.838733  9114 net.cpp:129] Top shape: 1 64 180 320 (3686400)
I0727 13:26:47.838737  9114 net.cpp:137] Memory required for data: 1566720084
I0727 13:26:47.838742  9114 layer_factory.hpp:77] Creating layer bn2c_branch2a
I0727 13:26:47.838750  9114 net.cpp:84] Creating Layer bn2c_branch2a
I0727 13:26:47.838753  9114 net.cpp:406] bn2c_branch2a <- res2c_branch2a
I0727 13:26:47.838758  9114 net.cpp:367] bn2c_branch2a -> res2c_branch2a (in-place)
I0727 13:26:47.839103  9114 net.cpp:122] Setting up bn2c_branch2a
I0727 13:26:47.839113  9114 net.cpp:129] Top shape: 1 64 180 320 (3686400)
I0727 13:26:47.839117  9114 net.cpp:137] Memory required for data: 1581465684
I0727 13:26:47.839123  9114 layer_factory.hpp:77] Creating layer scale2c_branch2a
I0727 13:26:47.839131  9114 net.cpp:84] Creating Layer scale2c_branch2a
I0727 13:26:47.839134  9114 net.cpp:406] scale2c_branch2a <- res2c_branch2a
I0727 13:26:47.839138  9114 net.cpp:367] scale2c_branch2a -> res2c_branch2a (in-place)
I0727 13:26:47.839203  9114 layer_factory.hpp:77] Creating layer scale2c_branch2a
I0727 13:26:47.839957  9114 net.cpp:122] Setting up scale2c_branch2a
I0727 13:26:47.839972  9114 net.cpp:129] Top shape: 1 64 180 320 (3686400)
I0727 13:26:47.839974  9114 net.cpp:137] Memory required for data: 1596211284
I0727 13:26:47.839982  9114 layer_factory.hpp:77] Creating layer res2c_branch2a_relu
I0727 13:26:47.839988  9114 net.cpp:84] Creating Layer res2c_branch2a_relu
I0727 13:26:47.839992  9114 net.cpp:406] res2c_branch2a_relu <- res2c_branch2a
I0727 13:26:47.839996  9114 net.cpp:367] res2c_branch2a_relu -> res2c_branch2a (in-place)
I0727 13:26:47.840728  9114 net.cpp:122] Setting up res2c_branch2a_relu
I0727 13:26:47.840755  9114 net.cpp:129] Top shape: 1 64 180 320 (3686400)
I0727 13:26:47.840759  9114 net.cpp:137] Memory required for data: 1610956884
I0727 13:26:47.840775  9114 layer_factory.hpp:77] Creating layer res2c_branch2b
I0727 13:26:47.840783  9114 net.cpp:84] Creating Layer res2c_branch2b
I0727 13:26:47.840787  9114 net.cpp:406] res2c_branch2b <- res2c_branch2a
I0727 13:26:47.840793  9114 net.cpp:380] res2c_branch2b -> res2c_branch2b
I0727 13:26:47.843039  9114 net.cpp:122] Setting up res2c_branch2b
I0727 13:26:47.843055  9114 net.cpp:129] Top shape: 1 64 180 320 (3686400)
I0727 13:26:47.843058  9114 net.cpp:137] Memory required for data: 1625702484
I0727 13:26:47.843065  9114 layer_factory.hpp:77] Creating layer bn2c_branch2b
I0727 13:26:47.843072  9114 net.cpp:84] Creating Layer bn2c_branch2b
I0727 13:26:47.843076  9114 net.cpp:406] bn2c_branch2b <- res2c_branch2b
I0727 13:26:47.843082  9114 net.cpp:367] bn2c_branch2b -> res2c_branch2b (in-place)
I0727 13:26:47.843430  9114 net.cpp:122] Setting up bn2c_branch2b
I0727 13:26:47.843439  9114 net.cpp:129] Top shape: 1 64 180 320 (3686400)
I0727 13:26:47.843441  9114 net.cpp:137] Memory required for data: 1640448084
I0727 13:26:47.843449  9114 layer_factory.hpp:77] Creating layer scale2c_branch2b
I0727 13:26:47.843456  9114 net.cpp:84] Creating Layer scale2c_branch2b
I0727 13:26:47.843459  9114 net.cpp:406] scale2c_branch2b <- res2c_branch2b
I0727 13:26:47.843463  9114 net.cpp:367] scale2c_branch2b -> res2c_branch2b (in-place)
I0727 13:26:47.843526  9114 layer_factory.hpp:77] Creating layer scale2c_branch2b
I0727 13:26:47.844282  9114 net.cpp:122] Setting up scale2c_branch2b
I0727 13:26:47.844296  9114 net.cpp:129] Top shape: 1 64 180 320 (3686400)
I0727 13:26:47.844300  9114 net.cpp:137] Memory required for data: 1655193684
I0727 13:26:47.844306  9114 layer_factory.hpp:77] Creating layer res2c_branch2b_relu
I0727 13:26:47.844311  9114 net.cpp:84] Creating Layer res2c_branch2b_relu
I0727 13:26:47.844316  9114 net.cpp:406] res2c_branch2b_relu <- res2c_branch2b
I0727 13:26:47.844319  9114 net.cpp:367] res2c_branch2b_relu -> res2c_branch2b (in-place)
I0727 13:26:47.844512  9114 net.cpp:122] Setting up res2c_branch2b_relu
I0727 13:26:47.844524  9114 net.cpp:129] Top shape: 1 64 180 320 (3686400)
I0727 13:26:47.844528  9114 net.cpp:137] Memory required for data: 1669939284
I0727 13:26:47.844532  9114 layer_factory.hpp:77] Creating layer res2c_branch2c
I0727 13:26:47.844540  9114 net.cpp:84] Creating Layer res2c_branch2c
I0727 13:26:47.844545  9114 net.cpp:406] res2c_branch2c <- res2c_branch2b
I0727 13:26:47.844552  9114 net.cpp:380] res2c_branch2c -> res2c_branch2c
I0727 13:26:47.846937  9114 net.cpp:122] Setting up res2c_branch2c
I0727 13:26:47.846953  9114 net.cpp:129] Top shape: 1 256 180 320 (14745600)
I0727 13:26:47.846957  9114 net.cpp:137] Memory required for data: 1728921684
I0727 13:26:47.846963  9114 layer_factory.hpp:77] Creating layer bn2c_branch2c
I0727 13:26:47.846969  9114 net.cpp:84] Creating Layer bn2c_branch2c
I0727 13:26:47.846973  9114 net.cpp:406] bn2c_branch2c <- res2c_branch2c
I0727 13:26:47.846979  9114 net.cpp:367] bn2c_branch2c -> res2c_branch2c (in-place)
I0727 13:26:47.847323  9114 net.cpp:122] Setting up bn2c_branch2c
I0727 13:26:47.847333  9114 net.cpp:129] Top shape: 1 256 180 320 (14745600)
I0727 13:26:47.847337  9114 net.cpp:137] Memory required for data: 1787904084
I0727 13:26:47.847343  9114 layer_factory.hpp:77] Creating layer scale2c_branch2c
I0727 13:26:47.847348  9114 net.cpp:84] Creating Layer scale2c_branch2c
I0727 13:26:47.847352  9114 net.cpp:406] scale2c_branch2c <- res2c_branch2c
I0727 13:26:47.847357  9114 net.cpp:367] scale2c_branch2c -> res2c_branch2c (in-place)
I0727 13:26:47.847421  9114 layer_factory.hpp:77] Creating layer scale2c_branch2c
I0727 13:26:47.847652  9114 net.cpp:122] Setting up scale2c_branch2c
I0727 13:26:47.847662  9114 net.cpp:129] Top shape: 1 256 180 320 (14745600)
I0727 13:26:47.847666  9114 net.cpp:137] Memory required for data: 1846886484
I0727 13:26:47.847678  9114 layer_factory.hpp:77] Creating layer res2c
I0727 13:26:47.847687  9114 net.cpp:84] Creating Layer res2c
I0727 13:26:47.847690  9114 net.cpp:406] res2c <- res2b_res2b_relu_0_split_1
I0727 13:26:47.847694  9114 net.cpp:406] res2c <- res2c_branch2c
I0727 13:26:47.847699  9114 net.cpp:380] res2c -> res2c
I0727 13:26:47.847739  9114 net.cpp:122] Setting up res2c
I0727 13:26:47.847748  9114 net.cpp:129] Top shape: 1 256 180 320 (14745600)
I0727 13:26:47.847750  9114 net.cpp:137] Memory required for data: 1905868884
I0727 13:26:47.847754  9114 layer_factory.hpp:77] Creating layer res2c_relu
I0727 13:26:47.847759  9114 net.cpp:84] Creating Layer res2c_relu
I0727 13:26:47.847761  9114 net.cpp:406] res2c_relu <- res2c
I0727 13:26:47.847767  9114 net.cpp:367] res2c_relu -> res2c (in-place)
I0727 13:26:47.848526  9114 net.cpp:122] Setting up res2c_relu
I0727 13:26:47.848541  9114 net.cpp:129] Top shape: 1 256 180 320 (14745600)
I0727 13:26:47.848556  9114 net.cpp:137] Memory required for data: 1964851284
I0727 13:26:47.848561  9114 layer_factory.hpp:77] Creating layer res2c_res2c_relu_0_split
I0727 13:26:47.848568  9114 net.cpp:84] Creating Layer res2c_res2c_relu_0_split
I0727 13:26:47.848572  9114 net.cpp:406] res2c_res2c_relu_0_split <- res2c
I0727 13:26:47.848578  9114 net.cpp:380] res2c_res2c_relu_0_split -> res2c_res2c_relu_0_split_0
I0727 13:26:47.848584  9114 net.cpp:380] res2c_res2c_relu_0_split -> res2c_res2c_relu_0_split_1
I0727 13:26:47.848657  9114 net.cpp:122] Setting up res2c_res2c_relu_0_split
I0727 13:26:47.848666  9114 net.cpp:129] Top shape: 1 256 180 320 (14745600)
I0727 13:26:47.848670  9114 net.cpp:129] Top shape: 1 256 180 320 (14745600)
I0727 13:26:47.848673  9114 net.cpp:137] Memory required for data: 2082816084
I0727 13:26:47.848676  9114 layer_factory.hpp:77] Creating layer res3a_branch1
I0727 13:26:47.848685  9114 net.cpp:84] Creating Layer res3a_branch1
I0727 13:26:47.848690  9114 net.cpp:406] res3a_branch1 <- res2c_res2c_relu_0_split_0
I0727 13:26:47.848696  9114 net.cpp:380] res3a_branch1 -> res3a_branch1
I0727 13:26:47.851078  9114 net.cpp:122] Setting up res3a_branch1
I0727 13:26:47.851094  9114 net.cpp:129] Top shape: 1 512 90 160 (7372800)
I0727 13:26:47.851096  9114 net.cpp:137] Memory required for data: 2112307284
I0727 13:26:47.851102  9114 layer_factory.hpp:77] Creating layer bn3a_branch1
I0727 13:26:47.851110  9114 net.cpp:84] Creating Layer bn3a_branch1
I0727 13:26:47.851114  9114 net.cpp:406] bn3a_branch1 <- res3a_branch1
I0727 13:26:47.851119  9114 net.cpp:367] bn3a_branch1 -> res3a_branch1 (in-place)
I0727 13:26:47.851977  9114 net.cpp:122] Setting up bn3a_branch1
I0727 13:26:47.851992  9114 net.cpp:129] Top shape: 1 512 90 160 (7372800)
I0727 13:26:47.851995  9114 net.cpp:137] Memory required for data: 2141798484
I0727 13:26:47.852004  9114 layer_factory.hpp:77] Creating layer scale3a_branch1
I0727 13:26:47.852011  9114 net.cpp:84] Creating Layer scale3a_branch1
I0727 13:26:47.852015  9114 net.cpp:406] scale3a_branch1 <- res3a_branch1
I0727 13:26:47.852020  9114 net.cpp:367] scale3a_branch1 -> res3a_branch1 (in-place)
I0727 13:26:47.852078  9114 layer_factory.hpp:77] Creating layer scale3a_branch1
I0727 13:26:47.852298  9114 net.cpp:122] Setting up scale3a_branch1
I0727 13:26:47.852308  9114 net.cpp:129] Top shape: 1 512 90 160 (7372800)
I0727 13:26:47.852311  9114 net.cpp:137] Memory required for data: 2171289684
I0727 13:26:47.852316  9114 layer_factory.hpp:77] Creating layer res3a_branch2a
I0727 13:26:47.852325  9114 net.cpp:84] Creating Layer res3a_branch2a
I0727 13:26:47.852330  9114 net.cpp:406] res3a_branch2a <- res2c_res2c_relu_0_split_1
I0727 13:26:47.852335  9114 net.cpp:380] res3a_branch2a -> res3a_branch2a
I0727 13:26:47.854146  9114 net.cpp:122] Setting up res3a_branch2a
I0727 13:26:47.854162  9114 net.cpp:129] Top shape: 1 128 90 160 (1843200)
I0727 13:26:47.854166  9114 net.cpp:137] Memory required for data: 2178662484
I0727 13:26:47.854171  9114 layer_factory.hpp:77] Creating layer bn3a_branch2a
I0727 13:26:47.854178  9114 net.cpp:84] Creating Layer bn3a_branch2a
I0727 13:26:47.854182  9114 net.cpp:406] bn3a_branch2a <- res3a_branch2a
I0727 13:26:47.854188  9114 net.cpp:367] bn3a_branch2a -> res3a_branch2a (in-place)
I0727 13:26:47.854513  9114 net.cpp:122] Setting up bn3a_branch2a
I0727 13:26:47.854522  9114 net.cpp:129] Top shape: 1 128 90 160 (1843200)
I0727 13:26:47.854526  9114 net.cpp:137] Memory required for data: 2186035284
I0727 13:26:47.854532  9114 layer_factory.hpp:77] Creating layer scale3a_branch2a
I0727 13:26:47.854539  9114 net.cpp:84] Creating Layer scale3a_branch2a
I0727 13:26:47.854542  9114 net.cpp:406] scale3a_branch2a <- res3a_branch2a
I0727 13:26:47.854547  9114 net.cpp:367] scale3a_branch2a -> res3a_branch2a (in-place)
I0727 13:26:47.854609  9114 layer_factory.hpp:77] Creating layer scale3a_branch2a
I0727 13:26:47.854821  9114 net.cpp:122] Setting up scale3a_branch2a
I0727 13:26:47.854830  9114 net.cpp:129] Top shape: 1 128 90 160 (1843200)
I0727 13:26:47.854833  9114 net.cpp:137] Memory required for data: 2193408084
I0727 13:26:47.854838  9114 layer_factory.hpp:77] Creating layer res3a_branch2a_relu
I0727 13:26:47.854845  9114 net.cpp:84] Creating Layer res3a_branch2a_relu
I0727 13:26:47.854848  9114 net.cpp:406] res3a_branch2a_relu <- res3a_branch2a
I0727 13:26:47.854852  9114 net.cpp:367] res3a_branch2a_relu -> res3a_branch2a (in-place)
I0727 13:26:47.855505  9114 net.cpp:122] Setting up res3a_branch2a_relu
I0727 13:26:47.855521  9114 net.cpp:129] Top shape: 1 128 90 160 (1843200)
I0727 13:26:47.855525  9114 net.cpp:137] Memory required for data: 2200780884
I0727 13:26:47.855528  9114 layer_factory.hpp:77] Creating layer res3a_branch2b
I0727 13:26:47.855535  9114 net.cpp:84] Creating Layer res3a_branch2b
I0727 13:26:47.855540  9114 net.cpp:406] res3a_branch2b <- res3a_branch2a
I0727 13:26:47.855545  9114 net.cpp:380] res3a_branch2b -> res3a_branch2b
I0727 13:26:47.858554  9114 net.cpp:122] Setting up res3a_branch2b
I0727 13:26:47.858570  9114 net.cpp:129] Top shape: 1 128 90 160 (1843200)
I0727 13:26:47.858573  9114 net.cpp:137] Memory required for data: 2208153684
I0727 13:26:47.858579  9114 layer_factory.hpp:77] Creating layer bn3a_branch2b
I0727 13:26:47.858587  9114 net.cpp:84] Creating Layer bn3a_branch2b
I0727 13:26:47.858592  9114 net.cpp:406] bn3a_branch2b <- res3a_branch2b
I0727 13:26:47.858597  9114 net.cpp:367] bn3a_branch2b -> res3a_branch2b (in-place)
I0727 13:26:47.858932  9114 net.cpp:122] Setting up bn3a_branch2b
I0727 13:26:47.858942  9114 net.cpp:129] Top shape: 1 128 90 160 (1843200)
I0727 13:26:47.858945  9114 net.cpp:137] Memory required for data: 2215526484
I0727 13:26:47.858952  9114 layer_factory.hpp:77] Creating layer scale3a_branch2b
I0727 13:26:47.858964  9114 net.cpp:84] Creating Layer scale3a_branch2b
I0727 13:26:47.858968  9114 net.cpp:406] scale3a_branch2b <- res3a_branch2b
I0727 13:26:47.858974  9114 net.cpp:367] scale3a_branch2b -> res3a_branch2b (in-place)
I0727 13:26:47.859041  9114 layer_factory.hpp:77] Creating layer scale3a_branch2b
I0727 13:26:47.859257  9114 net.cpp:122] Setting up scale3a_branch2b
I0727 13:26:47.859267  9114 net.cpp:129] Top shape: 1 128 90 160 (1843200)
I0727 13:26:47.859271  9114 net.cpp:137] Memory required for data: 2222899284
I0727 13:26:47.859277  9114 layer_factory.hpp:77] Creating layer res3a_branch2b_relu
I0727 13:26:47.859282  9114 net.cpp:84] Creating Layer res3a_branch2b_relu
I0727 13:26:47.859284  9114 net.cpp:406] res3a_branch2b_relu <- res3a_branch2b
I0727 13:26:47.859288  9114 net.cpp:367] res3a_branch2b_relu -> res3a_branch2b (in-place)
I0727 13:26:47.859470  9114 net.cpp:122] Setting up res3a_branch2b_relu
I0727 13:26:47.859482  9114 net.cpp:129] Top shape: 1 128 90 160 (1843200)
I0727 13:26:47.859485  9114 net.cpp:137] Memory required for data: 2230272084
I0727 13:26:47.859488  9114 layer_factory.hpp:77] Creating layer res3a_branch2c
I0727 13:26:47.859496  9114 net.cpp:84] Creating Layer res3a_branch2c
I0727 13:26:47.859500  9114 net.cpp:406] res3a_branch2c <- res3a_branch2b
I0727 13:26:47.859508  9114 net.cpp:380] res3a_branch2c -> res3a_branch2c
I0727 13:26:47.861798  9114 net.cpp:122] Setting up res3a_branch2c
I0727 13:26:47.861814  9114 net.cpp:129] Top shape: 1 512 90 160 (7372800)
I0727 13:26:47.861817  9114 net.cpp:137] Memory required for data: 2259763284
I0727 13:26:47.861824  9114 layer_factory.hpp:77] Creating layer bn3a_branch2c
I0727 13:26:47.861831  9114 net.cpp:84] Creating Layer bn3a_branch2c
I0727 13:26:47.861835  9114 net.cpp:406] bn3a_branch2c <- res3a_branch2c
I0727 13:26:47.861841  9114 net.cpp:367] bn3a_branch2c -> res3a_branch2c (in-place)
I0727 13:26:47.862184  9114 net.cpp:122] Setting up bn3a_branch2c
I0727 13:26:47.862193  9114 net.cpp:129] Top shape: 1 512 90 160 (7372800)
I0727 13:26:47.862196  9114 net.cpp:137] Memory required for data: 2289254484
I0727 13:26:47.862203  9114 layer_factory.hpp:77] Creating layer scale3a_branch2c
I0727 13:26:47.862210  9114 net.cpp:84] Creating Layer scale3a_branch2c
I0727 13:26:47.862213  9114 net.cpp:406] scale3a_branch2c <- res3a_branch2c
I0727 13:26:47.862218  9114 net.cpp:367] scale3a_branch2c -> res3a_branch2c (in-place)
I0727 13:26:47.862277  9114 layer_factory.hpp:77] Creating layer scale3a_branch2c
I0727 13:26:47.863010  9114 net.cpp:122] Setting up scale3a_branch2c
I0727 13:26:47.863025  9114 net.cpp:129] Top shape: 1 512 90 160 (7372800)
I0727 13:26:47.863029  9114 net.cpp:137] Memory required for data: 2318745684
I0727 13:26:47.863034  9114 layer_factory.hpp:77] Creating layer res3a
I0727 13:26:47.863040  9114 net.cpp:84] Creating Layer res3a
I0727 13:26:47.863044  9114 net.cpp:406] res3a <- res3a_branch1
I0727 13:26:47.863049  9114 net.cpp:406] res3a <- res3a_branch2c
I0727 13:26:47.863054  9114 net.cpp:380] res3a -> res3a
I0727 13:26:47.863097  9114 net.cpp:122] Setting up res3a
I0727 13:26:47.863106  9114 net.cpp:129] Top shape: 1 512 90 160 (7372800)
I0727 13:26:47.863109  9114 net.cpp:137] Memory required for data: 2348236884
I0727 13:26:47.863112  9114 layer_factory.hpp:77] Creating layer res3a_relu
I0727 13:26:47.863118  9114 net.cpp:84] Creating Layer res3a_relu
I0727 13:26:47.863121  9114 net.cpp:406] res3a_relu <- res3a
I0727 13:26:47.863126  9114 net.cpp:367] res3a_relu -> res3a (in-place)
I0727 13:26:47.863307  9114 net.cpp:122] Setting up res3a_relu
I0727 13:26:47.863318  9114 net.cpp:129] Top shape: 1 512 90 160 (7372800)
I0727 13:26:47.863322  9114 net.cpp:137] Memory required for data: 2377728084
I0727 13:26:47.863324  9114 layer_factory.hpp:77] Creating layer res3a_res3a_relu_0_split
I0727 13:26:47.863332  9114 net.cpp:84] Creating Layer res3a_res3a_relu_0_split
I0727 13:26:47.863334  9114 net.cpp:406] res3a_res3a_relu_0_split <- res3a
I0727 13:26:47.863339  9114 net.cpp:380] res3a_res3a_relu_0_split -> res3a_res3a_relu_0_split_0
I0727 13:26:47.863345  9114 net.cpp:380] res3a_res3a_relu_0_split -> res3a_res3a_relu_0_split_1
I0727 13:26:47.863414  9114 net.cpp:122] Setting up res3a_res3a_relu_0_split
I0727 13:26:47.863421  9114 net.cpp:129] Top shape: 1 512 90 160 (7372800)
I0727 13:26:47.863425  9114 net.cpp:129] Top shape: 1 512 90 160 (7372800)
I0727 13:26:47.863428  9114 net.cpp:137] Memory required for data: 2436710484
I0727 13:26:47.863431  9114 layer_factory.hpp:77] Creating layer res3b1_branch2a
I0727 13:26:47.863440  9114 net.cpp:84] Creating Layer res3b1_branch2a
I0727 13:26:47.863445  9114 net.cpp:406] res3b1_branch2a <- res3a_res3a_relu_0_split_0
I0727 13:26:47.863451  9114 net.cpp:380] res3b1_branch2a -> res3b1_branch2a
I0727 13:26:47.865739  9114 net.cpp:122] Setting up res3b1_branch2a
I0727 13:26:47.865756  9114 net.cpp:129] Top shape: 1 128 90 160 (1843200)
I0727 13:26:47.865758  9114 net.cpp:137] Memory required for data: 2444083284
I0727 13:26:47.865764  9114 layer_factory.hpp:77] Creating layer bn3b1_branch2a
I0727 13:26:47.865772  9114 net.cpp:84] Creating Layer bn3b1_branch2a
I0727 13:26:47.865777  9114 net.cpp:406] bn3b1_branch2a <- res3b1_branch2a
I0727 13:26:47.865782  9114 net.cpp:367] bn3b1_branch2a -> res3b1_branch2a (in-place)
I0727 13:26:47.866114  9114 net.cpp:122] Setting up bn3b1_branch2a
I0727 13:26:47.866125  9114 net.cpp:129] Top shape: 1 128 90 160 (1843200)
I0727 13:26:47.866128  9114 net.cpp:137] Memory required for data: 2451456084
I0727 13:26:47.866135  9114 layer_factory.hpp:77] Creating layer scale3b1_branch2a
I0727 13:26:47.866142  9114 net.cpp:84] Creating Layer scale3b1_branch2a
I0727 13:26:47.866144  9114 net.cpp:406] scale3b1_branch2a <- res3b1_branch2a
I0727 13:26:47.866150  9114 net.cpp:367] scale3b1_branch2a -> res3b1_branch2a (in-place)
I0727 13:26:47.866215  9114 layer_factory.hpp:77] Creating layer scale3b1_branch2a
I0727 13:26:47.866420  9114 net.cpp:122] Setting up scale3b1_branch2a
I0727 13:26:47.866430  9114 net.cpp:129] Top shape: 1 128 90 160 (1843200)
I0727 13:26:47.866432  9114 net.cpp:137] Memory required for data: 2458828884
I0727 13:26:47.866438  9114 layer_factory.hpp:77] Creating layer res3b1_branch2a_relu
I0727 13:26:47.866443  9114 net.cpp:84] Creating Layer res3b1_branch2a_relu
I0727 13:26:47.866447  9114 net.cpp:406] res3b1_branch2a_relu <- res3b1_branch2a
I0727 13:26:47.866451  9114 net.cpp:367] res3b1_branch2a_relu -> res3b1_branch2a (in-place)
I0727 13:26:47.867110  9114 net.cpp:122] Setting up res3b1_branch2a_relu
I0727 13:26:47.867125  9114 net.cpp:129] Top shape: 1 128 90 160 (1843200)
I0727 13:26:47.867128  9114 net.cpp:137] Memory required for data: 2466201684
I0727 13:26:47.867132  9114 layer_factory.hpp:77] Creating layer res3b1_branch2b
I0727 13:26:47.867141  9114 net.cpp:84] Creating Layer res3b1_branch2b
I0727 13:26:47.867144  9114 net.cpp:406] res3b1_branch2b <- res3b1_branch2a
I0727 13:26:47.867151  9114 net.cpp:380] res3b1_branch2b -> res3b1_branch2b
I0727 13:26:47.870486  9114 net.cpp:122] Setting up res3b1_branch2b
I0727 13:26:47.870502  9114 net.cpp:129] Top shape: 1 128 90 160 (1843200)
I0727 13:26:47.870507  9114 net.cpp:137] Memory required for data: 2473574484
I0727 13:26:47.870512  9114 layer_factory.hpp:77] Creating layer bn3b1_branch2b
I0727 13:26:47.870519  9114 net.cpp:84] Creating Layer bn3b1_branch2b
I0727 13:26:47.870523  9114 net.cpp:406] bn3b1_branch2b <- res3b1_branch2b
I0727 13:26:47.870528  9114 net.cpp:367] bn3b1_branch2b -> res3b1_branch2b (in-place)
I0727 13:26:47.870872  9114 net.cpp:122] Setting up bn3b1_branch2b
I0727 13:26:47.870882  9114 net.cpp:129] Top shape: 1 128 90 160 (1843200)
I0727 13:26:47.870885  9114 net.cpp:137] Memory required for data: 2480947284
I0727 13:26:47.870893  9114 layer_factory.hpp:77] Creating layer scale3b1_branch2b
I0727 13:26:47.870898  9114 net.cpp:84] Creating Layer scale3b1_branch2b
I0727 13:26:47.870901  9114 net.cpp:406] scale3b1_branch2b <- res3b1_branch2b
I0727 13:26:47.870908  9114 net.cpp:367] scale3b1_branch2b -> res3b1_branch2b (in-place)
I0727 13:26:47.870975  9114 layer_factory.hpp:77] Creating layer scale3b1_branch2b
I0727 13:26:47.871186  9114 net.cpp:122] Setting up scale3b1_branch2b
I0727 13:26:47.871196  9114 net.cpp:129] Top shape: 1 128 90 160 (1843200)
I0727 13:26:47.871198  9114 net.cpp:137] Memory required for data: 2488320084
I0727 13:26:47.871204  9114 layer_factory.hpp:77] Creating layer res3b1_branch2b_relu
I0727 13:26:47.871209  9114 net.cpp:84] Creating Layer res3b1_branch2b_relu
I0727 13:26:47.871212  9114 net.cpp:406] res3b1_branch2b_relu <- res3b1_branch2b
I0727 13:26:47.871217  9114 net.cpp:367] res3b1_branch2b_relu -> res3b1_branch2b (in-place)
I0727 13:26:47.871404  9114 net.cpp:122] Setting up res3b1_branch2b_relu
I0727 13:26:47.871415  9114 net.cpp:129] Top shape: 1 128 90 160 (1843200)
I0727 13:26:47.871418  9114 net.cpp:137] Memory required for data: 2495692884
I0727 13:26:47.871423  9114 layer_factory.hpp:77] Creating layer res3b1_branch2c
I0727 13:26:47.871430  9114 net.cpp:84] Creating Layer res3b1_branch2c
I0727 13:26:47.871434  9114 net.cpp:406] res3b1_branch2c <- res3b1_branch2b
I0727 13:26:47.871440  9114 net.cpp:380] res3b1_branch2c -> res3b1_branch2c
I0727 13:26:47.873313  9114 net.cpp:122] Setting up res3b1_branch2c
I0727 13:26:47.873329  9114 net.cpp:129] Top shape: 1 512 90 160 (7372800)
I0727 13:26:47.873332  9114 net.cpp:137] Memory required for data: 2525184084
I0727 13:26:47.873338  9114 layer_factory.hpp:77] Creating layer bn3b1_branch2c
I0727 13:26:47.873347  9114 net.cpp:84] Creating Layer bn3b1_branch2c
I0727 13:26:47.873349  9114 net.cpp:406] bn3b1_branch2c <- res3b1_branch2c
I0727 13:26:47.873354  9114 net.cpp:367] bn3b1_branch2c -> res3b1_branch2c (in-place)
I0727 13:26:47.873698  9114 net.cpp:122] Setting up bn3b1_branch2c
I0727 13:26:47.873708  9114 net.cpp:129] Top shape: 1 512 90 160 (7372800)
I0727 13:26:47.873710  9114 net.cpp:137] Memory required for data: 2554675284
I0727 13:26:47.873718  9114 layer_factory.hpp:77] Creating layer scale3b1_branch2c
I0727 13:26:47.873723  9114 net.cpp:84] Creating Layer scale3b1_branch2c
I0727 13:26:47.873726  9114 net.cpp:406] scale3b1_branch2c <- res3b1_branch2c
I0727 13:26:47.873733  9114 net.cpp:367] scale3b1_branch2c -> res3b1_branch2c (in-place)
I0727 13:26:47.873791  9114 layer_factory.hpp:77] Creating layer scale3b1_branch2c
I0727 13:26:47.874009  9114 net.cpp:122] Setting up scale3b1_branch2c
I0727 13:26:47.874019  9114 net.cpp:129] Top shape: 1 512 90 160 (7372800)
I0727 13:26:47.874022  9114 net.cpp:137] Memory required for data: 2584166484
I0727 13:26:47.874027  9114 layer_factory.hpp:77] Creating layer res3b1
I0727 13:26:47.874032  9114 net.cpp:84] Creating Layer res3b1
I0727 13:26:47.874037  9114 net.cpp:406] res3b1 <- res3a_res3a_relu_0_split_1
I0727 13:26:47.874040  9114 net.cpp:406] res3b1 <- res3b1_branch2c
I0727 13:26:47.874044  9114 net.cpp:380] res3b1 -> res3b1
I0727 13:26:47.874088  9114 net.cpp:122] Setting up res3b1
I0727 13:26:47.874096  9114 net.cpp:129] Top shape: 1 512 90 160 (7372800)
I0727 13:26:47.874099  9114 net.cpp:137] Memory required for data: 2613657684
I0727 13:26:47.874102  9114 layer_factory.hpp:77] Creating layer res3b1_relu
I0727 13:26:47.874106  9114 net.cpp:84] Creating Layer res3b1_relu
I0727 13:26:47.874110  9114 net.cpp:406] res3b1_relu <- res3b1
I0727 13:26:47.874114  9114 net.cpp:367] res3b1_relu -> res3b1 (in-place)
I0727 13:26:47.874291  9114 net.cpp:122] Setting up res3b1_relu
I0727 13:26:47.874303  9114 net.cpp:129] Top shape: 1 512 90 160 (7372800)
I0727 13:26:47.874306  9114 net.cpp:137] Memory required for data: 2643148884
I0727 13:26:47.874310  9114 layer_factory.hpp:77] Creating layer res3b1_res3b1_relu_0_split
I0727 13:26:47.874315  9114 net.cpp:84] Creating Layer res3b1_res3b1_relu_0_split
I0727 13:26:47.874318  9114 net.cpp:406] res3b1_res3b1_relu_0_split <- res3b1
I0727 13:26:47.874323  9114 net.cpp:380] res3b1_res3b1_relu_0_split -> res3b1_res3b1_relu_0_split_0
I0727 13:26:47.874330  9114 net.cpp:380] res3b1_res3b1_relu_0_split -> res3b1_res3b1_relu_0_split_1
I0727 13:26:47.874397  9114 net.cpp:122] Setting up res3b1_res3b1_relu_0_split
I0727 13:26:47.874408  9114 net.cpp:129] Top shape: 1 512 90 160 (7372800)
I0727 13:26:47.874411  9114 net.cpp:129] Top shape: 1 512 90 160 (7372800)
I0727 13:26:47.874413  9114 net.cpp:137] Memory required for data: 2702131284
I0727 13:26:47.874416  9114 layer_factory.hpp:77] Creating layer res3b2_branch2a
I0727 13:26:47.874423  9114 net.cpp:84] Creating Layer res3b2_branch2a
I0727 13:26:47.874428  9114 net.cpp:406] res3b2_branch2a <- res3b1_res3b1_relu_0_split_0
I0727 13:26:47.874435  9114 net.cpp:380] res3b2_branch2a -> res3b2_branch2a
I0727 13:26:47.876268  9114 net.cpp:122] Setting up res3b2_branch2a
I0727 13:26:47.876284  9114 net.cpp:129] Top shape: 1 128 90 160 (1843200)
I0727 13:26:47.876288  9114 net.cpp:137] Memory required for data: 2709504084
I0727 13:26:47.876294  9114 layer_factory.hpp:77] Creating layer bn3b2_branch2a
I0727 13:26:47.876303  9114 net.cpp:84] Creating Layer bn3b2_branch2a
I0727 13:26:47.876307  9114 net.cpp:406] bn3b2_branch2a <- res3b2_branch2a
I0727 13:26:47.876313  9114 net.cpp:367] bn3b2_branch2a -> res3b2_branch2a (in-place)
I0727 13:26:47.876662  9114 net.cpp:122] Setting up bn3b2_branch2a
I0727 13:26:47.876672  9114 net.cpp:129] Top shape: 1 128 90 160 (1843200)
I0727 13:26:47.876674  9114 net.cpp:137] Memory required for data: 2716876884
I0727 13:26:47.876682  9114 layer_factory.hpp:77] Creating layer scale3b2_branch2a
I0727 13:26:47.876688  9114 net.cpp:84] Creating Layer scale3b2_branch2a
I0727 13:26:47.876691  9114 net.cpp:406] scale3b2_branch2a <- res3b2_branch2a
I0727 13:26:47.876696  9114 net.cpp:367] scale3b2_branch2a -> res3b2_branch2a (in-place)
I0727 13:26:47.876762  9114 layer_factory.hpp:77] Creating layer scale3b2_branch2a
I0727 13:26:47.876971  9114 net.cpp:122] Setting up scale3b2_branch2a
I0727 13:26:47.876981  9114 net.cpp:129] Top shape: 1 128 90 160 (1843200)
I0727 13:26:47.876983  9114 net.cpp:137] Memory required for data: 2724249684
I0727 13:26:47.876988  9114 layer_factory.hpp:77] Creating layer res3b2_branch2a_relu
I0727 13:26:47.876993  9114 net.cpp:84] Creating Layer res3b2_branch2a_relu
I0727 13:26:47.876996  9114 net.cpp:406] res3b2_branch2a_relu <- res3b2_branch2a
I0727 13:26:47.877002  9114 net.cpp:367] res3b2_branch2a_relu -> res3b2_branch2a (in-place)
I0727 13:26:47.877656  9114 net.cpp:122] Setting up res3b2_branch2a_relu
I0727 13:26:47.877671  9114 net.cpp:129] Top shape: 1 128 90 160 (1843200)
I0727 13:26:47.877674  9114 net.cpp:137] Memory required for data: 2731622484
I0727 13:26:47.877677  9114 layer_factory.hpp:77] Creating layer res3b2_branch2b
I0727 13:26:47.877686  9114 net.cpp:84] Creating Layer res3b2_branch2b
I0727 13:26:47.877691  9114 net.cpp:406] res3b2_branch2b <- res3b2_branch2a
I0727 13:26:47.877696  9114 net.cpp:380] res3b2_branch2b -> res3b2_branch2b
I0727 13:26:47.880578  9114 net.cpp:122] Setting up res3b2_branch2b
I0727 13:26:47.880592  9114 net.cpp:129] Top shape: 1 128 90 160 (1843200)
I0727 13:26:47.880596  9114 net.cpp:137] Memory required for data: 2738995284
I0727 13:26:47.880602  9114 layer_factory.hpp:77] Creating layer bn3b2_branch2b
I0727 13:26:47.880609  9114 net.cpp:84] Creating Layer bn3b2_branch2b
I0727 13:26:47.880614  9114 net.cpp:406] bn3b2_branch2b <- res3b2_branch2b
I0727 13:26:47.880620  9114 net.cpp:367] bn3b2_branch2b -> res3b2_branch2b (in-place)
I0727 13:26:47.880966  9114 net.cpp:122] Setting up bn3b2_branch2b
I0727 13:26:47.880976  9114 net.cpp:129] Top shape: 1 128 90 160 (1843200)
I0727 13:26:47.880980  9114 net.cpp:137] Memory required for data: 2746368084
I0727 13:26:47.880985  9114 layer_factory.hpp:77] Creating layer scale3b2_branch2b
I0727 13:26:47.880993  9114 net.cpp:84] Creating Layer scale3b2_branch2b
I0727 13:26:47.880996  9114 net.cpp:406] scale3b2_branch2b <- res3b2_branch2b
I0727 13:26:47.881002  9114 net.cpp:367] scale3b2_branch2b -> res3b2_branch2b (in-place)
I0727 13:26:47.881068  9114 layer_factory.hpp:77] Creating layer scale3b2_branch2b
I0727 13:26:47.881283  9114 net.cpp:122] Setting up scale3b2_branch2b
I0727 13:26:47.881292  9114 net.cpp:129] Top shape: 1 128 90 160 (1843200)
I0727 13:26:47.881295  9114 net.cpp:137] Memory required for data: 2753740884
I0727 13:26:47.881300  9114 layer_factory.hpp:77] Creating layer res3b2_branch2b_relu
I0727 13:26:47.881305  9114 net.cpp:84] Creating Layer res3b2_branch2b_relu
I0727 13:26:47.881309  9114 net.cpp:406] res3b2_branch2b_relu <- res3b2_branch2b
I0727 13:26:47.881314  9114 net.cpp:367] res3b2_branch2b_relu -> res3b2_branch2b (in-place)
I0727 13:26:47.881503  9114 net.cpp:122] Setting up res3b2_branch2b_relu
I0727 13:26:47.881515  9114 net.cpp:129] Top shape: 1 128 90 160 (1843200)
I0727 13:26:47.881517  9114 net.cpp:137] Memory required for data: 2761113684
I0727 13:26:47.881520  9114 layer_factory.hpp:77] Creating layer res3b2_branch2c
I0727 13:26:47.881530  9114 net.cpp:84] Creating Layer res3b2_branch2c
I0727 13:26:47.881536  9114 net.cpp:406] res3b2_branch2c <- res3b2_branch2b
I0727 13:26:47.881543  9114 net.cpp:380] res3b2_branch2c -> res3b2_branch2c
I0727 13:26:47.884377  9114 net.cpp:122] Setting up res3b2_branch2c
I0727 13:26:47.884392  9114 net.cpp:129] Top shape: 1 512 90 160 (7372800)
I0727 13:26:47.884395  9114 net.cpp:137] Memory required for data: 2790604884
I0727 13:26:47.884402  9114 layer_factory.hpp:77] Creating layer bn3b2_branch2c
I0727 13:26:47.884408  9114 net.cpp:84] Creating Layer bn3b2_branch2c
I0727 13:26:47.884413  9114 net.cpp:406] bn3b2_branch2c <- res3b2_branch2c
I0727 13:26:47.884418  9114 net.cpp:367] bn3b2_branch2c -> res3b2_branch2c (in-place)
I0727 13:26:47.884785  9114 net.cpp:122] Setting up bn3b2_branch2c
I0727 13:26:47.884796  9114 net.cpp:129] Top shape: 1 512 90 160 (7372800)
I0727 13:26:47.884799  9114 net.cpp:137] Memory required for data: 2820096084
I0727 13:26:47.884806  9114 layer_factory.hpp:77] Creating layer scale3b2_branch2c
I0727 13:26:47.884814  9114 net.cpp:84] Creating Layer scale3b2_branch2c
I0727 13:26:47.884817  9114 net.cpp:406] scale3b2_branch2c <- res3b2_branch2c
I0727 13:26:47.884822  9114 net.cpp:367] scale3b2_branch2c -> res3b2_branch2c (in-place)
I0727 13:26:47.884884  9114 layer_factory.hpp:77] Creating layer scale3b2_branch2c
I0727 13:26:47.885628  9114 net.cpp:122] Setting up scale3b2_branch2c
I0727 13:26:47.885643  9114 net.cpp:129] Top shape: 1 512 90 160 (7372800)
I0727 13:26:47.885646  9114 net.cpp:137] Memory required for data: 2849587284
I0727 13:26:47.885653  9114 layer_factory.hpp:77] Creating layer res3b2
I0727 13:26:47.885659  9114 net.cpp:84] Creating Layer res3b2
I0727 13:26:47.885663  9114 net.cpp:406] res3b2 <- res3b1_res3b1_relu_0_split_1
I0727 13:26:47.885668  9114 net.cpp:406] res3b2 <- res3b2_branch2c
I0727 13:26:47.885673  9114 net.cpp:380] res3b2 -> res3b2
I0727 13:26:47.885716  9114 net.cpp:122] Setting up res3b2
I0727 13:26:47.885725  9114 net.cpp:129] Top shape: 1 512 90 160 (7372800)
I0727 13:26:47.885728  9114 net.cpp:137] Memory required for data: 2879078484
I0727 13:26:47.885730  9114 layer_factory.hpp:77] Creating layer res3b2_relu
I0727 13:26:47.885737  9114 net.cpp:84] Creating Layer res3b2_relu
I0727 13:26:47.885740  9114 net.cpp:406] res3b2_relu <- res3b2
I0727 13:26:47.885746  9114 net.cpp:367] res3b2_relu -> res3b2 (in-place)
I0727 13:26:47.885936  9114 net.cpp:122] Setting up res3b2_relu
I0727 13:26:47.885946  9114 net.cpp:129] Top shape: 1 512 90 160 (7372800)
I0727 13:26:47.885949  9114 net.cpp:137] Memory required for data: 2908569684
I0727 13:26:47.885953  9114 layer_factory.hpp:77] Creating layer res3b2_res3b2_relu_0_split
I0727 13:26:47.885959  9114 net.cpp:84] Creating Layer res3b2_res3b2_relu_0_split
I0727 13:26:47.885963  9114 net.cpp:406] res3b2_res3b2_relu_0_split <- res3b2
I0727 13:26:47.885969  9114 net.cpp:380] res3b2_res3b2_relu_0_split -> res3b2_res3b2_relu_0_split_0
I0727 13:26:47.885975  9114 net.cpp:380] res3b2_res3b2_relu_0_split -> res3b2_res3b2_relu_0_split_1
I0727 13:26:47.886046  9114 net.cpp:122] Setting up res3b2_res3b2_relu_0_split
I0727 13:26:47.886055  9114 net.cpp:129] Top shape: 1 512 90 160 (7372800)
I0727 13:26:47.886059  9114 net.cpp:129] Top shape: 1 512 90 160 (7372800)
I0727 13:26:47.886061  9114 net.cpp:137] Memory required for data: 2967552084
I0727 13:26:47.886065  9114 layer_factory.hpp:77] Creating layer res3b3_branch2a
I0727 13:26:47.886076  9114 net.cpp:84] Creating Layer res3b3_branch2a
I0727 13:26:47.886081  9114 net.cpp:406] res3b3_branch2a <- res3b2_res3b2_relu_0_split_0
I0727 13:26:47.886086  9114 net.cpp:380] res3b3_branch2a -> res3b3_branch2a
I0727 13:26:47.887938  9114 net.cpp:122] Setting up res3b3_branch2a
I0727 13:26:47.887953  9114 net.cpp:129] Top shape: 1 128 90 160 (1843200)
I0727 13:26:47.887956  9114 net.cpp:137] Memory required for data: 2974924884
I0727 13:26:47.887961  9114 layer_factory.hpp:77] Creating layer bn3b3_branch2a
I0727 13:26:47.887969  9114 net.cpp:84] Creating Layer bn3b3_branch2a
I0727 13:26:47.887974  9114 net.cpp:406] bn3b3_branch2a <- res3b3_branch2a
I0727 13:26:47.887979  9114 net.cpp:367] bn3b3_branch2a -> res3b3_branch2a (in-place)
I0727 13:26:47.888324  9114 net.cpp:122] Setting up bn3b3_branch2a
I0727 13:26:47.888334  9114 net.cpp:129] Top shape: 1 128 90 160 (1843200)
I0727 13:26:47.888336  9114 net.cpp:137] Memory required for data: 2982297684
I0727 13:26:47.888358  9114 layer_factory.hpp:77] Creating layer scale3b3_branch2a
I0727 13:26:47.888366  9114 net.cpp:84] Creating Layer scale3b3_branch2a
I0727 13:26:47.888370  9114 net.cpp:406] scale3b3_branch2a <- res3b3_branch2a
I0727 13:26:47.888375  9114 net.cpp:367] scale3b3_branch2a -> res3b3_branch2a (in-place)
I0727 13:26:47.888453  9114 layer_factory.hpp:77] Creating layer scale3b3_branch2a
I0727 13:26:47.888669  9114 net.cpp:122] Setting up scale3b3_branch2a
I0727 13:26:47.888680  9114 net.cpp:129] Top shape: 1 128 90 160 (1843200)
I0727 13:26:47.888684  9114 net.cpp:137] Memory required for data: 2989670484
I0727 13:26:47.888689  9114 layer_factory.hpp:77] Creating layer res3b3_branch2a_relu
I0727 13:26:47.888694  9114 net.cpp:84] Creating Layer res3b3_branch2a_relu
I0727 13:26:47.888697  9114 net.cpp:406] res3b3_branch2a_relu <- res3b3_branch2a
I0727 13:26:47.888703  9114 net.cpp:367] res3b3_branch2a_relu -> res3b3_branch2a (in-place)
I0727 13:26:47.889360  9114 net.cpp:122] Setting up res3b3_branch2a_relu
I0727 13:26:47.889374  9114 net.cpp:129] Top shape: 1 128 90 160 (1843200)
I0727 13:26:47.889379  9114 net.cpp:137] Memory required for data: 2997043284
I0727 13:26:47.889381  9114 layer_factory.hpp:77] Creating layer res3b3_branch2b
I0727 13:26:47.889390  9114 net.cpp:84] Creating Layer res3b3_branch2b
I0727 13:26:47.889394  9114 net.cpp:406] res3b3_branch2b <- res3b3_branch2a
I0727 13:26:47.889400  9114 net.cpp:380] res3b3_branch2b -> res3b3_branch2b
I0727 13:26:47.892297  9114 net.cpp:122] Setting up res3b3_branch2b
I0727 13:26:47.892313  9114 net.cpp:129] Top shape: 1 128 90 160 (1843200)
I0727 13:26:47.892316  9114 net.cpp:137] Memory required for data: 3004416084
I0727 13:26:47.892323  9114 layer_factory.hpp:77] Creating layer bn3b3_branch2b
I0727 13:26:47.892330  9114 net.cpp:84] Creating Layer bn3b3_branch2b
I0727 13:26:47.892334  9114 net.cpp:406] bn3b3_branch2b <- res3b3_branch2b
I0727 13:26:47.892340  9114 net.cpp:367] bn3b3_branch2b -> res3b3_branch2b (in-place)
I0727 13:26:47.892714  9114 net.cpp:122] Setting up bn3b3_branch2b
I0727 13:26:47.892725  9114 net.cpp:129] Top shape: 1 128 90 160 (1843200)
I0727 13:26:47.892729  9114 net.cpp:137] Memory required for data: 3011788884
I0727 13:26:47.892735  9114 layer_factory.hpp:77] Creating layer scale3b3_branch2b
I0727 13:26:47.892740  9114 net.cpp:84] Creating Layer scale3b3_branch2b
I0727 13:26:47.892745  9114 net.cpp:406] scale3b3_branch2b <- res3b3_branch2b
I0727 13:26:47.892750  9114 net.cpp:367] scale3b3_branch2b -> res3b3_branch2b (in-place)
I0727 13:26:47.892820  9114 layer_factory.hpp:77] Creating layer scale3b3_branch2b
I0727 13:26:47.893040  9114 net.cpp:122] Setting up scale3b3_branch2b
I0727 13:26:47.893049  9114 net.cpp:129] Top shape: 1 128 90 160 (1843200)
I0727 13:26:47.893052  9114 net.cpp:137] Memory required for data: 3019161684
I0727 13:26:47.893059  9114 layer_factory.hpp:77] Creating layer res3b3_branch2b_relu
I0727 13:26:47.893064  9114 net.cpp:84] Creating Layer res3b3_branch2b_relu
I0727 13:26:47.893067  9114 net.cpp:406] res3b3_branch2b_relu <- res3b3_branch2b
I0727 13:26:47.893071  9114 net.cpp:367] res3b3_branch2b_relu -> res3b3_branch2b (in-place)
I0727 13:26:47.893260  9114 net.cpp:122] Setting up res3b3_branch2b_relu
I0727 13:26:47.893273  9114 net.cpp:129] Top shape: 1 128 90 160 (1843200)
I0727 13:26:47.893276  9114 net.cpp:137] Memory required for data: 3026534484
I0727 13:26:47.893280  9114 layer_factory.hpp:77] Creating layer res3b3_branch2c
I0727 13:26:47.893287  9114 net.cpp:84] Creating Layer res3b3_branch2c
I0727 13:26:47.893290  9114 net.cpp:406] res3b3_branch2c <- res3b3_branch2b
I0727 13:26:47.893297  9114 net.cpp:380] res3b3_branch2c -> res3b3_branch2c
I0727 13:26:47.895190  9114 net.cpp:122] Setting up res3b3_branch2c
I0727 13:26:47.895205  9114 net.cpp:129] Top shape: 1 512 90 160 (7372800)
I0727 13:26:47.895210  9114 net.cpp:137] Memory required for data: 3056025684
I0727 13:26:47.895215  9114 layer_factory.hpp:77] Creating layer bn3b3_branch2c
I0727 13:26:47.895221  9114 net.cpp:84] Creating Layer bn3b3_branch2c
I0727 13:26:47.895226  9114 net.cpp:406] bn3b3_branch2c <- res3b3_branch2c
I0727 13:26:47.895231  9114 net.cpp:367] bn3b3_branch2c -> res3b3_branch2c (in-place)
I0727 13:26:47.895591  9114 net.cpp:122] Setting up bn3b3_branch2c
I0727 13:26:47.895599  9114 net.cpp:129] Top shape: 1 512 90 160 (7372800)
I0727 13:26:47.895602  9114 net.cpp:137] Memory required for data: 3085516884
I0727 13:26:47.895609  9114 layer_factory.hpp:77] Creating layer scale3b3_branch2c
I0727 13:26:47.895614  9114 net.cpp:84] Creating Layer scale3b3_branch2c
I0727 13:26:47.895618  9114 net.cpp:406] scale3b3_branch2c <- res3b3_branch2c
I0727 13:26:47.895623  9114 net.cpp:367] scale3b3_branch2c -> res3b3_branch2c (in-place)
I0727 13:26:47.895687  9114 layer_factory.hpp:77] Creating layer scale3b3_branch2c
I0727 13:26:47.895920  9114 net.cpp:122] Setting up scale3b3_branch2c
I0727 13:26:47.895929  9114 net.cpp:129] Top shape: 1 512 90 160 (7372800)
I0727 13:26:47.895932  9114 net.cpp:137] Memory required for data: 3115008084
I0727 13:26:47.895937  9114 layer_factory.hpp:77] Creating layer res3b3
I0727 13:26:47.895943  9114 net.cpp:84] Creating Layer res3b3
I0727 13:26:47.895946  9114 net.cpp:406] res3b3 <- res3b2_res3b2_relu_0_split_1
I0727 13:26:47.895951  9114 net.cpp:406] res3b3 <- res3b3_branch2c
I0727 13:26:47.895956  9114 net.cpp:380] res3b3 -> res3b3
I0727 13:26:47.896000  9114 net.cpp:122] Setting up res3b3
I0727 13:26:47.896009  9114 net.cpp:129] Top shape: 1 512 90 160 (7372800)
I0727 13:26:47.896013  9114 net.cpp:137] Memory required for data: 3144499284
I0727 13:26:47.896015  9114 layer_factory.hpp:77] Creating layer res3b3_relu
I0727 13:26:47.896020  9114 net.cpp:84] Creating Layer res3b3_relu
I0727 13:26:47.896023  9114 net.cpp:406] res3b3_relu <- res3b3
I0727 13:26:47.896028  9114 net.cpp:367] res3b3_relu -> res3b3 (in-place)
I0727 13:26:47.896214  9114 net.cpp:122] Setting up res3b3_relu
I0727 13:26:47.896224  9114 net.cpp:129] Top shape: 1 512 90 160 (7372800)
I0727 13:26:47.896227  9114 net.cpp:137] Memory required for data: 3173990484
I0727 13:26:47.896231  9114 layer_factory.hpp:77] Creating layer res3b3_res3b3_relu_0_split
I0727 13:26:47.896236  9114 net.cpp:84] Creating Layer res3b3_res3b3_relu_0_split
I0727 13:26:47.896239  9114 net.cpp:406] res3b3_res3b3_relu_0_split <- res3b3
I0727 13:26:47.896245  9114 net.cpp:380] res3b3_res3b3_relu_0_split -> res3b3_res3b3_relu_0_split_0
I0727 13:26:47.896251  9114 net.cpp:380] res3b3_res3b3_relu_0_split -> res3b3_res3b3_relu_0_split_1
I0727 13:26:47.896327  9114 net.cpp:122] Setting up res3b3_res3b3_relu_0_split
I0727 13:26:47.896337  9114 net.cpp:129] Top shape: 1 512 90 160 (7372800)
I0727 13:26:47.896339  9114 net.cpp:129] Top shape: 1 512 90 160 (7372800)
I0727 13:26:47.896342  9114 net.cpp:137] Memory required for data: 3232972884
I0727 13:26:47.896345  9114 layer_factory.hpp:77] Creating layer res4a_branch1
I0727 13:26:47.896353  9114 net.cpp:84] Creating Layer res4a_branch1
I0727 13:26:47.896359  9114 net.cpp:406] res4a_branch1 <- res3b3_res3b3_relu_0_split_0
I0727 13:26:47.896364  9114 net.cpp:380] res4a_branch1 -> res4a_branch1
I0727 13:26:47.899732  9114 net.cpp:122] Setting up res4a_branch1
I0727 13:26:47.899749  9114 net.cpp:129] Top shape: 1 1024 45 80 (3686400)
I0727 13:26:47.899752  9114 net.cpp:137] Memory required for data: 3247718484
I0727 13:26:47.899757  9114 layer_factory.hpp:77] Creating layer bn4a_branch1
I0727 13:26:47.899765  9114 net.cpp:84] Creating Layer bn4a_branch1
I0727 13:26:47.899768  9114 net.cpp:406] bn4a_branch1 <- res4a_branch1
I0727 13:26:47.899775  9114 net.cpp:367] bn4a_branch1 -> res4a_branch1 (in-place)
I0727 13:26:47.900120  9114 net.cpp:122] Setting up bn4a_branch1
I0727 13:26:47.900130  9114 net.cpp:129] Top shape: 1 1024 45 80 (3686400)
I0727 13:26:47.900132  9114 net.cpp:137] Memory required for data: 3262464084
I0727 13:26:47.900140  9114 layer_factory.hpp:77] Creating layer scale4a_branch1
I0727 13:26:47.900146  9114 net.cpp:84] Creating Layer scale4a_branch1
I0727 13:26:47.900148  9114 net.cpp:406] scale4a_branch1 <- res4a_branch1
I0727 13:26:47.900154  9114 net.cpp:367] scale4a_branch1 -> res4a_branch1 (in-place)
I0727 13:26:47.900218  9114 layer_factory.hpp:77] Creating layer scale4a_branch1
I0727 13:26:47.900446  9114 net.cpp:122] Setting up scale4a_branch1
I0727 13:26:47.900456  9114 net.cpp:129] Top shape: 1 1024 45 80 (3686400)
I0727 13:26:47.900460  9114 net.cpp:137] Memory required for data: 3277209684
I0727 13:26:47.900465  9114 layer_factory.hpp:77] Creating layer res4a_branch2a
I0727 13:26:47.900472  9114 net.cpp:84] Creating Layer res4a_branch2a
I0727 13:26:47.900476  9114 net.cpp:406] res4a_branch2a <- res3b3_res3b3_relu_0_split_1
I0727 13:26:47.900482  9114 net.cpp:380] res4a_branch2a -> res4a_branch2a
I0727 13:26:47.902412  9114 net.cpp:122] Setting up res4a_branch2a
I0727 13:26:47.902428  9114 net.cpp:129] Top shape: 1 256 45 80 (921600)
I0727 13:26:47.902431  9114 net.cpp:137] Memory required for data: 3280896084
I0727 13:26:47.902436  9114 layer_factory.hpp:77] Creating layer bn4a_branch2a
I0727 13:26:47.902446  9114 net.cpp:84] Creating Layer bn4a_branch2a
I0727 13:26:47.902451  9114 net.cpp:406] bn4a_branch2a <- res4a_branch2a
I0727 13:26:47.902457  9114 net.cpp:367] bn4a_branch2a -> res4a_branch2a (in-place)
I0727 13:26:47.902813  9114 net.cpp:122] Setting up bn4a_branch2a
I0727 13:26:47.902822  9114 net.cpp:129] Top shape: 1 256 45 80 (921600)
I0727 13:26:47.902825  9114 net.cpp:137] Memory required for data: 3284582484
I0727 13:26:47.902832  9114 layer_factory.hpp:77] Creating layer scale4a_branch2a
I0727 13:26:47.902840  9114 net.cpp:84] Creating Layer scale4a_branch2a
I0727 13:26:47.902843  9114 net.cpp:406] scale4a_branch2a <- res4a_branch2a
I0727 13:26:47.902848  9114 net.cpp:367] scale4a_branch2a -> res4a_branch2a (in-place)
I0727 13:26:47.902918  9114 layer_factory.hpp:77] Creating layer scale4a_branch2a
I0727 13:26:47.903131  9114 net.cpp:122] Setting up scale4a_branch2a
I0727 13:26:47.903141  9114 net.cpp:129] Top shape: 1 256 45 80 (921600)
I0727 13:26:47.903143  9114 net.cpp:137] Memory required for data: 3288268884
I0727 13:26:47.903148  9114 layer_factory.hpp:77] Creating layer res4a_branch2a_relu
I0727 13:26:47.903153  9114 net.cpp:84] Creating Layer res4a_branch2a_relu
I0727 13:26:47.903157  9114 net.cpp:406] res4a_branch2a_relu <- res4a_branch2a
I0727 13:26:47.903162  9114 net.cpp:367] res4a_branch2a_relu -> res4a_branch2a (in-place)
I0727 13:26:47.903826  9114 net.cpp:122] Setting up res4a_branch2a_relu
I0727 13:26:47.903841  9114 net.cpp:129] Top shape: 1 256 45 80 (921600)
I0727 13:26:47.903844  9114 net.cpp:137] Memory required for data: 3291955284
I0727 13:26:47.903848  9114 layer_factory.hpp:77] Creating layer res4a_branch2b
I0727 13:26:47.903856  9114 net.cpp:84] Creating Layer res4a_branch2b
I0727 13:26:47.903861  9114 net.cpp:406] res4a_branch2b <- res4a_branch2a
I0727 13:26:47.903865  9114 net.cpp:380] res4a_branch2b -> res4a_branch2b
I0727 13:26:47.906903  9114 net.cpp:122] Setting up res4a_branch2b
I0727 13:26:47.906919  9114 net.cpp:129] Top shape: 1 256 45 80 (921600)
I0727 13:26:47.906922  9114 net.cpp:137] Memory required for data: 3295641684
I0727 13:26:47.906929  9114 layer_factory.hpp:77] Creating layer bn4a_branch2b
I0727 13:26:47.906936  9114 net.cpp:84] Creating Layer bn4a_branch2b
I0727 13:26:47.906940  9114 net.cpp:406] bn4a_branch2b <- res4a_branch2b
I0727 13:26:47.906945  9114 net.cpp:367] bn4a_branch2b -> res4a_branch2b (in-place)
I0727 13:26:47.907316  9114 net.cpp:122] Setting up bn4a_branch2b
I0727 13:26:47.907327  9114 net.cpp:129] Top shape: 1 256 45 80 (921600)
I0727 13:26:47.907330  9114 net.cpp:137] Memory required for data: 3299328084
I0727 13:26:47.907336  9114 layer_factory.hpp:77] Creating layer scale4a_branch2b
I0727 13:26:47.907342  9114 net.cpp:84] Creating Layer scale4a_branch2b
I0727 13:26:47.907346  9114 net.cpp:406] scale4a_branch2b <- res4a_branch2b
I0727 13:26:47.907351  9114 net.cpp:367] scale4a_branch2b -> res4a_branch2b (in-place)
I0727 13:26:47.907426  9114 layer_factory.hpp:77] Creating layer scale4a_branch2b
I0727 13:26:47.907639  9114 net.cpp:122] Setting up scale4a_branch2b
I0727 13:26:47.907649  9114 net.cpp:129] Top shape: 1 256 45 80 (921600)
I0727 13:26:47.907652  9114 net.cpp:137] Memory required for data: 3303014484
I0727 13:26:47.907657  9114 layer_factory.hpp:77] Creating layer res4a_branch2b_relu
I0727 13:26:47.907663  9114 net.cpp:84] Creating Layer res4a_branch2b_relu
I0727 13:26:47.907666  9114 net.cpp:406] res4a_branch2b_relu <- res4a_branch2b
I0727 13:26:47.907670  9114 net.cpp:367] res4a_branch2b_relu -> res4a_branch2b (in-place)
I0727 13:26:47.908334  9114 net.cpp:122] Setting up res4a_branch2b_relu
I0727 13:26:47.908347  9114 net.cpp:129] Top shape: 1 256 45 80 (921600)
I0727 13:26:47.908350  9114 net.cpp:137] Memory required for data: 3306700884
I0727 13:26:47.908354  9114 layer_factory.hpp:77] Creating layer res4a_branch2c
I0727 13:26:47.908363  9114 net.cpp:84] Creating Layer res4a_branch2c
I0727 13:26:47.908367  9114 net.cpp:406] res4a_branch2c <- res4a_branch2b
I0727 13:26:47.908372  9114 net.cpp:380] res4a_branch2c -> res4a_branch2c
I0727 13:26:47.910923  9114 net.cpp:122] Setting up res4a_branch2c
I0727 13:26:47.910938  9114 net.cpp:129] Top shape: 1 1024 45 80 (3686400)
I0727 13:26:47.910941  9114 net.cpp:137] Memory required for data: 3321446484
I0727 13:26:47.910946  9114 layer_factory.hpp:77] Creating layer bn4a_branch2c
I0727 13:26:47.910954  9114 net.cpp:84] Creating Layer bn4a_branch2c
I0727 13:26:47.910959  9114 net.cpp:406] bn4a_branch2c <- res4a_branch2c
I0727 13:26:47.910964  9114 net.cpp:367] bn4a_branch2c -> res4a_branch2c (in-place)
I0727 13:26:47.911340  9114 net.cpp:122] Setting up bn4a_branch2c
I0727 13:26:47.911350  9114 net.cpp:129] Top shape: 1 1024 45 80 (3686400)
I0727 13:26:47.911352  9114 net.cpp:137] Memory required for data: 3336192084
I0727 13:26:47.911360  9114 layer_factory.hpp:77] Creating layer scale4a_branch2c
I0727 13:26:47.911366  9114 net.cpp:84] Creating Layer scale4a_branch2c
I0727 13:26:47.911370  9114 net.cpp:406] scale4a_branch2c <- res4a_branch2c
I0727 13:26:47.911375  9114 net.cpp:367] scale4a_branch2c -> res4a_branch2c (in-place)
I0727 13:26:47.911442  9114 layer_factory.hpp:77] Creating layer scale4a_branch2c
I0727 13:26:47.911671  9114 net.cpp:122] Setting up scale4a_branch2c
I0727 13:26:47.911681  9114 net.cpp:129] Top shape: 1 1024 45 80 (3686400)
I0727 13:26:47.911684  9114 net.cpp:137] Memory required for data: 3350937684
I0727 13:26:47.911689  9114 layer_factory.hpp:77] Creating layer res4a
I0727 13:26:47.911705  9114 net.cpp:84] Creating Layer res4a
I0727 13:26:47.911710  9114 net.cpp:406] res4a <- res4a_branch1
I0727 13:26:47.911715  9114 net.cpp:406] res4a <- res4a_branch2c
I0727 13:26:47.911720  9114 net.cpp:380] res4a -> res4a
I0727 13:26:47.911765  9114 net.cpp:122] Setting up res4a
I0727 13:26:47.911773  9114 net.cpp:129] Top shape: 1 1024 45 80 (3686400)
I0727 13:26:47.911777  9114 net.cpp:137] Memory required for data: 3365683284
I0727 13:26:47.911780  9114 layer_factory.hpp:77] Creating layer res4a_relu
I0727 13:26:47.911787  9114 net.cpp:84] Creating Layer res4a_relu
I0727 13:26:47.911790  9114 net.cpp:406] res4a_relu <- res4a
I0727 13:26:47.911794  9114 net.cpp:367] res4a_relu -> res4a (in-place)
I0727 13:26:47.911979  9114 net.cpp:122] Setting up res4a_relu
I0727 13:26:47.911990  9114 net.cpp:129] Top shape: 1 1024 45 80 (3686400)
I0727 13:26:47.911993  9114 net.cpp:137] Memory required for data: 3380428884
I0727 13:26:47.911998  9114 layer_factory.hpp:77] Creating layer res4a_res4a_relu_0_split
I0727 13:26:47.912003  9114 net.cpp:84] Creating Layer res4a_res4a_relu_0_split
I0727 13:26:47.912006  9114 net.cpp:406] res4a_res4a_relu_0_split <- res4a
I0727 13:26:47.912014  9114 net.cpp:380] res4a_res4a_relu_0_split -> res4a_res4a_relu_0_split_0
I0727 13:26:47.912019  9114 net.cpp:380] res4a_res4a_relu_0_split -> res4a_res4a_relu_0_split_1
I0727 13:26:47.912096  9114 net.cpp:122] Setting up res4a_res4a_relu_0_split
I0727 13:26:47.912106  9114 net.cpp:129] Top shape: 1 1024 45 80 (3686400)
I0727 13:26:47.912109  9114 net.cpp:129] Top shape: 1 1024 45 80 (3686400)
I0727 13:26:47.912111  9114 net.cpp:137] Memory required for data: 3409920084
I0727 13:26:47.912114  9114 layer_factory.hpp:77] Creating layer res4b1_branch2a
I0727 13:26:47.912125  9114 net.cpp:84] Creating Layer res4b1_branch2a
I0727 13:26:47.912129  9114 net.cpp:406] res4b1_branch2a <- res4a_res4a_relu_0_split_0
I0727 13:26:47.912134  9114 net.cpp:380] res4b1_branch2a -> res4b1_branch2a
I0727 13:26:47.914680  9114 net.cpp:122] Setting up res4b1_branch2a
I0727 13:26:47.914695  9114 net.cpp:129] Top shape: 1 256 45 80 (921600)
I0727 13:26:47.914700  9114 net.cpp:137] Memory required for data: 3413606484
I0727 13:26:47.914705  9114 layer_factory.hpp:77] Creating layer bn4b1_branch2a
I0727 13:26:47.914714  9114 net.cpp:84] Creating Layer bn4b1_branch2a
I0727 13:26:47.914718  9114 net.cpp:406] bn4b1_branch2a <- res4b1_branch2a
I0727 13:26:47.914722  9114 net.cpp:367] bn4b1_branch2a -> res4b1_branch2a (in-place)
I0727 13:26:47.915094  9114 net.cpp:122] Setting up bn4b1_branch2a
I0727 13:26:47.915103  9114 net.cpp:129] Top shape: 1 256 45 80 (921600)
I0727 13:26:47.915107  9114 net.cpp:137] Memory required for data: 3417292884
I0727 13:26:47.915113  9114 layer_factory.hpp:77] Creating layer scale4b1_branch2a
I0727 13:26:47.915120  9114 net.cpp:84] Creating Layer scale4b1_branch2a
I0727 13:26:47.915123  9114 net.cpp:406] scale4b1_branch2a <- res4b1_branch2a
I0727 13:26:47.915128  9114 net.cpp:367] scale4b1_branch2a -> res4b1_branch2a (in-place)
I0727 13:26:47.915202  9114 layer_factory.hpp:77] Creating layer scale4b1_branch2a
I0727 13:26:47.915424  9114 net.cpp:122] Setting up scale4b1_branch2a
I0727 13:26:47.915434  9114 net.cpp:129] Top shape: 1 256 45 80 (921600)
I0727 13:26:47.915437  9114 net.cpp:137] Memory required for data: 3420979284
I0727 13:26:47.915442  9114 layer_factory.hpp:77] Creating layer res4b1_branch2a_relu
I0727 13:26:47.915447  9114 net.cpp:84] Creating Layer res4b1_branch2a_relu
I0727 13:26:47.915452  9114 net.cpp:406] res4b1_branch2a_relu <- res4b1_branch2a
I0727 13:26:47.915457  9114 net.cpp:367] res4b1_branch2a_relu -> res4b1_branch2a (in-place)
I0727 13:26:47.916121  9114 net.cpp:122] Setting up res4b1_branch2a_relu
I0727 13:26:47.916134  9114 net.cpp:129] Top shape: 1 256 45 80 (921600)
I0727 13:26:47.916137  9114 net.cpp:137] Memory required for data: 3424665684
I0727 13:26:47.916141  9114 layer_factory.hpp:77] Creating layer res4b1_branch2b
I0727 13:26:47.916151  9114 net.cpp:84] Creating Layer res4b1_branch2b
I0727 13:26:47.916153  9114 net.cpp:406] res4b1_branch2b <- res4b1_branch2a
I0727 13:26:47.916159  9114 net.cpp:380] res4b1_branch2b -> res4b1_branch2b
I0727 13:26:47.919232  9114 net.cpp:122] Setting up res4b1_branch2b
I0727 13:26:47.919248  9114 net.cpp:129] Top shape: 1 256 45 80 (921600)
I0727 13:26:47.919251  9114 net.cpp:137] Memory required for data: 3428352084
I0727 13:26:47.919257  9114 layer_factory.hpp:77] Creating layer bn4b1_branch2b
I0727 13:26:47.919265  9114 net.cpp:84] Creating Layer bn4b1_branch2b
I0727 13:26:47.919270  9114 net.cpp:406] bn4b1_branch2b <- res4b1_branch2b
I0727 13:26:47.919275  9114 net.cpp:367] bn4b1_branch2b -> res4b1_branch2b (in-place)
I0727 13:26:47.919657  9114 net.cpp:122] Setting up bn4b1_branch2b
I0727 13:26:47.919668  9114 net.cpp:129] Top shape: 1 256 45 80 (921600)
I0727 13:26:47.919672  9114 net.cpp:137] Memory required for data: 3432038484
I0727 13:26:47.919678  9114 layer_factory.hpp:77] Creating layer scale4b1_branch2b
I0727 13:26:47.919683  9114 net.cpp:84] Creating Layer scale4b1_branch2b
I0727 13:26:47.919687  9114 net.cpp:406] scale4b1_branch2b <- res4b1_branch2b
I0727 13:26:47.919693  9114 net.cpp:367] scale4b1_branch2b -> res4b1_branch2b (in-place)
I0727 13:26:47.919770  9114 layer_factory.hpp:77] Creating layer scale4b1_branch2b
I0727 13:26:47.919992  9114 net.cpp:122] Setting up scale4b1_branch2b
I0727 13:26:47.920002  9114 net.cpp:129] Top shape: 1 256 45 80 (921600)
I0727 13:26:47.920004  9114 net.cpp:137] Memory required for data: 3435724884
I0727 13:26:47.920011  9114 layer_factory.hpp:77] Creating layer res4b1_branch2b_relu
I0727 13:26:47.920016  9114 net.cpp:84] Creating Layer res4b1_branch2b_relu
I0727 13:26:47.920018  9114 net.cpp:406] res4b1_branch2b_relu <- res4b1_branch2b
I0727 13:26:47.920023  9114 net.cpp:367] res4b1_branch2b_relu -> res4b1_branch2b (in-place)
I0727 13:26:47.920696  9114 net.cpp:122] Setting up res4b1_branch2b_relu
I0727 13:26:47.920709  9114 net.cpp:129] Top shape: 1 256 45 80 (921600)
I0727 13:26:47.920713  9114 net.cpp:137] Memory required for data: 3439411284
I0727 13:26:47.920717  9114 layer_factory.hpp:77] Creating layer res4b1_branch2c
I0727 13:26:47.920725  9114 net.cpp:84] Creating Layer res4b1_branch2c
I0727 13:26:47.920729  9114 net.cpp:406] res4b1_branch2c <- res4b1_branch2b
I0727 13:26:47.920734  9114 net.cpp:380] res4b1_branch2c -> res4b1_branch2c
I0727 13:26:47.923319  9114 net.cpp:122] Setting up res4b1_branch2c
I0727 13:26:47.923336  9114 net.cpp:129] Top shape: 1 1024 45 80 (3686400)
I0727 13:26:47.923339  9114 net.cpp:137] Memory required for data: 3454156884
I0727 13:26:47.923346  9114 layer_factory.hpp:77] Creating layer bn4b1_branch2c
I0727 13:26:47.923354  9114 net.cpp:84] Creating Layer bn4b1_branch2c
I0727 13:26:47.923357  9114 net.cpp:406] bn4b1_branch2c <- res4b1_branch2c
I0727 13:26:47.923363  9114 net.cpp:367] bn4b1_branch2c -> res4b1_branch2c (in-place)
I0727 13:26:47.923743  9114 net.cpp:122] Setting up bn4b1_branch2c
I0727 13:26:47.923753  9114 net.cpp:129] Top shape: 1 1024 45 80 (3686400)
I0727 13:26:47.923755  9114 net.cpp:137] Memory required for data: 3468902484
I0727 13:26:47.923761  9114 layer_factory.hpp:77] Creating layer scale4b1_branch2c
I0727 13:26:47.923768  9114 net.cpp:84] Creating Layer scale4b1_branch2c
I0727 13:26:47.923773  9114 net.cpp:406] scale4b1_branch2c <- res4b1_branch2c
I0727 13:26:47.923776  9114 net.cpp:367] scale4b1_branch2c -> res4b1_branch2c (in-place)
I0727 13:26:47.923846  9114 layer_factory.hpp:77] Creating layer scale4b1_branch2c
I0727 13:26:47.924084  9114 net.cpp:122] Setting up scale4b1_branch2c
I0727 13:26:47.924094  9114 net.cpp:129] Top shape: 1 1024 45 80 (3686400)
I0727 13:26:47.924098  9114 net.cpp:137] Memory required for data: 3483648084
I0727 13:26:47.924103  9114 layer_factory.hpp:77] Creating layer res4b1
I0727 13:26:47.924108  9114 net.cpp:84] Creating Layer res4b1
I0727 13:26:47.924113  9114 net.cpp:406] res4b1 <- res4a_res4a_relu_0_split_1
I0727 13:26:47.924116  9114 net.cpp:406] res4b1 <- res4b1_branch2c
I0727 13:26:47.924120  9114 net.cpp:380] res4b1 -> res4b1
I0727 13:26:47.924167  9114 net.cpp:122] Setting up res4b1
I0727 13:26:47.924175  9114 net.cpp:129] Top shape: 1 1024 45 80 (3686400)
I0727 13:26:47.924178  9114 net.cpp:137] Memory required for data: 3498393684
I0727 13:26:47.924181  9114 layer_factory.hpp:77] Creating layer res4b1_relu
I0727 13:26:47.924186  9114 net.cpp:84] Creating Layer res4b1_relu
I0727 13:26:47.924190  9114 net.cpp:406] res4b1_relu <- res4b1
I0727 13:26:47.924193  9114 net.cpp:367] res4b1_relu -> res4b1 (in-place)
I0727 13:26:47.924379  9114 net.cpp:122] Setting up res4b1_relu
I0727 13:26:47.924391  9114 net.cpp:129] Top shape: 1 1024 45 80 (3686400)
I0727 13:26:47.924393  9114 net.cpp:137] Memory required for data: 3513139284
I0727 13:26:47.924397  9114 layer_factory.hpp:77] Creating layer res4b1_res4b1_relu_0_split
I0727 13:26:47.924403  9114 net.cpp:84] Creating Layer res4b1_res4b1_relu_0_split
I0727 13:26:47.924407  9114 net.cpp:406] res4b1_res4b1_relu_0_split <- res4b1
I0727 13:26:47.924412  9114 net.cpp:380] res4b1_res4b1_relu_0_split -> res4b1_res4b1_relu_0_split_0
I0727 13:26:47.924417  9114 net.cpp:380] res4b1_res4b1_relu_0_split -> res4b1_res4b1_relu_0_split_1
I0727 13:26:47.924501  9114 net.cpp:122] Setting up res4b1_res4b1_relu_0_split
I0727 13:26:47.924511  9114 net.cpp:129] Top shape: 1 1024 45 80 (3686400)
I0727 13:26:47.924515  9114 net.cpp:129] Top shape: 1 1024 45 80 (3686400)
I0727 13:26:47.924518  9114 net.cpp:137] Memory required for data: 3542630484
I0727 13:26:47.924521  9114 layer_factory.hpp:77] Creating layer res4b2_branch2a
I0727 13:26:47.924530  9114 net.cpp:84] Creating Layer res4b2_branch2a
I0727 13:26:47.924535  9114 net.cpp:406] res4b2_branch2a <- res4b1_res4b1_relu_0_split_0
I0727 13:26:47.924540  9114 net.cpp:380] res4b2_branch2a -> res4b2_branch2a
I0727 13:26:47.927556  9114 net.cpp:122] Setting up res4b2_branch2a
I0727 13:26:47.927572  9114 net.cpp:129] Top shape: 1 256 45 80 (921600)
I0727 13:26:47.927575  9114 net.cpp:137] Memory required for data: 3546316884
I0727 13:26:47.927580  9114 layer_factory.hpp:77] Creating layer bn4b2_branch2a
I0727 13:26:47.927588  9114 net.cpp:84] Creating Layer bn4b2_branch2a
I0727 13:26:47.927592  9114 net.cpp:406] bn4b2_branch2a <- res4b2_branch2a
I0727 13:26:47.927598  9114 net.cpp:367] bn4b2_branch2a -> res4b2_branch2a (in-place)
I0727 13:26:47.927987  9114 net.cpp:122] Setting up bn4b2_branch2a
I0727 13:26:47.927996  9114 net.cpp:129] Top shape: 1 256 45 80 (921600)
I0727 13:26:47.927999  9114 net.cpp:137] Memory required for data: 3550003284
I0727 13:26:47.928006  9114 layer_factory.hpp:77] Creating layer scale4b2_branch2a
I0727 13:26:47.928012  9114 net.cpp:84] Creating Layer scale4b2_branch2a
I0727 13:26:47.928015  9114 net.cpp:406] scale4b2_branch2a <- res4b2_branch2a
I0727 13:26:47.928020  9114 net.cpp:367] scale4b2_branch2a -> res4b2_branch2a (in-place)
I0727 13:26:47.928099  9114 layer_factory.hpp:77] Creating layer scale4b2_branch2a
I0727 13:26:47.928331  9114 net.cpp:122] Setting up scale4b2_branch2a
I0727 13:26:47.928341  9114 net.cpp:129] Top shape: 1 256 45 80 (921600)
I0727 13:26:47.928344  9114 net.cpp:137] Memory required for data: 3553689684
I0727 13:26:47.928349  9114 layer_factory.hpp:77] Creating layer res4b2_branch2a_relu
I0727 13:26:47.928354  9114 net.cpp:84] Creating Layer res4b2_branch2a_relu
I0727 13:26:47.928359  9114 net.cpp:406] res4b2_branch2a_relu <- res4b2_branch2a
I0727 13:26:47.928362  9114 net.cpp:367] res4b2_branch2a_relu -> res4b2_branch2a (in-place)
I0727 13:26:47.929047  9114 net.cpp:122] Setting up res4b2_branch2a_relu
I0727 13:26:47.929061  9114 net.cpp:129] Top shape: 1 256 45 80 (921600)
I0727 13:26:47.929065  9114 net.cpp:137] Memory required for data: 3557376084
I0727 13:26:47.929069  9114 layer_factory.hpp:77] Creating layer res4b2_branch2b
I0727 13:26:47.929077  9114 net.cpp:84] Creating Layer res4b2_branch2b
I0727 13:26:47.929081  9114 net.cpp:406] res4b2_branch2b <- res4b2_branch2a
I0727 13:26:47.929087  9114 net.cpp:380] res4b2_branch2b -> res4b2_branch2b
I0727 13:26:47.932173  9114 net.cpp:122] Setting up res4b2_branch2b
I0727 13:26:47.932188  9114 net.cpp:129] Top shape: 1 256 45 80 (921600)
I0727 13:26:47.932193  9114 net.cpp:137] Memory required for data: 3561062484
I0727 13:26:47.932198  9114 layer_factory.hpp:77] Creating layer bn4b2_branch2b
I0727 13:26:47.932205  9114 net.cpp:84] Creating Layer bn4b2_branch2b
I0727 13:26:47.932209  9114 net.cpp:406] bn4b2_branch2b <- res4b2_branch2b
I0727 13:26:47.932214  9114 net.cpp:367] bn4b2_branch2b -> res4b2_branch2b (in-place)
I0727 13:26:47.932623  9114 net.cpp:122] Setting up bn4b2_branch2b
I0727 13:26:47.932634  9114 net.cpp:129] Top shape: 1 256 45 80 (921600)
I0727 13:26:47.932637  9114 net.cpp:137] Memory required for data: 3564748884
I0727 13:26:47.932644  9114 layer_factory.hpp:77] Creating layer scale4b2_branch2b
I0727 13:26:47.932651  9114 net.cpp:84] Creating Layer scale4b2_branch2b
I0727 13:26:47.932654  9114 net.cpp:406] scale4b2_branch2b <- res4b2_branch2b
I0727 13:26:47.932659  9114 net.cpp:367] scale4b2_branch2b -> res4b2_branch2b (in-place)
I0727 13:26:47.932739  9114 layer_factory.hpp:77] Creating layer scale4b2_branch2b
I0727 13:26:47.932971  9114 net.cpp:122] Setting up scale4b2_branch2b
I0727 13:26:47.932981  9114 net.cpp:129] Top shape: 1 256 45 80 (921600)
I0727 13:26:47.932984  9114 net.cpp:137] Memory required for data: 3568435284
I0727 13:26:47.932991  9114 layer_factory.hpp:77] Creating layer res4b2_branch2b_relu
I0727 13:26:47.932996  9114 net.cpp:84] Creating Layer res4b2_branch2b_relu
I0727 13:26:47.932998  9114 net.cpp:406] res4b2_branch2b_relu <- res4b2_branch2b
I0727 13:26:47.933003  9114 net.cpp:367] res4b2_branch2b_relu -> res4b2_branch2b (in-place)
I0727 13:26:47.933673  9114 net.cpp:122] Setting up res4b2_branch2b_relu
I0727 13:26:47.933687  9114 net.cpp:129] Top shape: 1 256 45 80 (921600)
I0727 13:26:47.933691  9114 net.cpp:137] Memory required for data: 3572121684
I0727 13:26:47.933694  9114 layer_factory.hpp:77] Creating layer res4b2_branch2c
I0727 13:26:47.933703  9114 net.cpp:84] Creating Layer res4b2_branch2c
I0727 13:26:47.933707  9114 net.cpp:406] res4b2_branch2c <- res4b2_branch2b
I0727 13:26:47.933713  9114 net.cpp:380] res4b2_branch2c -> res4b2_branch2c
I0727 13:26:47.936242  9114 net.cpp:122] Setting up res4b2_branch2c
I0727 13:26:47.936259  9114 net.cpp:129] Top shape: 1 1024 45 80 (3686400)
I0727 13:26:47.936261  9114 net.cpp:137] Memory required for data: 3586867284
I0727 13:26:47.936267  9114 layer_factory.hpp:77] Creating layer bn4b2_branch2c
I0727 13:26:47.936275  9114 net.cpp:84] Creating Layer bn4b2_branch2c
I0727 13:26:47.936280  9114 net.cpp:406] bn4b2_branch2c <- res4b2_branch2c
I0727 13:26:47.936285  9114 net.cpp:367] bn4b2_branch2c -> res4b2_branch2c (in-place)
I0727 13:26:47.936750  9114 net.cpp:122] Setting up bn4b2_branch2c
I0727 13:26:47.936763  9114 net.cpp:129] Top shape: 1 1024 45 80 (3686400)
I0727 13:26:47.936777  9114 net.cpp:137] Memory required for data: 3601612884
I0727 13:26:47.936784  9114 layer_factory.hpp:77] Creating layer scale4b2_branch2c
I0727 13:26:47.936791  9114 net.cpp:84] Creating Layer scale4b2_branch2c
I0727 13:26:47.936795  9114 net.cpp:406] scale4b2_branch2c <- res4b2_branch2c
I0727 13:26:47.936801  9114 net.cpp:367] scale4b2_branch2c -> res4b2_branch2c (in-place)
I0727 13:26:47.936877  9114 layer_factory.hpp:77] Creating layer scale4b2_branch2c
I0727 13:26:47.937134  9114 net.cpp:122] Setting up scale4b2_branch2c
I0727 13:26:47.937144  9114 net.cpp:129] Top shape: 1 1024 45 80 (3686400)
I0727 13:26:47.937147  9114 net.cpp:137] Memory required for data: 3616358484
I0727 13:26:47.937153  9114 layer_factory.hpp:77] Creating layer res4b2
I0727 13:26:47.937158  9114 net.cpp:84] Creating Layer res4b2
I0727 13:26:47.937162  9114 net.cpp:406] res4b2 <- res4b1_res4b1_relu_0_split_1
I0727 13:26:47.937167  9114 net.cpp:406] res4b2 <- res4b2_branch2c
I0727 13:26:47.937171  9114 net.cpp:380] res4b2 -> res4b2
I0727 13:26:47.937223  9114 net.cpp:122] Setting up res4b2
I0727 13:26:47.937232  9114 net.cpp:129] Top shape: 1 1024 45 80 (3686400)
I0727 13:26:47.937234  9114 net.cpp:137] Memory required for data: 3631104084
I0727 13:26:47.937237  9114 layer_factory.hpp:77] Creating layer res4b2_relu
I0727 13:26:47.937243  9114 net.cpp:84] Creating Layer res4b2_relu
I0727 13:26:47.937247  9114 net.cpp:406] res4b2_relu <- res4b2
I0727 13:26:47.937250  9114 net.cpp:367] res4b2_relu -> res4b2 (in-place)
I0727 13:26:47.937469  9114 net.cpp:122] Setting up res4b2_relu
I0727 13:26:47.937482  9114 net.cpp:129] Top shape: 1 1024 45 80 (3686400)
I0727 13:26:47.937486  9114 net.cpp:137] Memory required for data: 3645849684
I0727 13:26:47.937489  9114 layer_factory.hpp:77] Creating layer res4b2_res4b2_relu_0_split
I0727 13:26:47.937495  9114 net.cpp:84] Creating Layer res4b2_res4b2_relu_0_split
I0727 13:26:47.937499  9114 net.cpp:406] res4b2_res4b2_relu_0_split <- res4b2
I0727 13:26:47.937505  9114 net.cpp:380] res4b2_res4b2_relu_0_split -> res4b2_res4b2_relu_0_split_0
I0727 13:26:47.937511  9114 net.cpp:380] res4b2_res4b2_relu_0_split -> res4b2_res4b2_relu_0_split_1
I0727 13:26:47.937597  9114 net.cpp:122] Setting up res4b2_res4b2_relu_0_split
I0727 13:26:47.937608  9114 net.cpp:129] Top shape: 1 1024 45 80 (3686400)
I0727 13:26:47.937613  9114 net.cpp:129] Top shape: 1 1024 45 80 (3686400)
I0727 13:26:47.937615  9114 net.cpp:137] Memory required for data: 3675340884
I0727 13:26:47.937618  9114 layer_factory.hpp:77] Creating layer res4b3_branch2a
I0727 13:26:47.937626  9114 net.cpp:84] Creating Layer res4b3_branch2a
I0727 13:26:47.937630  9114 net.cpp:406] res4b3_branch2a <- res4b2_res4b2_relu_0_split_0
I0727 13:26:47.937636  9114 net.cpp:380] res4b3_branch2a -> res4b3_branch2a
I0727 13:26:47.940240  9114 net.cpp:122] Setting up res4b3_branch2a
I0727 13:26:47.940256  9114 net.cpp:129] Top shape: 1 256 45 80 (921600)
I0727 13:26:47.940260  9114 net.cpp:137] Memory required for data: 3679027284
I0727 13:26:47.940265  9114 layer_factory.hpp:77] Creating layer bn4b3_branch2a
I0727 13:26:47.940274  9114 net.cpp:84] Creating Layer bn4b3_branch2a
I0727 13:26:47.940277  9114 net.cpp:406] bn4b3_branch2a <- res4b3_branch2a
I0727 13:26:47.940282  9114 net.cpp:367] bn4b3_branch2a -> res4b3_branch2a (in-place)
I0727 13:26:47.940688  9114 net.cpp:122] Setting up bn4b3_branch2a
I0727 13:26:47.940699  9114 net.cpp:129] Top shape: 1 256 45 80 (921600)
I0727 13:26:47.940702  9114 net.cpp:137] Memory required for data: 3682713684
I0727 13:26:47.940709  9114 layer_factory.hpp:77] Creating layer scale4b3_branch2a
I0727 13:26:47.940716  9114 net.cpp:84] Creating Layer scale4b3_branch2a
I0727 13:26:47.940719  9114 net.cpp:406] scale4b3_branch2a <- res4b3_branch2a
I0727 13:26:47.940724  9114 net.cpp:367] scale4b3_branch2a -> res4b3_branch2a (in-place)
I0727 13:26:47.940801  9114 layer_factory.hpp:77] Creating layer scale4b3_branch2a
I0727 13:26:47.941038  9114 net.cpp:122] Setting up scale4b3_branch2a
I0727 13:26:47.941048  9114 net.cpp:129] Top shape: 1 256 45 80 (921600)
I0727 13:26:47.941051  9114 net.cpp:137] Memory required for data: 3686400084
I0727 13:26:47.941057  9114 layer_factory.hpp:77] Creating layer res4b3_branch2a_relu
I0727 13:26:47.941062  9114 net.cpp:84] Creating Layer res4b3_branch2a_relu
I0727 13:26:47.941066  9114 net.cpp:406] res4b3_branch2a_relu <- res4b3_branch2a
I0727 13:26:47.941071  9114 net.cpp:367] res4b3_branch2a_relu -> res4b3_branch2a (in-place)
I0727 13:26:47.941745  9114 net.cpp:122] Setting up res4b3_branch2a_relu
I0727 13:26:47.941759  9114 net.cpp:129] Top shape: 1 256 45 80 (921600)
I0727 13:26:47.941762  9114 net.cpp:137] Memory required for data: 3690086484
I0727 13:26:47.941766  9114 layer_factory.hpp:77] Creating layer res4b3_branch2b
I0727 13:26:47.941776  9114 net.cpp:84] Creating Layer res4b3_branch2b
I0727 13:26:47.941779  9114 net.cpp:406] res4b3_branch2b <- res4b3_branch2a
I0727 13:26:47.941784  9114 net.cpp:380] res4b3_branch2b -> res4b3_branch2b
I0727 13:26:47.945580  9114 net.cpp:122] Setting up res4b3_branch2b
I0727 13:26:47.945616  9114 net.cpp:129] Top shape: 1 256 45 80 (921600)
I0727 13:26:47.945624  9114 net.cpp:137] Memory required for data: 3693772884
I0727 13:26:47.945641  9114 layer_factory.hpp:77] Creating layer bn4b3_branch2b
I0727 13:26:47.945657  9114 net.cpp:84] Creating Layer bn4b3_branch2b
I0727 13:26:47.945672  9114 net.cpp:406] bn4b3_branch2b <- res4b3_branch2b
I0727 13:26:47.945688  9114 net.cpp:367] bn4b3_branch2b -> res4b3_branch2b (in-place)
I0727 13:26:47.946606  9114 net.cpp:122] Setting up bn4b3_branch2b
I0727 13:26:47.946627  9114 net.cpp:129] Top shape: 1 256 45 80 (921600)
I0727 13:26:47.946635  9114 net.cpp:137] Memory required for data: 3697459284
I0727 13:26:47.946650  9114 layer_factory.hpp:77] Creating layer scale4b3_branch2b
I0727 13:26:47.946666  9114 net.cpp:84] Creating Layer scale4b3_branch2b
I0727 13:26:47.946673  9114 net.cpp:406] scale4b3_branch2b <- res4b3_branch2b
I0727 13:26:47.946686  9114 net.cpp:367] scale4b3_branch2b -> res4b3_branch2b (in-place)
I0727 13:26:47.946847  9114 layer_factory.hpp:77] Creating layer scale4b3_branch2b
I0727 13:26:47.947348  9114 net.cpp:122] Setting up scale4b3_branch2b
I0727 13:26:47.947367  9114 net.cpp:129] Top shape: 1 256 45 80 (921600)
I0727 13:26:47.947374  9114 net.cpp:137] Memory required for data: 3701145684
I0727 13:26:47.947386  9114 layer_factory.hpp:77] Creating layer res4b3_branch2b_relu
I0727 13:26:47.947397  9114 net.cpp:84] Creating Layer res4b3_branch2b_relu
I0727 13:26:47.947405  9114 net.cpp:406] res4b3_branch2b_relu <- res4b3_branch2b
I0727 13:26:47.947417  9114 net.cpp:367] res4b3_branch2b_relu -> res4b3_branch2b (in-place)
I0727 13:26:47.948945  9114 net.cpp:122] Setting up res4b3_branch2b_relu
I0727 13:26:47.948976  9114 net.cpp:129] Top shape: 1 256 45 80 (921600)
I0727 13:26:47.948985  9114 net.cpp:137] Memory required for data: 3704832084
I0727 13:26:47.948993  9114 layer_factory.hpp:77] Creating layer res4b3_branch2c
I0727 13:26:47.949010  9114 net.cpp:84] Creating Layer res4b3_branch2c
I0727 13:26:47.949018  9114 net.cpp:406] res4b3_branch2c <- res4b3_branch2b
I0727 13:26:47.949033  9114 net.cpp:380] res4b3_branch2c -> res4b3_branch2c
I0727 13:26:47.954627  9114 net.cpp:122] Setting up res4b3_branch2c
I0727 13:26:47.954660  9114 net.cpp:129] Top shape: 1 1024 45 80 (3686400)
I0727 13:26:47.954669  9114 net.cpp:137] Memory required for data: 3719577684
I0727 13:26:47.954681  9114 layer_factory.hpp:77] Creating layer bn4b3_branch2c
I0727 13:26:47.954699  9114 net.cpp:84] Creating Layer bn4b3_branch2c
I0727 13:26:47.954707  9114 net.cpp:406] bn4b3_branch2c <- res4b3_branch2c
I0727 13:26:47.954720  9114 net.cpp:367] bn4b3_branch2c -> res4b3_branch2c (in-place)
I0727 13:26:47.955590  9114 net.cpp:122] Setting up bn4b3_branch2c
I0727 13:26:47.955610  9114 net.cpp:129] Top shape: 1 1024 45 80 (3686400)
I0727 13:26:47.955616  9114 net.cpp:137] Memory required for data: 3734323284
I0727 13:26:47.955632  9114 layer_factory.hpp:77] Creating layer scale4b3_branch2c
I0727 13:26:47.955647  9114 net.cpp:84] Creating Layer scale4b3_branch2c
I0727 13:26:47.955655  9114 net.cpp:406] scale4b3_branch2c <- res4b3_branch2c
I0727 13:26:47.955665  9114 net.cpp:367] scale4b3_branch2c -> res4b3_branch2c (in-place)
I0727 13:26:47.955816  9114 layer_factory.hpp:77] Creating layer scale4b3_branch2c
I0727 13:26:47.956341  9114 net.cpp:122] Setting up scale4b3_branch2c
I0727 13:26:47.956360  9114 net.cpp:129] Top shape: 1 1024 45 80 (3686400)
I0727 13:26:47.956367  9114 net.cpp:137] Memory required for data: 3749068884
I0727 13:26:47.956379  9114 layer_factory.hpp:77] Creating layer res4b3
I0727 13:26:47.956393  9114 net.cpp:84] Creating Layer res4b3
I0727 13:26:47.956400  9114 net.cpp:406] res4b3 <- res4b2_res4b2_relu_0_split_1
I0727 13:26:47.956410  9114 net.cpp:406] res4b3 <- res4b3_branch2c
I0727 13:26:47.956420  9114 net.cpp:380] res4b3 -> res4b3
I0727 13:26:47.956537  9114 net.cpp:122] Setting up res4b3
I0727 13:26:47.956557  9114 net.cpp:129] Top shape: 1 1024 45 80 (3686400)
I0727 13:26:47.956563  9114 net.cpp:137] Memory required for data: 3763814484
I0727 13:26:47.956573  9114 layer_factory.hpp:77] Creating layer res4b3_relu
I0727 13:26:47.956584  9114 net.cpp:84] Creating Layer res4b3_relu
I0727 13:26:47.956595  9114 net.cpp:406] res4b3_relu <- res4b3
I0727 13:26:47.956604  9114 net.cpp:367] res4b3_relu -> res4b3 (in-place)
I0727 13:26:47.957026  9114 net.cpp:122] Setting up res4b3_relu
I0727 13:26:47.957046  9114 net.cpp:129] Top shape: 1 1024 45 80 (3686400)
I0727 13:26:47.957052  9114 net.cpp:137] Memory required for data: 3778560084
I0727 13:26:47.957059  9114 layer_factory.hpp:77] Creating layer res4b3_res4b3_relu_0_split
I0727 13:26:47.957073  9114 net.cpp:84] Creating Layer res4b3_res4b3_relu_0_split
I0727 13:26:47.957082  9114 net.cpp:406] res4b3_res4b3_relu_0_split <- res4b3
I0727 13:26:47.957092  9114 net.cpp:380] res4b3_res4b3_relu_0_split -> res4b3_res4b3_relu_0_split_0
I0727 13:26:47.957108  9114 net.cpp:380] res4b3_res4b3_relu_0_split -> res4b3_res4b3_relu_0_split_1
I0727 13:26:47.957267  9114 net.cpp:122] Setting up res4b3_res4b3_relu_0_split
I0727 13:26:47.957283  9114 net.cpp:129] Top shape: 1 1024 45 80 (3686400)
I0727 13:26:47.957293  9114 net.cpp:129] Top shape: 1 1024 45 80 (3686400)
I0727 13:26:47.957300  9114 net.cpp:137] Memory required for data: 3808051284
I0727 13:26:47.957309  9114 layer_factory.hpp:77] Creating layer res4b4_branch2a
I0727 13:26:47.957326  9114 net.cpp:84] Creating Layer res4b4_branch2a
I0727 13:26:47.957353  9114 net.cpp:406] res4b4_branch2a <- res4b3_res4b3_relu_0_split_0
I0727 13:26:47.957363  9114 net.cpp:380] res4b4_branch2a -> res4b4_branch2a
I0727 13:26:47.963523  9114 net.cpp:122] Setting up res4b4_branch2a
I0727 13:26:47.963553  9114 net.cpp:129] Top shape: 1 256 45 80 (921600)
I0727 13:26:47.963563  9114 net.cpp:137] Memory required for data: 3811737684
I0727 13:26:47.963575  9114 layer_factory.hpp:77] Creating layer bn4b4_branch2a
I0727 13:26:47.963593  9114 net.cpp:84] Creating Layer bn4b4_branch2a
I0727 13:26:47.963601  9114 net.cpp:406] bn4b4_branch2a <- res4b4_branch2a
I0727 13:26:47.963613  9114 net.cpp:367] bn4b4_branch2a -> res4b4_branch2a (in-place)
I0727 13:26:47.964464  9114 net.cpp:122] Setting up bn4b4_branch2a
I0727 13:26:47.964484  9114 net.cpp:129] Top shape: 1 256 45 80 (921600)
I0727 13:26:47.964491  9114 net.cpp:137] Memory required for data: 3815424084
I0727 13:26:47.964509  9114 layer_factory.hpp:77] Creating layer scale4b4_branch2a
I0727 13:26:47.964524  9114 net.cpp:84] Creating Layer scale4b4_branch2a
I0727 13:26:47.964534  9114 net.cpp:406] scale4b4_branch2a <- res4b4_branch2a
I0727 13:26:47.964545  9114 net.cpp:367] scale4b4_branch2a -> res4b4_branch2a (in-place)
I0727 13:26:47.964702  9114 layer_factory.hpp:77] Creating layer scale4b4_branch2a
I0727 13:26:47.965174  9114 net.cpp:122] Setting up scale4b4_branch2a
I0727 13:26:47.965191  9114 net.cpp:129] Top shape: 1 256 45 80 (921600)
I0727 13:26:47.965198  9114 net.cpp:137] Memory required for data: 3819110484
I0727 13:26:47.965209  9114 layer_factory.hpp:77] Creating layer res4b4_branch2a_relu
I0727 13:26:47.965219  9114 net.cpp:84] Creating Layer res4b4_branch2a_relu
I0727 13:26:47.965226  9114 net.cpp:406] res4b4_branch2a_relu <- res4b4_branch2a
I0727 13:26:47.965234  9114 net.cpp:367] res4b4_branch2a_relu -> res4b4_branch2a (in-place)
I0727 13:26:47.966657  9114 net.cpp:122] Setting up res4b4_branch2a_relu
I0727 13:26:47.966684  9114 net.cpp:129] Top shape: 1 256 45 80 (921600)
I0727 13:26:47.966691  9114 net.cpp:137] Memory required for data: 3822796884
I0727 13:26:47.966698  9114 layer_factory.hpp:77] Creating layer res4b4_branch2b
I0727 13:26:47.966716  9114 net.cpp:84] Creating Layer res4b4_branch2b
I0727 13:26:47.966724  9114 net.cpp:406] res4b4_branch2b <- res4b4_branch2a
I0727 13:26:47.966737  9114 net.cpp:380] res4b4_branch2b -> res4b4_branch2b
I0727 13:26:47.972733  9114 net.cpp:122] Setting up res4b4_branch2b
I0727 13:26:47.972760  9114 net.cpp:129] Top shape: 1 256 45 80 (921600)
I0727 13:26:47.972769  9114 net.cpp:137] Memory required for data: 3826483284
I0727 13:26:47.972779  9114 layer_factory.hpp:77] Creating layer bn4b4_branch2b
I0727 13:26:47.972795  9114 net.cpp:84] Creating Layer bn4b4_branch2b
I0727 13:26:47.972802  9114 net.cpp:406] bn4b4_branch2b <- res4b4_branch2b
I0727 13:26:47.972812  9114 net.cpp:367] bn4b4_branch2b -> res4b4_branch2b (in-place)
I0727 13:26:47.973603  9114 net.cpp:122] Setting up bn4b4_branch2b
I0727 13:26:47.973621  9114 net.cpp:129] Top shape: 1 256 45 80 (921600)
I0727 13:26:47.973628  9114 net.cpp:137] Memory required for data: 3830169684
I0727 13:26:47.973640  9114 layer_factory.hpp:77] Creating layer scale4b4_branch2b
I0727 13:26:47.973652  9114 net.cpp:84] Creating Layer scale4b4_branch2b
I0727 13:26:47.973659  9114 net.cpp:406] scale4b4_branch2b <- res4b4_branch2b
I0727 13:26:47.973670  9114 net.cpp:367] scale4b4_branch2b -> res4b4_branch2b (in-place)
I0727 13:26:47.973814  9114 layer_factory.hpp:77] Creating layer scale4b4_branch2b
I0727 13:26:47.974259  9114 net.cpp:122] Setting up scale4b4_branch2b
I0727 13:26:47.974275  9114 net.cpp:129] Top shape: 1 256 45 80 (921600)
I0727 13:26:47.974282  9114 net.cpp:137] Memory required for data: 3833856084
I0727 13:26:47.974292  9114 layer_factory.hpp:77] Creating layer res4b4_branch2b_relu
I0727 13:26:47.974301  9114 net.cpp:84] Creating Layer res4b4_branch2b_relu
I0727 13:26:47.974308  9114 net.cpp:406] res4b4_branch2b_relu <- res4b4_branch2b
I0727 13:26:47.974316  9114 net.cpp:367] res4b4_branch2b_relu -> res4b4_branch2b (in-place)
I0727 13:26:47.975622  9114 net.cpp:122] Setting up res4b4_branch2b_relu
I0727 13:26:47.975647  9114 net.cpp:129] Top shape: 1 256 45 80 (921600)
I0727 13:26:47.975654  9114 net.cpp:137] Memory required for data: 3837542484
I0727 13:26:47.975661  9114 layer_factory.hpp:77] Creating layer res4b4_branch2c
I0727 13:26:47.975677  9114 net.cpp:84] Creating Layer res4b4_branch2c
I0727 13:26:47.975684  9114 net.cpp:406] res4b4_branch2c <- res4b4_branch2b
I0727 13:26:47.975695  9114 net.cpp:380] res4b4_branch2c -> res4b4_branch2c
I0727 13:26:47.981469  9114 net.cpp:122] Setting up res4b4_branch2c
I0727 13:26:47.981497  9114 net.cpp:129] Top shape: 1 1024 45 80 (3686400)
I0727 13:26:47.981503  9114 net.cpp:137] Memory required for data: 3852288084
I0727 13:26:47.981513  9114 layer_factory.hpp:77] Creating layer bn4b4_branch2c
I0727 13:26:47.981528  9114 net.cpp:84] Creating Layer bn4b4_branch2c
I0727 13:26:47.981535  9114 net.cpp:406] bn4b4_branch2c <- res4b4_branch2c
I0727 13:26:47.981545  9114 net.cpp:367] bn4b4_branch2c -> res4b4_branch2c (in-place)
I0727 13:26:47.982286  9114 net.cpp:122] Setting up bn4b4_branch2c
I0727 13:26:47.982301  9114 net.cpp:129] Top shape: 1 1024 45 80 (3686400)
I0727 13:26:47.982307  9114 net.cpp:137] Memory required for data: 3867033684
I0727 13:26:47.982319  9114 layer_factory.hpp:77] Creating layer scale4b4_branch2c
I0727 13:26:47.982331  9114 net.cpp:84] Creating Layer scale4b4_branch2c
I0727 13:26:47.982337  9114 net.cpp:406] scale4b4_branch2c <- res4b4_branch2c
I0727 13:26:47.982348  9114 net.cpp:367] scale4b4_branch2c -> res4b4_branch2c (in-place)
I0727 13:26:47.982470  9114 layer_factory.hpp:77] Creating layer scale4b4_branch2c
I0727 13:26:47.982910  9114 net.cpp:122] Setting up scale4b4_branch2c
I0727 13:26:47.982926  9114 net.cpp:129] Top shape: 1 1024 45 80 (3686400)
I0727 13:26:47.982931  9114 net.cpp:137] Memory required for data: 3881779284
I0727 13:26:47.982941  9114 layer_factory.hpp:77] Creating layer res4b4
I0727 13:26:47.982950  9114 net.cpp:84] Creating Layer res4b4
I0727 13:26:47.982957  9114 net.cpp:406] res4b4 <- res4b3_res4b3_relu_0_split_1
I0727 13:26:47.982964  9114 net.cpp:406] res4b4 <- res4b4_branch2c
I0727 13:26:47.982975  9114 net.cpp:380] res4b4 -> res4b4
I0727 13:26:47.983057  9114 net.cpp:122] Setting up res4b4
I0727 13:26:47.983072  9114 net.cpp:129] Top shape: 1 1024 45 80 (3686400)
I0727 13:26:47.983078  9114 net.cpp:137] Memory required for data: 3896524884
I0727 13:26:47.983083  9114 layer_factory.hpp:77] Creating layer res4b4_relu
I0727 13:26:47.983091  9114 net.cpp:84] Creating Layer res4b4_relu
I0727 13:26:47.983099  9114 net.cpp:406] res4b4_relu <- res4b4
I0727 13:26:47.983110  9114 net.cpp:367] res4b4_relu -> res4b4 (in-place)
I0727 13:26:47.983482  9114 net.cpp:122] Setting up res4b4_relu
I0727 13:26:47.983500  9114 net.cpp:129] Top shape: 1 1024 45 80 (3686400)
I0727 13:26:47.983506  9114 net.cpp:137] Memory required for data: 3911270484
I0727 13:26:47.983512  9114 layer_factory.hpp:77] Creating layer res4b4_res4b4_relu_0_split
I0727 13:26:47.983523  9114 net.cpp:84] Creating Layer res4b4_res4b4_relu_0_split
I0727 13:26:47.983530  9114 net.cpp:406] res4b4_res4b4_relu_0_split <- res4b4
I0727 13:26:47.983538  9114 net.cpp:380] res4b4_res4b4_relu_0_split -> res4b4_res4b4_relu_0_split_0
I0727 13:26:47.983551  9114 net.cpp:380] res4b4_res4b4_relu_0_split -> res4b4_res4b4_relu_0_split_1
I0727 13:26:47.983697  9114 net.cpp:122] Setting up res4b4_res4b4_relu_0_split
I0727 13:26:47.983712  9114 net.cpp:129] Top shape: 1 1024 45 80 (3686400)
I0727 13:26:47.983719  9114 net.cpp:129] Top shape: 1 1024 45 80 (3686400)
I0727 13:26:47.983727  9114 net.cpp:137] Memory required for data: 3940761684
I0727 13:26:47.983733  9114 layer_factory.hpp:77] Creating layer res4b5_branch2a
I0727 13:26:47.983747  9114 net.cpp:84] Creating Layer res4b5_branch2a
I0727 13:26:47.983757  9114 net.cpp:406] res4b5_branch2a <- res4b4_res4b4_relu_0_split_0
I0727 13:26:47.983768  9114 net.cpp:380] res4b5_branch2a -> res4b5_branch2a
I0727 13:26:47.988394  9114 net.cpp:122] Setting up res4b5_branch2a
I0727 13:26:47.988421  9114 net.cpp:129] Top shape: 1 256 45 80 (921600)
I0727 13:26:47.988428  9114 net.cpp:137] Memory required for data: 3944448084
I0727 13:26:47.988446  9114 layer_factory.hpp:77] Creating layer bn4b5_branch2a
I0727 13:26:47.988461  9114 net.cpp:84] Creating Layer bn4b5_branch2a
I0727 13:26:47.988468  9114 net.cpp:406] bn4b5_branch2a <- res4b5_branch2a
I0727 13:26:47.988478  9114 net.cpp:367] bn4b5_branch2a -> res4b5_branch2a (in-place)
I0727 13:26:47.989233  9114 net.cpp:122] Setting up bn4b5_branch2a
I0727 13:26:47.989250  9114 net.cpp:129] Top shape: 1 256 45 80 (921600)
I0727 13:26:47.989256  9114 net.cpp:137] Memory required for data: 3948134484
I0727 13:26:47.989269  9114 layer_factory.hpp:77] Creating layer scale4b5_branch2a
I0727 13:26:47.989279  9114 net.cpp:84] Creating Layer scale4b5_branch2a
I0727 13:26:47.989285  9114 net.cpp:406] scale4b5_branch2a <- res4b5_branch2a
I0727 13:26:47.989296  9114 net.cpp:367] scale4b5_branch2a -> res4b5_branch2a (in-place)
I0727 13:26:47.989437  9114 layer_factory.hpp:77] Creating layer scale4b5_branch2a
I0727 13:26:47.989864  9114 net.cpp:122] Setting up scale4b5_branch2a
I0727 13:26:47.989881  9114 net.cpp:129] Top shape: 1 256 45 80 (921600)
I0727 13:26:47.989886  9114 net.cpp:137] Memory required for data: 3951820884
I0727 13:26:47.989895  9114 layer_factory.hpp:77] Creating layer res4b5_branch2a_relu
I0727 13:26:47.989904  9114 net.cpp:84] Creating Layer res4b5_branch2a_relu
I0727 13:26:47.989912  9114 net.cpp:406] res4b5_branch2a_relu <- res4b5_branch2a
I0727 13:26:47.989920  9114 net.cpp:367] res4b5_branch2a_relu -> res4b5_branch2a (in-place)
I0727 13:26:47.991159  9114 net.cpp:122] Setting up res4b5_branch2a_relu
I0727 13:26:47.991183  9114 net.cpp:129] Top shape: 1 256 45 80 (921600)
I0727 13:26:47.991189  9114 net.cpp:137] Memory required for data: 3955507284
I0727 13:26:47.991195  9114 layer_factory.hpp:77] Creating layer res4b5_branch2b
I0727 13:26:47.991211  9114 net.cpp:84] Creating Layer res4b5_branch2b
I0727 13:26:47.991219  9114 net.cpp:406] res4b5_branch2b <- res4b5_branch2a
I0727 13:26:47.991230  9114 net.cpp:380] res4b5_branch2b -> res4b5_branch2b
I0727 13:26:47.996556  9114 net.cpp:122] Setting up res4b5_branch2b
I0727 13:26:47.996582  9114 net.cpp:129] Top shape: 1 256 45 80 (921600)
I0727 13:26:47.996589  9114 net.cpp:137] Memory required for data: 3959193684
I0727 13:26:47.996598  9114 layer_factory.hpp:77] Creating layer bn4b5_branch2b
I0727 13:26:47.996611  9114 net.cpp:84] Creating Layer bn4b5_branch2b
I0727 13:26:47.996618  9114 net.cpp:406] bn4b5_branch2b <- res4b5_branch2b
I0727 13:26:47.996628  9114 net.cpp:367] bn4b5_branch2b -> res4b5_branch2b (in-place)
I0727 13:26:47.997352  9114 net.cpp:122] Setting up bn4b5_branch2b
I0727 13:26:47.997369  9114 net.cpp:129] Top shape: 1 256 45 80 (921600)
I0727 13:26:47.997373  9114 net.cpp:137] Memory required for data: 3962880084
I0727 13:26:47.997385  9114 layer_factory.hpp:77] Creating layer scale4b5_branch2b
I0727 13:26:47.997395  9114 net.cpp:84] Creating Layer scale4b5_branch2b
I0727 13:26:47.997402  9114 net.cpp:406] scale4b5_branch2b <- res4b5_branch2b
I0727 13:26:47.997412  9114 net.cpp:367] scale4b5_branch2b -> res4b5_branch2b (in-place)
I0727 13:26:47.997546  9114 layer_factory.hpp:77] Creating layer scale4b5_branch2b
I0727 13:26:47.997978  9114 net.cpp:122] Setting up scale4b5_branch2b
I0727 13:26:47.997993  9114 net.cpp:129] Top shape: 1 256 45 80 (921600)
I0727 13:26:47.997998  9114 net.cpp:137] Memory required for data: 3966566484
I0727 13:26:47.998008  9114 layer_factory.hpp:77] Creating layer res4b5_branch2b_relu
I0727 13:26:47.998015  9114 net.cpp:84] Creating Layer res4b5_branch2b_relu
I0727 13:26:47.998023  9114 net.cpp:406] res4b5_branch2b_relu <- res4b5_branch2b
I0727 13:26:47.998030  9114 net.cpp:367] res4b5_branch2b_relu -> res4b5_branch2b (in-place)
I0727 13:26:47.999210  9114 net.cpp:122] Setting up res4b5_branch2b_relu
I0727 13:26:47.999233  9114 net.cpp:129] Top shape: 1 256 45 80 (921600)
I0727 13:26:47.999239  9114 net.cpp:137] Memory required for data: 3970252884
I0727 13:26:47.999245  9114 layer_factory.hpp:77] Creating layer res4b5_branch2c
I0727 13:26:47.999260  9114 net.cpp:84] Creating Layer res4b5_branch2c
I0727 13:26:47.999267  9114 net.cpp:406] res4b5_branch2c <- res4b5_branch2b
I0727 13:26:47.999279  9114 net.cpp:380] res4b5_branch2c -> res4b5_branch2c
I0727 13:26:48.003713  9114 net.cpp:122] Setting up res4b5_branch2c
I0727 13:26:48.003741  9114 net.cpp:129] Top shape: 1 1024 45 80 (3686400)
I0727 13:26:48.003748  9114 net.cpp:137] Memory required for data: 3984998484
I0727 13:26:48.003758  9114 layer_factory.hpp:77] Creating layer bn4b5_branch2c
I0727 13:26:48.003772  9114 net.cpp:84] Creating Layer bn4b5_branch2c
I0727 13:26:48.003777  9114 net.cpp:406] bn4b5_branch2c <- res4b5_branch2c
I0727 13:26:48.003788  9114 net.cpp:367] bn4b5_branch2c -> res4b5_branch2c (in-place)
I0727 13:26:48.004540  9114 net.cpp:122] Setting up bn4b5_branch2c
I0727 13:26:48.004557  9114 net.cpp:129] Top shape: 1 1024 45 80 (3686400)
I0727 13:26:48.004562  9114 net.cpp:137] Memory required for data: 3999744084
I0727 13:26:48.004575  9114 layer_factory.hpp:77] Creating layer scale4b5_branch2c
I0727 13:26:48.004595  9114 net.cpp:84] Creating Layer scale4b5_branch2c
I0727 13:26:48.004601  9114 net.cpp:406] scale4b5_branch2c <- res4b5_branch2c
I0727 13:26:48.004611  9114 net.cpp:367] scale4b5_branch2c -> res4b5_branch2c (in-place)
I0727 13:26:48.004730  9114 layer_factory.hpp:77] Creating layer scale4b5_branch2c
I0727 13:26:48.005146  9114 net.cpp:122] Setting up scale4b5_branch2c
I0727 13:26:48.005162  9114 net.cpp:129] Top shape: 1 1024 45 80 (3686400)
I0727 13:26:48.005167  9114 net.cpp:137] Memory required for data: 4014489684
I0727 13:26:48.005214  9114 layer_factory.hpp:77] Creating layer res4b5
I0727 13:26:48.005226  9114 net.cpp:84] Creating Layer res4b5
I0727 13:26:48.005234  9114 net.cpp:406] res4b5 <- res4b4_res4b4_relu_0_split_1
I0727 13:26:48.005241  9114 net.cpp:406] res4b5 <- res4b5_branch2c
I0727 13:26:48.005250  9114 net.cpp:380] res4b5 -> res4b5
I0727 13:26:48.005334  9114 net.cpp:122] Setting up res4b5
I0727 13:26:48.005347  9114 net.cpp:129] Top shape: 1 1024 45 80 (3686400)
I0727 13:26:48.005352  9114 net.cpp:137] Memory required for data: 4029235284
I0727 13:26:48.005357  9114 layer_factory.hpp:77] Creating layer res4b5_relu
I0727 13:26:48.005367  9114 net.cpp:84] Creating Layer res4b5_relu
I0727 13:26:48.005373  9114 net.cpp:406] res4b5_relu <- res4b5
I0727 13:26:48.005381  9114 net.cpp:367] res4b5_relu -> res4b5 (in-place)
I0727 13:26:48.005709  9114 net.cpp:122] Setting up res4b5_relu
I0727 13:26:48.005726  9114 net.cpp:129] Top shape: 1 1024 45 80 (3686400)
I0727 13:26:48.005731  9114 net.cpp:137] Memory required for data: 4043980884
I0727 13:26:48.005736  9114 layer_factory.hpp:77] Creating layer res4b5_res4b5_relu_0_split
I0727 13:26:48.005745  9114 net.cpp:84] Creating Layer res4b5_res4b5_relu_0_split
I0727 13:26:48.005750  9114 net.cpp:406] res4b5_res4b5_relu_0_split <- res4b5
I0727 13:26:48.005760  9114 net.cpp:380] res4b5_res4b5_relu_0_split -> res4b5_res4b5_relu_0_split_0
I0727 13:26:48.005770  9114 net.cpp:380] res4b5_res4b5_relu_0_split -> res4b5_res4b5_relu_0_split_1
I0727 13:26:48.005904  9114 net.cpp:122] Setting up res4b5_res4b5_relu_0_split
I0727 13:26:48.005918  9114 net.cpp:129] Top shape: 1 1024 45 80 (3686400)
I0727 13:26:48.005924  9114 net.cpp:129] Top shape: 1 1024 45 80 (3686400)
I0727 13:26:48.005928  9114 net.cpp:137] Memory required for data: 4073472084
I0727 13:26:48.005934  9114 layer_factory.hpp:77] Creating layer res4b6_branch2a
I0727 13:26:48.005949  9114 net.cpp:84] Creating Layer res4b6_branch2a
I0727 13:26:48.005956  9114 net.cpp:406] res4b6_branch2a <- res4b5_res4b5_relu_0_split_0
I0727 13:26:48.005965  9114 net.cpp:380] res4b6_branch2a -> res4b6_branch2a
I0727 13:26:48.010188  9114 net.cpp:122] Setting up res4b6_branch2a
I0727 13:26:48.010213  9114 net.cpp:129] Top shape: 1 256 45 80 (921600)
I0727 13:26:48.010220  9114 net.cpp:137] Memory required for data: 4077158484
I0727 13:26:48.010228  9114 layer_factory.hpp:77] Creating layer bn4b6_branch2a
I0727 13:26:48.010239  9114 net.cpp:84] Creating Layer bn4b6_branch2a
I0727 13:26:48.010246  9114 net.cpp:406] bn4b6_branch2a <- res4b6_branch2a
I0727 13:26:48.010257  9114 net.cpp:367] bn4b6_branch2a -> res4b6_branch2a (in-place)
I0727 13:26:48.010942  9114 net.cpp:122] Setting up bn4b6_branch2a
I0727 13:26:48.010957  9114 net.cpp:129] Top shape: 1 256 45 80 (921600)
I0727 13:26:48.010962  9114 net.cpp:137] Memory required for data: 4080844884
I0727 13:26:48.010973  9114 layer_factory.hpp:77] Creating layer scale4b6_branch2a
I0727 13:26:48.010984  9114 net.cpp:84] Creating Layer scale4b6_branch2a
I0727 13:26:48.010990  9114 net.cpp:406] scale4b6_branch2a <- res4b6_branch2a
I0727 13:26:48.010998  9114 net.cpp:367] scale4b6_branch2a -> res4b6_branch2a (in-place)
I0727 13:26:48.011126  9114 layer_factory.hpp:77] Creating layer scale4b6_branch2a
I0727 13:26:48.011525  9114 net.cpp:122] Setting up scale4b6_branch2a
I0727 13:26:48.011540  9114 net.cpp:129] Top shape: 1 256 45 80 (921600)
I0727 13:26:48.011545  9114 net.cpp:137] Memory required for data: 4084531284
I0727 13:26:48.011554  9114 layer_factory.hpp:77] Creating layer res4b6_branch2a_relu
I0727 13:26:48.011562  9114 net.cpp:84] Creating Layer res4b6_branch2a_relu
I0727 13:26:48.011567  9114 net.cpp:406] res4b6_branch2a_relu <- res4b6_branch2a
I0727 13:26:48.011574  9114 net.cpp:367] res4b6_branch2a_relu -> res4b6_branch2a (in-place)
I0727 13:26:48.012715  9114 net.cpp:122] Setting up res4b6_branch2a_relu
I0727 13:26:48.012739  9114 net.cpp:129] Top shape: 1 256 45 80 (921600)
I0727 13:26:48.012745  9114 net.cpp:137] Memory required for data: 4088217684
I0727 13:26:48.012750  9114 layer_factory.hpp:77] Creating layer res4b6_branch2b
I0727 13:26:48.012766  9114 net.cpp:84] Creating Layer res4b6_branch2b
I0727 13:26:48.012773  9114 net.cpp:406] res4b6_branch2b <- res4b6_branch2a
I0727 13:26:48.012781  9114 net.cpp:380] res4b6_branch2b -> res4b6_branch2b
I0727 13:26:48.017791  9114 net.cpp:122] Setting up res4b6_branch2b
I0727 13:26:48.017815  9114 net.cpp:129] Top shape: 1 256 45 80 (921600)
I0727 13:26:48.017822  9114 net.cpp:137] Memory required for data: 4091904084
I0727 13:26:48.017830  9114 layer_factory.hpp:77] Creating layer bn4b6_branch2b
I0727 13:26:48.017843  9114 net.cpp:84] Creating Layer bn4b6_branch2b
I0727 13:26:48.017849  9114 net.cpp:406] bn4b6_branch2b <- res4b6_branch2b
I0727 13:26:48.017858  9114 net.cpp:367] bn4b6_branch2b -> res4b6_branch2b (in-place)
I0727 13:26:48.018563  9114 net.cpp:122] Setting up bn4b6_branch2b
I0727 13:26:48.018577  9114 net.cpp:129] Top shape: 1 256 45 80 (921600)
I0727 13:26:48.018582  9114 net.cpp:137] Memory required for data: 4095590484
I0727 13:26:48.018594  9114 layer_factory.hpp:77] Creating layer scale4b6_branch2b
I0727 13:26:48.018604  9114 net.cpp:84] Creating Layer scale4b6_branch2b
I0727 13:26:48.018610  9114 net.cpp:406] scale4b6_branch2b <- res4b6_branch2b
I0727 13:26:48.018618  9114 net.cpp:367] scale4b6_branch2b -> res4b6_branch2b (in-place)
I0727 13:26:48.018743  9114 layer_factory.hpp:77] Creating layer scale4b6_branch2b
I0727 13:26:48.019146  9114 net.cpp:122] Setting up scale4b6_branch2b
I0727 13:26:48.019160  9114 net.cpp:129] Top shape: 1 256 45 80 (921600)
I0727 13:26:48.019165  9114 net.cpp:137] Memory required for data: 4099276884
I0727 13:26:48.019173  9114 layer_factory.hpp:77] Creating layer res4b6_branch2b_relu
I0727 13:26:48.019181  9114 net.cpp:84] Creating Layer res4b6_branch2b_relu
I0727 13:26:48.019186  9114 net.cpp:406] res4b6_branch2b_relu <- res4b6_branch2b
I0727 13:26:48.019196  9114 net.cpp:367] res4b6_branch2b_relu -> res4b6_branch2b (in-place)
I0727 13:26:48.020256  9114 net.cpp:122] Setting up res4b6_branch2b_relu
I0727 13:26:48.020277  9114 net.cpp:129] Top shape: 1 256 45 80 (921600)
I0727 13:26:48.020282  9114 net.cpp:137] Memory required for data: 4102963284
I0727 13:26:48.020287  9114 layer_factory.hpp:77] Creating layer res4b6_branch2c
I0727 13:26:48.020303  9114 net.cpp:84] Creating Layer res4b6_branch2c
I0727 13:26:48.020309  9114 net.cpp:406] res4b6_branch2c <- res4b6_branch2b
I0727 13:26:48.020318  9114 net.cpp:380] res4b6_branch2c -> res4b6_branch2c
I0727 13:26:48.024410  9114 net.cpp:122] Setting up res4b6_branch2c
I0727 13:26:48.024442  9114 net.cpp:129] Top shape: 1 1024 45 80 (3686400)
I0727 13:26:48.024449  9114 net.cpp:137] Memory required for data: 4117708884
I0727 13:26:48.024457  9114 layer_factory.hpp:77] Creating layer bn4b6_branch2c
I0727 13:26:48.024471  9114 net.cpp:84] Creating Layer bn4b6_branch2c
I0727 13:26:48.024477  9114 net.cpp:406] bn4b6_branch2c <- res4b6_branch2c
I0727 13:26:48.024484  9114 net.cpp:367] bn4b6_branch2c -> res4b6_branch2c (in-place)
…
I0727 13:26:48.300112  9114 net.cpp:129] Top shape: 1 1024 45 80 (3686400)
I0727 13:26:48.300117  9114 net.cpp:137] Memory required for data: 6108364884
I0727 13:26:48.300124  9114 layer_factory.hpp:77] Creating layer bn4b21_branch2c
I0727 13:26:48.300135  9114 net.cpp:84] Creating Layer bn4b21_branch2c
I0727 13:26:48.300142  9114 net.cpp:406] bn4b21_branch2c <- res4b21_branch2c
I0727 13:26:48.300150  9114 net.cpp:367] bn4b21_branch2c -> res4b21_branch2c (in-place)
I0727 13:26:48.300748  9114 net.cpp:122] Setting up bn4b21_branch2c
I0727 13:26:48.300763  9114 net.cpp:129] Top shape: 1 1024 45 80 (3686400)
I0727 13:26:48.300767  9114 net.cpp:137] Memory required for data: 6123110484
I0727 13:26:48.300777  9114 layer_factory.hpp:77] Creating layer scale4b21_branch2c
I0727 13:26:48.300786  9114 net.cpp:84] Creating Layer scale4b21_branch2c
I0727 13:26:48.300791  9114 net.cpp:406] scale4b21_branch2c <- res4b21_branch2c
I0727 13:26:48.300798  9114 net.cpp:367] scale4b21_branch2c -> res4b21_branch2c (in-place)
I0727 13:26:48.300917  9114 layer_factory.hpp:77] Creating layer scale4b21_branch2c
I0727 13:26:48.301277  9114 net.cpp:122] Setting up scale4b21_branch2c
I0727 13:26:48.301290  9114 net.cpp:129] Top shape: 1 1024 45 80 (3686400)
I0727 13:26:48.301295  9114 net.cpp:137] Memory required for data: 6137856084
I0727 13:26:48.301301  9114 layer_factory.hpp:77] Creating layer res4b21
I0727 13:26:48.301308  9114 net.cpp:84] Creating Layer res4b21
I0727 13:26:48.301314  9114 net.cpp:406] res4b21 <- res4b20_res4b20_relu_0_split_1
I0727 13:26:48.301321  9114 net.cpp:406] res4b21 <- res4b21_branch2c
I0727 13:26:48.301328  9114 net.cpp:380] res4b21 -> res4b21
I0727 13:26:48.301390  9114 net.cpp:122] Setting up res4b21
I0727 13:26:48.301403  9114 net.cpp:129] Top shape: 1 1024 45 80 (3686400)
I0727 13:26:48.301406  9114 net.cpp:137] Memory required for data: 6152601684
I0727 13:26:48.301410  9114 layer_factory.hpp:77] Creating layer res4b21_relu
I0727 13:26:48.301417  9114 net.cpp:84] Creating Layer res4b21_relu
I0727 13:26:48.301425  9114 net.cpp:406] res4b21_relu <- res4b21
I0727 13:26:48.301431  9114 net.cpp:367] res4b21_relu -> res4b21 (in-place)
I0727 13:26:48.301753  9114 net.cpp:122] Setting up res4b21_relu
I0727 13:26:48.301766  9114 net.cpp:129] Top shape: 1 1024 45 80 (3686400)
I0727 13:26:48.301771  9114 net.cpp:137] Memory required for data: 6167347284
I0727 13:26:48.301775  9114 layer_factory.hpp:77] Creating layer res4b21_res4b21_relu_0_split
I0727 13:26:48.301782  9114 net.cpp:84] Creating Layer res4b21_res4b21_relu_0_split
I0727 13:26:48.301787  9114 net.cpp:406] res4b21_res4b21_relu_0_split <- res4b21
I0727 13:26:48.301795  9114 net.cpp:380] res4b21_res4b21_relu_0_split -> res4b21_res4b21_relu_0_split_0
I0727 13:26:48.301805  9114 net.cpp:380] res4b21_res4b21_relu_0_split -> res4b21_res4b21_relu_0_split_1
I0727 13:26:48.301914  9114 net.cpp:122] Setting up res4b21_res4b21_relu_0_split
I0727 13:26:48.301929  9114 net.cpp:129] Top shape: 1 1024 45 80 (3686400)
I0727 13:26:48.301934  9114 net.cpp:129] Top shape: 1 1024 45 80 (3686400)
I0727 13:26:48.301939  9114 net.cpp:137] Memory required for data: 6196838484
I0727 13:26:48.301944  9114 layer_factory.hpp:77] Creating layer res4b22_branch2a
I0727 13:26:48.301954  9114 net.cpp:84] Creating Layer res4b22_branch2a
I0727 13:26:48.301959  9114 net.cpp:406] res4b22_branch2a <- res4b21_res4b21_relu_0_split_0
I0727 13:26:48.301967  9114 net.cpp:380] res4b22_branch2a -> res4b22_branch2a
I0727 13:26:48.305783  9114 net.cpp:122] Setting up res4b22_branch2a
I0727 13:26:48.305804  9114 net.cpp:129] Top shape: 1 256 45 80 (921600)
I0727 13:26:48.305809  9114 net.cpp:137] Memory required for data: 6200524884
I0727 13:26:48.305817  9114 layer_factory.hpp:77] Creating layer bn4b22_branch2a
I0727 13:26:48.305827  9114 net.cpp:84] Creating Layer bn4b22_branch2a
I0727 13:26:48.305835  9114 net.cpp:406] bn4b22_branch2a <- res4b22_branch2a
I0727 13:26:48.305842  9114 net.cpp:367] bn4b22_branch2a -> res4b22_branch2a (in-place)
I0727 13:26:48.306390  9114 net.cpp:122] Setting up bn4b22_branch2a
I0727 13:26:48.306403  9114 net.cpp:129] Top shape: 1 256 45 80 (921600)
I0727 13:26:48.306407  9114 net.cpp:137] Memory required for data: 6204211284
I0727 13:26:48.306416  9114 layer_factory.hpp:77] Creating layer scale4b22_branch2a
I0727 13:26:48.306427  9114 net.cpp:84] Creating Layer scale4b22_branch2a
I0727 13:26:48.306432  9114 net.cpp:406] scale4b22_branch2a <- res4b22_branch2a
I0727 13:26:48.306438  9114 net.cpp:367] scale4b22_branch2a -> res4b22_branch2a (in-place)
I0727 13:26:48.306540  9114 layer_factory.hpp:77] Creating layer scale4b22_branch2a
I0727 13:26:48.306859  9114 net.cpp:122] Setting up scale4b22_branch2a
I0727 13:26:48.306870  9114 net.cpp:129] Top shape: 1 256 45 80 (921600)
I0727 13:26:48.306874  9114 net.cpp:137] Memory required for data: 6207897684
I0727 13:26:48.306882  9114 layer_factory.hpp:77] Creating layer res4b22_branch2a_relu
I0727 13:26:48.306890  9114 net.cpp:84] Creating Layer res4b22_branch2a_relu
I0727 13:26:48.306895  9114 net.cpp:406] res4b22_branch2a_relu <- res4b22_branch2a
I0727 13:26:48.306902  9114 net.cpp:367] res4b22_branch2a_relu -> res4b22_branch2a (in-place)
I0727 13:26:48.307921  9114 net.cpp:122] Setting up res4b22_branch2a_relu
I0727 13:26:48.307942  9114 net.cpp:129] Top shape: 1 256 45 80 (921600)
I0727 13:26:48.307947  9114 net.cpp:137] Memory required for data: 6211584084
I0727 13:26:48.307951  9114 layer_factory.hpp:77] Creating layer res4b22_branch2b
I0727 13:26:48.307962  9114 net.cpp:84] Creating Layer res4b22_branch2b
I0727 13:26:48.307970  9114 net.cpp:406] res4b22_branch2b <- res4b22_branch2a
I0727 13:26:48.307978  9114 net.cpp:380] res4b22_branch2b -> res4b22_branch2b
I0727 13:26:48.312463  9114 net.cpp:122] Setting up res4b22_branch2b
I0727 13:26:48.312484  9114 net.cpp:129] Top shape: 1 256 45 80 (921600)
I0727 13:26:48.312489  9114 net.cpp:137] Memory required for data: 6215270484
I0727 13:26:48.312499  9114 layer_factory.hpp:77] Creating layer bn4b22_branch2b
I0727 13:26:48.312510  9114 net.cpp:84] Creating Layer bn4b22_branch2b
I0727 13:26:48.312515  9114 net.cpp:406] bn4b22_branch2b <- res4b22_branch2b
I0727 13:26:48.312522  9114 net.cpp:367] bn4b22_branch2b -> res4b22_branch2b (in-place)
I0727 13:26:48.313082  9114 net.cpp:122] Setting up bn4b22_branch2b
I0727 13:26:48.313096  9114 net.cpp:129] Top shape: 1 256 45 80 (921600)
I0727 13:26:48.313100  9114 net.cpp:137] Memory required for data: 6218956884
I0727 13:26:48.313109  9114 layer_factory.hpp:77] Creating layer scale4b22_branch2b
I0727 13:26:48.313119  9114 net.cpp:84] Creating Layer scale4b22_branch2b
I0727 13:26:48.313125  9114 net.cpp:406] scale4b22_branch2b <- res4b22_branch2b
I0727 13:26:48.313133  9114 net.cpp:367] scale4b22_branch2b -> res4b22_branch2b (in-place)
I0727 13:26:48.313235  9114 layer_factory.hpp:77] Creating layer scale4b22_branch2b
I0727 13:26:48.313555  9114 net.cpp:122] Setting up scale4b22_branch2b
I0727 13:26:48.313567  9114 net.cpp:129] Top shape: 1 256 45 80 (921600)
I0727 13:26:48.313571  9114 net.cpp:137] Memory required for data: 6222643284
I0727 13:26:48.313580  9114 layer_factory.hpp:77] Creating layer res4b22_branch2b_relu
I0727 13:26:48.313586  9114 net.cpp:84] Creating Layer res4b22_branch2b_relu
I0727 13:26:48.313591  9114 net.cpp:406] res4b22_branch2b_relu <- res4b22_branch2b
I0727 13:26:48.313601  9114 net.cpp:367] res4b22_branch2b_relu -> res4b22_branch2b (in-place)
I0727 13:26:48.314620  9114 net.cpp:122] Setting up res4b22_branch2b_relu
I0727 13:26:48.314640  9114 net.cpp:129] Top shape: 1 256 45 80 (921600)
I0727 13:26:48.314646  9114 net.cpp:137] Memory required for data: 6226329684
I0727 13:26:48.314651  9114 layer_factory.hpp:77] Creating layer res4b22_branch2c
I0727 13:26:48.314661  9114 net.cpp:84] Creating Layer res4b22_branch2c
I0727 13:26:48.314667  9114 net.cpp:406] res4b22_branch2c <- res4b22_branch2b
I0727 13:26:48.314677  9114 net.cpp:380] res4b22_branch2c -> res4b22_branch2c
I0727 13:26:48.318521  9114 net.cpp:122] Setting up res4b22_branch2c
I0727 13:26:48.318543  9114 net.cpp:129] Top shape: 1 1024 45 80 (3686400)
I0727 13:26:48.318548  9114 net.cpp:137] Memory required for data: 6241075284
I0727 13:26:48.318557  9114 layer_factory.hpp:77] Creating layer bn4b22_branch2c
I0727 13:26:48.318567  9114 net.cpp:84] Creating Layer bn4b22_branch2c
I0727 13:26:48.318573  9114 net.cpp:406] bn4b22_branch2c <- res4b22_branch2c
I0727 13:26:48.318580  9114 net.cpp:367] bn4b22_branch2c -> res4b22_branch2c (in-place)
I0727 13:26:48.319190  9114 net.cpp:122] Setting up bn4b22_branch2c
I0727 13:26:48.319203  9114 net.cpp:129] Top shape: 1 1024 45 80 (3686400)
I0727 13:26:48.319207  9114 net.cpp:137] Memory required for data: 6255820884
I0727 13:26:48.319217  9114 layer_factory.hpp:77] Creating layer scale4b22_branch2c
I0727 13:26:48.319227  9114 net.cpp:84] Creating Layer scale4b22_branch2c
I0727 13:26:48.319232  9114 net.cpp:406] scale4b22_branch2c <- res4b22_branch2c
I0727 13:26:48.319239  9114 net.cpp:367] scale4b22_branch2c -> res4b22_branch2c (in-place)
I0727 13:26:48.319358  9114 layer_factory.hpp:77] Creating layer scale4b22_branch2c
I0727 13:26:48.320379  9114 net.cpp:122] Setting up scale4b22_branch2c
I0727 13:26:48.320397  9114 net.cpp:129] Top shape: 1 1024 45 80 (3686400)
I0727 13:26:48.320402  9114 net.cpp:137] Memory required for data: 6270566484
I0727 13:26:48.320411  9114 layer_factory.hpp:77] Creating layer res4b22
I0727 13:26:48.320420  9114 net.cpp:84] Creating Layer res4b22
I0727 13:26:48.320425  9114 net.cpp:406] res4b22 <- res4b21_res4b21_relu_0_split_1
I0727 13:26:48.320432  9114 net.cpp:406] res4b22 <- res4b22_branch2c
I0727 13:26:48.320452  9114 net.cpp:380] res4b22 -> res4b22
I0727 13:26:48.320524  9114 net.cpp:122] Setting up res4b22
I0727 13:26:48.320538  9114 net.cpp:129] Top shape: 1 1024 45 80 (3686400)
I0727 13:26:48.320541  9114 net.cpp:137] Memory required for data: 6285312084
I0727 13:26:48.320546  9114 layer_factory.hpp:77] Creating layer res4b22_relu
I0727 13:26:48.320554  9114 net.cpp:84] Creating Layer res4b22_relu
I0727 13:26:48.320561  9114 net.cpp:406] res4b22_relu <- res4b22
I0727 13:26:48.320569  9114 net.cpp:367] res4b22_relu -> res4b22 (in-place)
I0727 13:26:48.320901  9114 net.cpp:122] Setting up res4b22_relu
I0727 13:26:48.320917  9114 net.cpp:129] Top shape: 1 1024 45 80 (3686400)
I0727 13:26:48.320921  9114 net.cpp:137] Memory required for data: 6300057684
I0727 13:26:48.320926  9114 layer_factory.hpp:77] Creating layer res4b22_res4b22_relu_0_split
I0727 13:26:48.320933  9114 net.cpp:84] Creating Layer res4b22_res4b22_relu_0_split
I0727 13:26:48.320938  9114 net.cpp:406] res4b22_res4b22_relu_0_split <- res4b22
I0727 13:26:48.320946  9114 net.cpp:380] res4b22_res4b22_relu_0_split -> res4b22_res4b22_relu_0_split_0
I0727 13:26:48.320955  9114 net.cpp:380] res4b22_res4b22_relu_0_split -> res4b22_res4b22_relu_0_split_1
I0727 13:26:48.321069  9114 net.cpp:122] Setting up res4b22_res4b22_relu_0_split
I0727 13:26:48.321081  9114 net.cpp:129] Top shape: 1 1024 45 80 (3686400)
I0727 13:26:48.321086  9114 net.cpp:129] Top shape: 1 1024 45 80 (3686400)
I0727 13:26:48.321090  9114 net.cpp:137] Memory required for data: 6329548884
I0727 13:26:48.321095  9114 layer_factory.hpp:77] Creating layer rpn_conv/3x3
I0727 13:26:48.321108  9114 net.cpp:84] Creating Layer rpn_conv/3x3
I0727 13:26:48.321116  9114 net.cpp:406] rpn_conv/3x3 <- res4b22_res4b22_relu_0_split_0
I0727 13:26:48.321127  9114 net.cpp:380] rpn_conv/3x3 -> rpn/output
I0727 13:26:48.411682  9114 net.cpp:122] Setting up rpn_conv/3x3
I0727 13:26:48.411705  9114 net.cpp:129] Top shape: 1 256 45 80 (921600)
I0727 13:26:48.411710  9114 net.cpp:137] Memory required for data: 6333235284
I0727 13:26:48.411720  9114 layer_factory.hpp:77] Creating layer rpn_relu/3x3
I0727 13:26:48.411731  9114 net.cpp:84] Creating Layer rpn_relu/3x3
I0727 13:26:48.411736  9114 net.cpp:406] rpn_relu/3x3 <- rpn/output
I0727 13:26:48.411743  9114 net.cpp:367] rpn_relu/3x3 -> rpn/output (in-place)
I0727 13:26:48.412778  9114 net.cpp:122] Setting up rpn_relu/3x3
I0727 13:26:48.412799  9114 net.cpp:129] Top shape: 1 256 45 80 (921600)
I0727 13:26:48.412804  9114 net.cpp:137] Memory required for data: 6336921684
I0727 13:26:48.412809  9114 layer_factory.hpp:77] Creating layer rpn/output_rpn_relu/3x3_0_split
I0727 13:26:48.412817  9114 net.cpp:84] Creating Layer rpn/output_rpn_relu/3x3_0_split
I0727 13:26:48.412822  9114 net.cpp:406] rpn/output_rpn_relu/3x3_0_split <- rpn/output
I0727 13:26:48.412832  9114 net.cpp:380] rpn/output_rpn_relu/3x3_0_split -> rpn/output_rpn_relu/3x3_0_split_0
I0727 13:26:48.412840  9114 net.cpp:380] rpn/output_rpn_relu/3x3_0_split -> rpn/output_rpn_relu/3x3_0_split_1
I0727 13:26:48.412962  9114 net.cpp:122] Setting up rpn/output_rpn_relu/3x3_0_split
I0727 13:26:48.412974  9114 net.cpp:129] Top shape: 1 256 45 80 (921600)
I0727 13:26:48.412981  9114 net.cpp:129] Top shape: 1 256 45 80 (921600)
I0727 13:26:48.412984  9114 net.cpp:137] Memory required for data: 6344294484
I0727 13:26:48.412988  9114 layer_factory.hpp:77] Creating layer rpn_cls_score
I0727 13:26:48.413003  9114 net.cpp:84] Creating Layer rpn_cls_score
I0727 13:26:48.413012  9114 net.cpp:406] rpn_cls_score <- rpn/output_rpn_relu/3x3_0_split_0
I0727 13:26:48.413020  9114 net.cpp:380] rpn_cls_score -> rpn_cls_score
I0727 13:26:48.416306  9114 net.cpp:122] Setting up rpn_cls_score
I0727 13:26:48.416327  9114 net.cpp:129] Top shape: 1 18 45 80 (64800)
I0727 13:26:48.416332  9114 net.cpp:137] Memory required for data: 6344553684
I0727 13:26:48.416342  9114 layer_factory.hpp:77] Creating layer rpn_cls_score_rpn_cls_score_0_split
I0727 13:26:48.416349  9114 net.cpp:84] Creating Layer rpn_cls_score_rpn_cls_score_0_split
I0727 13:26:48.416355  9114 net.cpp:406] rpn_cls_score_rpn_cls_score_0_split <- rpn_cls_score
I0727 13:26:48.416364  9114 net.cpp:380] rpn_cls_score_rpn_cls_score_0_split -> rpn_cls_score_rpn_cls_score_0_split_0
I0727 13:26:48.416374  9114 net.cpp:380] rpn_cls_score_rpn_cls_score_0_split -> rpn_cls_score_rpn_cls_score_0_split_1
I0727 13:26:48.416505  9114 net.cpp:122] Setting up rpn_cls_score_rpn_cls_score_0_split
I0727 13:26:48.416519  9114 net.cpp:129] Top shape: 1 18 45 80 (64800)
I0727 13:26:48.416525  9114 net.cpp:129] Top shape: 1 18 45 80 (64800)
I0727 13:26:48.416530  9114 net.cpp:137] Memory required for data: 6345072084
I0727 13:26:48.416534  9114 layer_factory.hpp:77] Creating layer rpn_bbox_pred
I0727 13:26:48.416548  9114 net.cpp:84] Creating Layer rpn_bbox_pred
I0727 13:26:48.416554  9114 net.cpp:406] rpn_bbox_pred <- rpn/output_rpn_relu/3x3_0_split_1
I0727 13:26:48.416563  9114 net.cpp:380] rpn_bbox_pred -> rpn_bbox_pred
I0727 13:26:48.420042  9114 net.cpp:122] Setting up rpn_bbox_pred
I0727 13:26:48.420063  9114 net.cpp:129] Top shape: 1 36 45 80 (129600)
I0727 13:26:48.420068  9114 net.cpp:137] Memory required for data: 6345590484
I0727 13:26:48.420076  9114 layer_factory.hpp:77] Creating layer rpn_bbox_pred_rpn_bbox_pred_0_split
I0727 13:26:48.420084  9114 net.cpp:84] Creating Layer rpn_bbox_pred_rpn_bbox_pred_0_split
I0727 13:26:48.420090  9114 net.cpp:406] rpn_bbox_pred_rpn_bbox_pred_0_split <- rpn_bbox_pred
I0727 13:26:48.420099  9114 net.cpp:380] rpn_bbox_pred_rpn_bbox_pred_0_split -> rpn_bbox_pred_rpn_bbox_pred_0_split_0
I0727 13:26:48.420109  9114 net.cpp:380] rpn_bbox_pred_rpn_bbox_pred_0_split -> rpn_bbox_pred_rpn_bbox_pred_0_split_1
I0727 13:26:48.420223  9114 net.cpp:122] Setting up rpn_bbox_pred_rpn_bbox_pred_0_split
I0727 13:26:48.420235  9114 net.cpp:129] Top shape: 1 36 45 80 (129600)
I0727 13:26:48.420241  9114 net.cpp:129] Top shape: 1 36 45 80 (129600)
I0727 13:26:48.420245  9114 net.cpp:137] Memory required for data: 6346627284
I0727 13:26:48.420249  9114 layer_factory.hpp:77] Creating layer rpn_cls_score_reshape
I0727 13:26:48.420258  9114 net.cpp:84] Creating Layer rpn_cls_score_reshape
I0727 13:26:48.420264  9114 net.cpp:406] rpn_cls_score_reshape <- rpn_cls_score_rpn_cls_score_0_split_0
I0727 13:26:48.420271  9114 net.cpp:380] rpn_cls_score_reshape -> rpn_cls_score_reshape
I0727 13:26:48.420341  9114 net.cpp:122] Setting up rpn_cls_score_reshape
I0727 13:26:48.420352  9114 net.cpp:129] Top shape: 1 2 405 80 (64800)
I0727 13:26:48.420356  9114 net.cpp:137] Memory required for data: 6346886484
I0727 13:26:48.420361  9114 layer_factory.hpp:77] Creating layer rpn_cls_score_reshape_rpn_cls_score_reshape_0_split
I0727 13:26:48.420368  9114 net.cpp:84] Creating Layer rpn_cls_score_reshape_rpn_cls_score_reshape_0_split
I0727 13:26:48.420373  9114 net.cpp:406] rpn_cls_score_reshape_rpn_cls_score_reshape_0_split <- rpn_cls_score_reshape
I0727 13:26:48.420380  9114 net.cpp:380] rpn_cls_score_reshape_rpn_cls_score_reshape_0_split -> rpn_cls_score_reshape_rpn_cls_score_reshape_0_split_0
I0727 13:26:48.420392  9114 net.cpp:380] rpn_cls_score_reshape_rpn_cls_score_reshape_0_split -> rpn_cls_score_reshape_rpn_cls_score_reshape_0_split_1
I0727 13:26:48.420506  9114 net.cpp:122] Setting up rpn_cls_score_reshape_rpn_cls_score_reshape_0_split
I0727 13:26:48.420519  9114 net.cpp:129] Top shape: 1 2 405 80 (64800)
I0727 13:26:48.420526  9114 net.cpp:129] Top shape: 1 2 405 80 (64800)
I0727 13:26:48.420529  9114 net.cpp:137] Memory required for data: 6347404884
I0727 13:26:48.420533  9114 layer_factory.hpp:77] Creating layer rpn-data
I0727 13:26:48.422621  9114 net.cpp:84] Creating Layer rpn-data
I0727 13:26:48.422639  9114 net.cpp:406] rpn-data <- rpn_cls_score_rpn_cls_score_0_split_1
I0727 13:26:48.422646  9114 net.cpp:406] rpn-data <- gt_boxes_input-data_2_split_0
I0727 13:26:48.422650  9114 net.cpp:406] rpn-data <- im_info_input-data_1_split_0
I0727 13:26:48.422655  9114 net.cpp:406] rpn-data <- data_input-data_0_split_1
I0727 13:26:48.422660  9114 net.cpp:380] rpn-data -> rpn_labels
I0727 13:26:48.422667  9114 net.cpp:380] rpn-data -> rpn_bbox_targets
I0727 13:26:48.422674  9114 net.cpp:380] rpn-data -> rpn_bbox_inside_weights
I0727 13:26:48.422680  9114 net.cpp:380] rpn-data -> rpn_bbox_outside_weights
I0727 13:26:48.423548  9114 net.cpp:122] Setting up rpn-data
I0727 13:26:48.423568  9114 net.cpp:129] Top shape: 1 1 405 80 (32400)
I0727 13:26:48.423571  9114 net.cpp:129] Top shape: 1 36 45 80 (129600)
I0727 13:26:48.423575  9114 net.cpp:129] Top shape: 1 36 45 80 (129600)
I0727 13:26:48.423578  9114 net.cpp:129] Top shape: 1 36 45 80 (129600)
I0727 13:26:48.423581  9114 net.cpp:137] Memory required for data: 6349089684
I0727 13:26:48.423585  9114 layer_factory.hpp:77] Creating layer rpn_loss_cls
I0727 13:26:48.423593  9114 net.cpp:84] Creating Layer rpn_loss_cls
I0727 13:26:48.423598  9114 net.cpp:406] rpn_loss_cls <- rpn_cls_score_reshape_rpn_cls_score_reshape_0_split_0
I0727 13:26:48.423604  9114 net.cpp:406] rpn_loss_cls <- rpn_labels
…
I0727 13:26:48.429778  9114 net.cpp:129] Top shape: (1)
I0727 13:26:48.429786  9114 net.cpp:132]     with loss weight 1
I0727 13:26:48.429800  9114 net.cpp:137] Memory required for data: 6349089692
I0727 13:26:48.429807  9114 layer_factory.hpp:77] Creating layer rpn_cls_prob
I0727 13:26:48.429823  9114 net.cpp:84] Creating Layer rpn_cls_prob
I0727 13:26:48.429836  9114 net.cpp:406] rpn_cls_prob <- rpn_cls_score_reshape_rpn_cls_score_reshape_0_split_1
I0727 13:26:48.429850  9114 net.cpp:380] rpn_cls_prob -> rpn_cls_prob
I0727 13:26:48.430678  9114 net.cpp:122] Setting up rpn_cls_prob
I0727 13:26:48.430706  9114 net.cpp:129] Top shape: 1 2 405 80 (64800)
I0727 13:26:48.430713  9114 net.cpp:137] Memory required for data: 6349348892
I0727 13:26:48.430721  9114 layer_factory.hpp:77] Creating layer rpn_cls_prob_reshape
I0727 13:26:48.430737  9114 net.cpp:84] Creating Layer rpn_cls_prob_reshape
I0727 13:26:48.430747  9114 net.cpp:406] rpn_cls_prob_reshape <- rpn_cls_prob
I0727 13:26:48.430760  9114 net.cpp:380] rpn_cls_prob_reshape -> rpn_cls_prob_reshape
I0727 13:26:48.430872  9114 net.cpp:122] Setting up rpn_cls_prob_reshape
I0727 13:26:48.430889  9114 net.cpp:129] Top shape: 1 18 45 80 (64800)
I0727 13:26:48.430899  9114 net.cpp:137] Memory required for data: 6349608092
I0727 13:26:48.430907  9114 layer_factory.hpp:77] Creating layer proposal
I0727 13:26:48.431200  9114 net.cpp:84] Creating Layer proposal
I0727 13:26:48.431224  9114 net.cpp:406] proposal <- rpn_cls_prob_reshape
I0727 13:26:48.431237  9114 net.cpp:406] proposal <- rpn_bbox_pred_rpn_bbox_pred_0_split_1
I0727 13:26:48.431247  9114 net.cpp:406] proposal <- im_info_input-data_1_split_1
I0727 13:26:48.431259  9114 net.cpp:380] proposal -> rpn_rois
I0727 13:26:48.432426  9114 net.cpp:122] Setting up proposal
I0727 13:26:48.432473  9114 net.cpp:129] Top shape: 1 5 (5)
I0727 13:26:48.432482  9114 net.cpp:137] Memory required for data: 6349608112
I0727 13:26:48.432490  9114 layer_factory.hpp:77] Creating layer roi-data
I0727 13:26:48.432937  9114 net.cpp:84] Creating Layer roi-data
I0727 13:26:48.432965  9114 net.cpp:406] roi-data <- rpn_rois
I0727 13:26:48.432978  9114 net.cpp:406] roi-data <- gt_boxes_input-data_2_split_1
I0727 13:26:48.432991  9114 net.cpp:380] roi-data -> rois
I0727 13:26:48.433008  9114 net.cpp:380] roi-data -> labels
I0727 13:26:48.433027  9114 net.cpp:380] roi-data -> bbox_targets
I0727 13:26:48.433042  9114 net.cpp:380] roi-data -> bbox_inside_weights
I0727 13:26:48.433056  9114 net.cpp:380] roi-data -> bbox_outside_weights
I0727 13:26:48.434072  9114 net.cpp:122] Setting up roi-data
I0727 13:26:48.434103  9114 net.cpp:129] Top shape: 1 5 (5)
I0727 13:26:48.434113  9114 net.cpp:129] Top shape: 1 1 (1)
I0727 13:26:48.434121  9114 net.cpp:129] Top shape: 1 8 (8)
I0727 13:26:48.434130  9114 net.cpp:129] Top shape: 1 8 (8)
I0727 13:26:48.434139  9114 net.cpp:129] Top shape: 1 8 (8)
I0727 13:26:48.434145  9114 net.cpp:137] Memory required for data: 6349608232
I0727 13:26:48.434154  9114 layer_factory.hpp:77] Creating layer roi_pool5
I0727 13:26:48.434170  9114 net.cpp:84] Creating Layer roi_pool5
I0727 13:26:48.434182  9114 net.cpp:406] roi_pool5 <- res4b22_res4b22_relu_0_split_1
I0727 13:26:48.434200  9114 net.cpp:406] roi_pool5 <- rois
I0727 13:26:48.434213  9114 net.cpp:380] roi_pool5 -> roi_pool5
I0727 13:26:48.434232  9114 roi_pooling_layer.cpp:30] Spatial scale: 0.0625
I0727 13:26:48.434417  9114 net.cpp:122] Setting up roi_pool5
I0727 13:26:48.434437  9114 net.cpp:129] Top shape: 1 1024 14 14 (200704)
I0727 13:26:48.434447  9114 net.cpp:137] Memory required for data: 6350411048
I0727 13:26:48.434454  9114 layer_factory.hpp:77] Creating layer roi_pool5_roi_pool5_0_split
I0727 13:26:48.434468  9114 net.cpp:84] Creating Layer roi_pool5_roi_pool5_0_split
I0727 13:26:48.434480  9114 net.cpp:406] roi_pool5_roi_pool5_0_split <- roi_pool5
I0727 13:26:48.434500  9114 net.cpp:380] roi_pool5_roi_pool5_0_split -> roi_pool5_roi_pool5_0_split_0
I0727 13:26:48.434517  9114 net.cpp:380] roi_pool5_roi_pool5_0_split -> roi_pool5_roi_pool5_0_split_1
I0727 13:26:48.434679  9114 net.cpp:122] Setting up roi_pool5_roi_pool5_0_split
I0727 13:26:48.434695  9114 net.cpp:129] Top shape: 1 1024 14 14 (200704)
I0727 13:26:48.434706  9114 net.cpp:129] Top shape: 1 1024 14 14 (200704)
I0727 13:26:48.434715  9114 net.cpp:137] Memory required for data: 6352016680
I0727 13:26:48.434722  9114 layer_factory.hpp:77] Creating layer res5a_branch1
I0727 13:26:48.434741  9114 net.cpp:84] Creating Layer res5a_branch1
I0727 13:26:48.434751  9114 net.cpp:406] res5a_branch1 <- roi_pool5_roi_pool5_0_split_0
I0727 13:26:48.434765  9114 net.cpp:380] res5a_branch1 -> res5a_branch1
I0727 13:26:48.446609  9114 net.cpp:122] Setting up res5a_branch1
I0727 13:26:48.446642  9114 net.cpp:129] Top shape: 1 2048 7 7 (100352)
I0727 13:26:48.446653  9114 net.cpp:137] Memory required for data: 6352418088
I0727 13:26:48.446665  9114 layer_factory.hpp:77] Creating layer bn5a_branch1
I0727 13:26:48.446681  9114 net.cpp:84] Creating Layer bn5a_branch1
I0727 13:26:48.446691  9114 net.cpp:406] bn5a_branch1 <- res5a_branch1
I0727 13:26:48.446707  9114 net.cpp:367] bn5a_branch1 -> res5a_branch1 (in-place)
I0727 13:26:48.447554  9114 net.cpp:122] Setting up bn5a_branch1
I0727 13:26:48.447574  9114 net.cpp:129] Top shape: 1 2048 7 7 (100352)
I0727 13:26:48.447582  9114 net.cpp:137] Memory required for data: 6352819496
I0727 13:26:48.447597  9114 layer_factory.hpp:77] Creating layer scale5a_branch1
I0727 13:26:48.447614  9114 net.cpp:84] Creating Layer scale5a_branch1
I0727 13:26:48.447624  9114 net.cpp:406] scale5a_branch1 <- res5a_branch1
I0727 13:26:48.447636  9114 net.cpp:367] scale5a_branch1 -> res5a_branch1 (in-place)
I0727 13:26:48.447772  9114 layer_factory.hpp:77] Creating layer scale5a_branch1
I0727 13:26:48.448238  9114 net.cpp:122] Setting up scale5a_branch1
I0727 13:26:48.448256  9114 net.cpp:129] Top shape: 1 2048 7 7 (100352)
I0727 13:26:48.448264  9114 net.cpp:137] Memory required for data: 6353220904
I0727 13:26:48.448276  9114 layer_factory.hpp:77] Creating layer res5a_branch2a
I0727 13:26:48.448294  9114 net.cpp:84] Creating Layer res5a_branch2a
I0727 13:26:48.448304  9114 net.cpp:406] res5a_branch2a <- roi_pool5_roi_pool5_0_split_1
I0727 13:26:48.448317  9114 net.cpp:380] res5a_branch2a -> res5a_branch2a
I0727 13:26:48.454510  9114 net.cpp:122] Setting up res5a_branch2a
I0727 13:26:48.454541  9114 net.cpp:129] Top shape: 1 512 7 7 (25088)
I0727 13:26:48.454551  9114 net.cpp:137] Memory required for data: 6353321256
I0727 13:26:48.454562  9114 layer_factory.hpp:77] Creating layer bn5a_branch2a
I0727 13:26:48.454581  9114 net.cpp:84] Creating Layer bn5a_branch2a
I0727 13:26:48.454591  9114 net.cpp:406] bn5a_branch2a <- res5a_branch2a
I0727 13:26:48.454609  9114 net.cpp:367] bn5a_branch2a -> res5a_branch2a (in-place)
I0727 13:26:48.455482  9114 net.cpp:122] Setting up bn5a_branch2a
I0727 13:26:48.455500  9114 net.cpp:129] Top shape: 1 512 7 7 (25088)
I0727 13:26:48.455509  9114 net.cpp:137] Memory required for data: 6353421608
I0727 13:26:48.455523  9114 layer_factory.hpp:77] Creating layer scale5a_branch2a
I0727 13:26:48.455538  9114 net.cpp:84] Creating Layer scale5a_branch2a
I0727 13:26:48.455548  9114 net.cpp:406] scale5a_branch2a <- res5a_branch2a
I0727 13:26:48.455559  9114 net.cpp:367] scale5a_branch2a -> res5a_branch2a (in-place)
I0727 13:26:48.455734  9114 layer_factory.hpp:77] Creating layer scale5a_branch2a
I0727 13:26:48.456244  9114 net.cpp:122] Setting up scale5a_branch2a
I0727 13:26:48.456264  9114 net.cpp:129] Top shape: 1 512 7 7 (25088)
I0727 13:26:48.456271  9114 net.cpp:137] Memory required for data: 6353521960
I0727 13:26:48.456281  9114 layer_factory.hpp:77] Creating layer res5a_branch2a_relu
I0727 13:26:48.456295  9114 net.cpp:84] Creating Layer res5a_branch2a_relu
I0727 13:26:48.456305  9114 net.cpp:406] res5a_branch2a_relu <- res5a_branch2a
I0727 13:26:48.456313  9114 net.cpp:367] res5a_branch2a_relu -> res5a_branch2a (in-place)
I0727 13:26:48.456787  9114 net.cpp:122] Setting up res5a_branch2a_relu
I0727 13:26:48.456811  9114 net.cpp:129] Top shape: 1 512 7 7 (25088)
I0727 13:26:48.456820  9114 net.cpp:137] Memory required for data: 6353622312
I0727 13:26:48.456827  9114 layer_factory.hpp:77] Creating layer res5a_branch2b
I0727 13:26:48.456842  9114 net.cpp:84] Creating Layer res5a_branch2b
I0727 13:26:48.456852  9114 net.cpp:406] res5a_branch2b <- res5a_branch2a
I0727 13:26:48.456866  9114 net.cpp:380] res5a_branch2b -> res5a_branch2b
I0727 13:26:48.468825  9114 net.cpp:122] Setting up res5a_branch2b
I0727 13:26:48.468855  9114 net.cpp:129] Top shape: 1 512 7 7 (25088)
I0727 13:26:48.468865  9114 net.cpp:137] Memory required for data: 6353722664
I0727 13:26:48.468876  9114 layer_factory.hpp:77] Creating layer bn5a_branch2b
I0727 13:26:48.468895  9114 net.cpp:84] Creating Layer bn5a_branch2b
I0727 13:26:48.468906  9114 net.cpp:406] bn5a_branch2b <- res5a_branch2b
I0727 13:26:48.468919  9114 net.cpp:367] bn5a_branch2b -> res5a_branch2b (in-place)
I0727 13:26:48.469775  9114 net.cpp:122] Setting up bn5a_branch2b
I0727 13:26:48.469795  9114 net.cpp:129] Top shape: 1 512 7 7 (25088)
I0727 13:26:48.469804  9114 net.cpp:137] Memory required for data: 6353823016
I0727 13:26:48.469817  9114 layer_factory.hpp:77] Creating layer scale5a_branch2b
I0727 13:26:48.469830  9114 net.cpp:84] Creating Layer scale5a_branch2b
I0727 13:26:48.469841  9114 net.cpp:406] scale5a_branch2b <- res5a_branch2b
I0727 13:26:48.469851  9114 net.cpp:367] scale5a_branch2b -> res5a_branch2b (in-place)
I0727 13:26:48.470027  9114 layer_factory.hpp:77] Creating layer scale5a_branch2b
I0727 13:26:48.470521  9114 net.cpp:122] Setting up scale5a_branch2b
I0727 13:26:48.470541  9114 net.cpp:129] Top shape: 1 512 7 7 (25088)
I0727 13:26:48.470548  9114 net.cpp:137] Memory required for data: 6353923368
I0727 13:26:48.470558  9114 layer_factory.hpp:77] Creating layer res5a_branch2b_relu
I0727 13:26:48.470571  9114 net.cpp:84] Creating Layer res5a_branch2b_relu
I0727 13:26:48.470580  9114 net.cpp:406] res5a_branch2b_relu <- res5a_branch2b
I0727 13:26:48.470588  9114 net.cpp:367] res5a_branch2b_relu -> res5a_branch2b (in-place)
I0727 13:26:48.471985  9114 net.cpp:122] Setting up res5a_branch2b_relu
I0727 13:26:48.472012  9114 net.cpp:129] Top shape: 1 512 7 7 (25088)
I0727 13:26:48.472020  9114 net.cpp:137] Memory required for data: 6354023720
I0727 13:26:48.472028  9114 layer_factory.hpp:77] Creating layer res5a_branch2c
I0727 13:26:48.472044  9114 net.cpp:84] Creating Layer res5a_branch2c
I0727 13:26:48.472054  9114 net.cpp:406] res5a_branch2c <- res5a_branch2b
I0727 13:26:48.472069  9114 net.cpp:380] res5a_branch2c -> res5a_branch2c
I0727 13:26:48.479137  9114 net.cpp:122] Setting up res5a_branch2c
I0727 13:26:48.479169  9114 net.cpp:129] Top shape: 1 2048 7 7 (100352)
I0727 13:26:48.479179  9114 net.cpp:137] Memory required for data: 6354425128
I0727 13:26:48.479189  9114 layer_factory.hpp:77] Creating layer bn5a_branch2c
I0727 13:26:48.479202  9114 net.cpp:84] Creating Layer bn5a_branch2c
I0727 13:26:48.479212  9114 net.cpp:406] bn5a_branch2c <- res5a_branch2c
I0727 13:26:48.479223  9114 net.cpp:367] bn5a_branch2c -> res5a_branch2c (in-place)
I0727 13:26:48.479976  9114 net.cpp:122] Setting up bn5a_branch2c
I0727 13:26:48.479995  9114 net.cpp:129] Top shape: 1 2048 7 7 (100352)
I0727 13:26:48.480003  9114 net.cpp:137] Memory required for data: 6354826536
I0727 13:26:48.480015  9114 layer_factory.hpp:77] Creating layer scale5a_branch2c
I0727 13:26:48.480031  9114 net.cpp:84] Creating Layer scale5a_branch2c
I0727 13:26:48.480041  9114 net.cpp:406] scale5a_branch2c <- res5a_branch2c
I0727 13:26:48.480049  9114 net.cpp:367] scale5a_branch2c -> res5a_branch2c (in-place)
I0727 13:26:48.480181  9114 layer_factory.hpp:77] Creating layer scale5a_branch2c
I0727 13:26:48.480633  9114 net.cpp:122] Setting up scale5a_branch2c
I0727 13:26:48.480651  9114 net.cpp:129] Top shape: 1 2048 7 7 (100352)
I0727 13:26:48.480656  9114 net.cpp:137] Memory required for data: 6355227944
I0727 13:26:48.480666  9114 layer_factory.hpp:77] Creating layer res5a
I0727 13:26:48.480679  9114 net.cpp:84] Creating Layer res5a
I0727 13:26:48.480690  9114 net.cpp:406] res5a <- res5a_branch1
I0727 13:26:48.480697  9114 net.cpp:406] res5a <- res5a_branch2c
I0727 13:26:48.480708  9114 net.cpp:380] res5a -> res5a
I0727 13:26:48.480801  9114 net.cpp:122] Setting up res5a
I0727 13:26:48.480816  9114 net.cpp:129] Top shape: 1 2048 7 7 (100352)
I0727 13:26:48.480824  9114 net.cpp:137] Memory required for data: 6355629352
I0727 13:26:48.480829  9114 layer_factory.hpp:77] Creating layer res5a_relu
I0727 13:26:48.480839  9114 net.cpp:84] Creating Layer res5a_relu
I0727 13:26:48.480847  9114 net.cpp:406] res5a_relu <- res5a
I0727 13:26:48.480857  9114 net.cpp:367] res5a_relu -> res5a (in-place)
I0727 13:26:48.481290  9114 net.cpp:122] Setting up res5a_relu
I0727 13:26:48.481312  9114 net.cpp:129] Top shape: 1 2048 7 7 (100352)
I0727 13:26:48.481319  9114 net.cpp:137] Memory required for data: 6356030760
I0727 13:26:48.481326  9114 layer_factory.hpp:77] Creating layer res5a_res5a_relu_0_split
I0727 13:26:48.481334  9114 net.cpp:84] Creating Layer res5a_res5a_relu_0_split
I0727 13:26:48.481343  9114 net.cpp:406] res5a_res5a_relu_0_split <- res5a
I0727 13:26:48.481354  9114 net.cpp:380] res5a_res5a_relu_0_split -> res5a_res5a_relu_0_split_0
I0727 13:26:48.481369  9114 net.cpp:380] res5a_res5a_relu_0_split -> res5a_res5a_relu_0_split_1
I0727 13:26:48.481526  9114 net.cpp:122] Setting up res5a_res5a_relu_0_split
I0727 13:26:48.481541  9114 net.cpp:129] Top shape: 1 2048 7 7 (100352)
I0727 13:26:48.481551  9114 net.cpp:129] Top shape: 1 2048 7 7 (100352)
I0727 13:26:48.481556  9114 net.cpp:137] Memory required for data: 6356833576
I0727 13:26:48.481562  9114 layer_factory.hpp:77] Creating layer res5b_branch2a
I0727 13:26:48.481576  9114 net.cpp:84] Creating Layer res5b_branch2a
I0727 13:26:48.481585  9114 net.cpp:406] res5b_branch2a <- res5a_res5a_relu_0_split_0
I0727 13:26:48.481595  9114 net.cpp:380] res5b_branch2a -> res5b_branch2a
I0727 13:26:48.488478  9114 net.cpp:122] Setting up res5b_branch2a
I0727 13:26:48.488507  9114 net.cpp:129] Top shape: 1 512 7 7 (25088)
I0727 13:26:48.488515  9114 net.cpp:137] Memory required for data: 6356933928
I0727 13:26:48.488524  9114 layer_factory.hpp:77] Creating layer bn5b_branch2a
I0727 13:26:48.488540  9114 net.cpp:84] Creating Layer bn5b_branch2a
I0727 13:26:48.488550  9114 net.cpp:406] bn5b_branch2a <- res5b_branch2a
I0727 13:26:48.488560  9114 net.cpp:367] bn5b_branch2a -> res5b_branch2a (in-place)
I0727 13:26:48.489354  9114 net.cpp:122] Setting up bn5b_branch2a
I0727 13:26:48.489389  9114 net.cpp:129] Top shape: 1 512 7 7 (25088)
I0727 13:26:48.489398  9114 net.cpp:137] Memory required for data: 6357034280
I0727 13:26:48.489409  9114 layer_factory.hpp:77] Creating layer scale5b_branch2a
I0727 13:26:48.489421  9114 net.cpp:84] Creating Layer scale5b_branch2a
I0727 13:26:48.489428  9114 net.cpp:406] scale5b_branch2a <- res5b_branch2a
I0727 13:26:48.489439  9114 net.cpp:367] scale5b_branch2a -> res5b_branch2a (in-place)
I0727 13:26:48.489598  9114 layer_factory.hpp:77] Creating layer scale5b_branch2a
I0727 13:26:48.490052  9114 net.cpp:122] Setting up scale5b_branch2a
I0727 13:26:48.490069  9114 net.cpp:129] Top shape: 1 512 7 7 (25088)
I0727 13:26:48.490077  9114 net.cpp:137] Memory required for data: 6357134632
I0727 13:26:48.490087  9114 layer_factory.hpp:77] Creating layer res5b_branch2a_relu
I0727 13:26:48.490097  9114 net.cpp:84] Creating Layer res5b_branch2a_relu
I0727 13:26:48.490103  9114 net.cpp:406] res5b_branch2a_relu <- res5b_branch2a
I0727 13:26:48.490110  9114 net.cpp:367] res5b_branch2a_relu -> res5b_branch2a (in-place)
I0727 13:26:48.490516  9114 net.cpp:122] Setting up res5b_branch2a_relu
I0727 13:26:48.490535  9114 net.cpp:129] Top shape: 1 512 7 7 (25088)
I0727 13:26:48.490540  9114 net.cpp:137] Memory required for data: 6357234984
I0727 13:26:48.490545  9114 layer_factory.hpp:77] Creating layer res5b_branch2b
I0727 13:26:48.490559  9114 net.cpp:84] Creating Layer res5b_branch2b
I0727 13:26:48.490566  9114 net.cpp:406] res5b_branch2b <- res5b_branch2a
I0727 13:26:48.490576  9114 net.cpp:380] res5b_branch2b -> res5b_branch2b
I0727 13:26:48.501179  9114 net.cpp:122] Setting up res5b_branch2b
I0727 13:26:48.501204  9114 net.cpp:129] Top shape: 1 512 7 7 (25088)
I0727 13:26:48.501210  9114 net.cpp:137] Memory required for data: 6357335336
I0727 13:26:48.501219  9114 layer_factory.hpp:77] Creating layer bn5b_branch2b
I0727 13:26:48.501232  9114 net.cpp:84] Creating Layer bn5b_branch2b
I0727 13:26:48.501246  9114 net.cpp:406] bn5b_branch2b <- res5b_branch2b
I0727 13:26:48.501255  9114 net.cpp:367] bn5b_branch2b -> res5b_branch2b (in-place)
I0727 13:26:48.501999  9114 net.cpp:122] Setting up bn5b_branch2b
I0727 13:26:48.502017  9114 net.cpp:129] Top shape: 1 512 7 7 (25088)
I0727 13:26:48.502022  9114 net.cpp:137] Memory required for data: 6357435688
I0727 13:26:48.502033  9114 layer_factory.hpp:77] Creating layer scale5b_branch2b
I0727 13:26:48.502043  9114 net.cpp:84] Creating Layer scale5b_branch2b
I0727 13:26:48.502048  9114 net.cpp:406] scale5b_branch2b <- res5b_branch2b
I0727 13:26:48.502058  9114 net.cpp:367] scale5b_branch2b -> res5b_branch2b (in-place)
I0727 13:26:48.502209  9114 layer_factory.hpp:77] Creating layer scale5b_branch2b
I0727 13:26:48.502643  9114 net.cpp:122] Setting up scale5b_branch2b
I0727 13:26:48.502658  9114 net.cpp:129] Top shape: 1 512 7 7 (25088)
I0727 13:26:48.502663  9114 net.cpp:137] Memory required for data: 6357536040
I0727 13:26:48.502671  9114 layer_factory.hpp:77] Creating layer res5b_branch2b_relu
I0727 13:26:48.502679  9114 net.cpp:84] Creating Layer res5b_branch2b_relu
I0727 13:26:48.502686  9114 net.cpp:406] res5b_branch2b_relu <- res5b_branch2b
I0727 13:26:48.502692  9114 net.cpp:367] res5b_branch2b_relu -> res5b_branch2b (in-place)
I0727 13:26:48.504647  9114 net.cpp:122] Setting up res5b_branch2b_relu
I0727 13:26:48.504670  9114 net.cpp:129] Top shape: 1 512 7 7 (25088)
I0727 13:26:48.504676  9114 net.cpp:137] Memory required for data: 6357636392
I0727 13:26:48.504681  9114 layer_factory.hpp:77] Creating layer res5b_branch2c
I0727 13:26:48.504695  9114 net.cpp:84] Creating Layer res5b_branch2c
I0727 13:26:48.504703  9114 net.cpp:406] res5b_branch2c <- res5b_branch2b
I0727 13:26:48.504714  9114 net.cpp:380] res5b_branch2c -> res5b_branch2c
I0727 13:26:48.510968  9114 net.cpp:122] Setting up res5b_branch2c
I0727 13:26:48.510993  9114 net.cpp:129] Top shape: 1 2048 7 7 (100352)
I0727 13:26:48.510998  9114 net.cpp:137] Memory required for data: 6358037800
I0727 13:26:48.511006  9114 layer_factory.hpp:77] Creating layer bn5b_branch2c
I0727 13:26:48.511018  9114 net.cpp:84] Creating Layer bn5b_branch2c
I0727 13:26:48.511025  9114 net.cpp:406] bn5b_branch2c <- res5b_branch2c
I0727 13:26:48.511035  9114 net.cpp:367] bn5b_branch2c -> res5b_branch2c (in-place)
I0727 13:26:48.511678  9114 net.cpp:122] Setting up bn5b_branch2c
I0727 13:26:48.511694  9114 net.cpp:129] Top shape: 1 2048 7 7 (100352)
I0727 13:26:48.511698  9114 net.cpp:137] Memory required for data: 6358439208
I0727 13:26:48.511709  9114 layer_factory.hpp:77] Creating layer scale5b_branch2c
I0727 13:26:48.511720  9114 net.cpp:84] Creating Layer scale5b_branch2c
I0727 13:26:48.511726  9114 net.cpp:406] scale5b_branch2c <- res5b_branch2c
I0727 13:26:48.511734  9114 net.cpp:367] scale5b_branch2c -> res5b_branch2c (in-place)
I0727 13:26:48.511862  9114 layer_factory.hpp:77] Creating layer scale5b_branch2c
I0727 13:26:48.512235  9114 net.cpp:122] Setting up scale5b_branch2c
I0727 13:26:48.512249  9114 net.cpp:129] Top shape: 1 2048 7 7 (100352)
I0727 13:26:48.512253  9114 net.cpp:137] Memory required for data: 6358840616
I0727 13:26:48.512261  9114 layer_factory.hpp:77] Creating layer res5b
I0727 13:26:48.512270  9114 net.cpp:84] Creating Layer res5b
I0727 13:26:48.512277  9114 net.cpp:406] res5b <- res5a_res5a_relu_0_split_1
I0727 13:26:48.512284  9114 net.cpp:406] res5b <- res5b_branch2c
I0727 13:26:48.512290  9114 net.cpp:380] res5b -> res5b
I0727 13:26:48.512367  9114 net.cpp:122] Setting up res5b
I0727 13:26:48.512379  9114 net.cpp:129] Top shape: 1 2048 7 7 (100352)
I0727 13:26:48.512383  9114 net.cpp:137] Memory required for data: 6359242024
I0727 13:26:48.512388  9114 layer_factory.hpp:77] Creating layer res5b_relu
I0727 13:26:48.512395  9114 net.cpp:84] Creating Layer res5b_relu
I0727 13:26:48.512401  9114 net.cpp:406] res5b_relu <- res5b
I0727 13:26:48.512409  9114 net.cpp:367] res5b_relu -> res5b (in-place)
I0727 13:26:48.512783  9114 net.cpp:122] Setting up res5b_relu
I0727 13:26:48.512800  9114 net.cpp:129] Top shape: 1 2048 7 7 (100352)
I0727 13:26:48.512805  9114 net.cpp:137] Memory required for data: 6359643432
I0727 13:26:48.512810  9114 layer_factory.hpp:77] Creating layer res5b_res5b_relu_0_split
I0727 13:26:48.512818  9114 net.cpp:84] Creating Layer res5b_res5b_relu_0_split
I0727 13:26:48.512823  9114 net.cpp:406] res5b_res5b_relu_0_split <- res5b
I0727 13:26:48.512833  9114 net.cpp:380] res5b_res5b_relu_0_split -> res5b_res5b_relu_0_split_0
I0727 13:26:48.512842  9114 net.cpp:380] res5b_res5b_relu_0_split -> res5b_res5b_relu_0_split_1
I0727 13:26:48.512972  9114 net.cpp:122] Setting up res5b_res5b_relu_0_split
I0727 13:26:48.512985  9114 net.cpp:129] Top shape: 1 2048 7 7 (100352)
I0727 13:26:48.512991  9114 net.cpp:129] Top shape: 1 2048 7 7 (100352)
I0727 13:26:48.512995  9114 net.cpp:137] Memory required for data: 6360446248
I0727 13:26:48.513000  9114 layer_factory.hpp:77] Creating layer res5c_branch2a
I0727 13:26:48.513013  9114 net.cpp:84] Creating Layer res5c_branch2a
I0727 13:26:48.513021  9114 net.cpp:406] res5c_branch2a <- res5b_res5b_relu_0_split_0
I0727 13:26:48.513029  9114 net.cpp:380] res5c_branch2a -> res5c_branch2a
I0727 13:26:48.519009  9114 net.cpp:122] Setting up res5c_branch2a
I0727 13:26:48.519033  9114 net.cpp:129] Top shape: 1 512 7 7 (25088)
I0727 13:26:48.519039  9114 net.cpp:137] Memory required for data: 6360546600
I0727 13:26:48.519047  9114 layer_factory.hpp:77] Creating layer bn5c_branch2a
I0727 13:26:48.519057  9114 net.cpp:84] Creating Layer bn5c_branch2a
I0727 13:26:48.519063  9114 net.cpp:406] bn5c_branch2a <- res5c_branch2a
I0727 13:26:48.519073  9114 net.cpp:367] bn5c_branch2a -> res5c_branch2a (in-place)
I0727 13:26:48.519788  9114 net.cpp:122] Setting up bn5c_branch2a
I0727 13:26:48.519804  9114 net.cpp:129] Top shape: 1 512 7 7 (25088)
I0727 13:26:48.519809  9114 net.cpp:137] Memory required for data: 6360646952
I0727 13:26:48.519819  9114 layer_factory.hpp:77] Creating layer scale5c_branch2a
I0727 13:26:48.519829  9114 net.cpp:84] Creating Layer scale5c_branch2a
I0727 13:26:48.519835  9114 net.cpp:406] scale5c_branch2a <- res5c_branch2a
I0727 13:26:48.519843  9114 net.cpp:367] scale5c_branch2a -> res5c_branch2a (in-place)
I0727 13:26:48.519987  9114 layer_factory.hpp:77] Creating layer scale5c_branch2a
I0727 13:26:48.520411  9114 net.cpp:122] Setting up scale5c_branch2a
I0727 13:26:48.520426  9114 net.cpp:129] Top shape: 1 512 7 7 (25088)
I0727 13:26:48.520431  9114 net.cpp:137] Memory required for data: 6360747304
I0727 13:26:48.520448  9114 layer_factory.hpp:77] Creating layer res5c_branch2a_relu
I0727 13:26:48.520457  9114 net.cpp:84] Creating Layer res5c_branch2a_relu
I0727 13:26:48.520463  9114 net.cpp:406] res5c_branch2a_relu <- res5c_branch2a
I0727 13:26:48.520470  9114 net.cpp:367] res5c_branch2a_relu -> res5c_branch2a (in-place)
I0727 13:26:48.520846  9114 net.cpp:122] Setting up res5c_branch2a_relu
I0727 13:26:48.520864  9114 net.cpp:129] Top shape: 1 512 7 7 (25088)
I0727 13:26:48.520867  9114 net.cpp:137] Memory required for data: 6360847656
I0727 13:26:48.520872  9114 layer_factory.hpp:77] Creating layer res5c_branch2b
I0727 13:26:48.520884  9114 net.cpp:84] Creating Layer res5c_branch2b
I0727 13:26:48.520889  9114 net.cpp:406] res5c_branch2b <- res5c_branch2a
I0727 13:26:48.520897  9114 net.cpp:380] res5c_branch2b -> res5c_branch2b
I0727 13:26:48.530133  9114 net.cpp:122] Setting up res5c_branch2b
I0727 13:26:48.530156  9114 net.cpp:129] Top shape: 1 512 7 7 (25088)
I0727 13:26:48.530161  9114 net.cpp:137] Memory required for data: 6360948008
I0727 13:26:48.530169  9114 layer_factory.hpp:77] Creating layer bn5c_branch2b
I0727 13:26:48.530185  9114 net.cpp:84] Creating Layer bn5c_branch2b
I0727 13:26:48.530192  9114 net.cpp:406] bn5c_branch2b <- res5c_branch2b
I0727 13:26:48.530200  9114 net.cpp:367] bn5c_branch2b -> res5c_branch2b (in-place)
I0727 13:26:48.530894  9114 net.cpp:122] Setting up bn5c_branch2b
I0727 13:26:48.530908  9114 net.cpp:129] Top shape: 1 512 7 7 (25088)
I0727 13:26:48.530912  9114 net.cpp:137] Memory required for data: 6361048360
I0727 13:26:48.530922  9114 layer_factory.hpp:77] Creating layer scale5c_branch2b
I0727 13:26:48.530932  9114 net.cpp:84] Creating Layer scale5c_branch2b
I0727 13:26:48.530938  9114 net.cpp:406] scale5c_branch2b <- res5c_branch2b
I0727 13:26:48.530946  9114 net.cpp:367] scale5c_branch2b -> res5c_branch2b (in-place)
I0727 13:26:48.531081  9114 layer_factory.hpp:77] Creating layer scale5c_branch2b
I0727 13:26:48.531482  9114 net.cpp:122] Setting up scale5c_branch2b
I0727 13:26:48.531497  9114 net.cpp:129] Top shape: 1 512 7 7 (25088)
I0727 13:26:48.531500  9114 net.cpp:137] Memory required for data: 6361148712
I0727 13:26:48.531508  9114 layer_factory.hpp:77] Creating layer res5c_branch2b_relu
I0727 13:26:48.531515  9114 net.cpp:84] Creating Layer res5c_branch2b_relu
I0727 13:26:48.531522  9114 net.cpp:406] res5c_branch2b_relu <- res5c_branch2b
I0727 13:26:48.531529  9114 net.cpp:367] res5c_branch2b_relu -> res5c_branch2b (in-place)
I0727 13:26:48.532618  9114 net.cpp:122] Setting up res5c_branch2b_relu
I0727 13:26:48.532639  9114 net.cpp:129] Top shape: 1 512 7 7 (25088)
I0727 13:26:48.532644  9114 net.cpp:137] Memory required for data: 6361249064
I0727 13:26:48.532649  9114 layer_factory.hpp:77] Creating layer res5c_branch2c
I0727 13:26:48.532662  9114 net.cpp:84] Creating Layer res5c_branch2c
I0727 13:26:48.532670  9114 net.cpp:406] res5c_branch2c <- res5c_branch2b
I0727 13:26:48.532677  9114 net.cpp:380] res5c_branch2c -> res5c_branch2c
I0727 13:26:48.538218  9114 net.cpp:122] Setting up res5c_branch2c
I0727 13:26:48.538239  9114 net.cpp:129] Top shape: 1 2048 7 7 (100352)
I0727 13:26:48.538244  9114 net.cpp:137] Memory required for data: 6361650472
I0727 13:26:48.538252  9114 layer_factory.hpp:77] Creating layer bn5c_branch2c
I0727 13:26:48.538264  9114 net.cpp:84] Creating Layer bn5c_branch2c
I0727 13:26:48.538269  9114 net.cpp:406] bn5c_branch2c <- res5c_branch2c
I0727 13:26:48.538278  9114 net.cpp:367] bn5c_branch2c -> res5c_branch2c (in-place)
I0727 13:26:48.538872  9114 net.cpp:122] Setting up bn5c_branch2c
I0727 13:26:48.538885  9114 net.cpp:129] Top shape: 1 2048 7 7 (100352)
I0727 13:26:48.538889  9114 net.cpp:137] Memory required for data: 6362051880
I0727 13:26:48.538898  9114 layer_factory.hpp:77] Creating layer scale5c_branch2c
I0727 13:26:48.538908  9114 net.cpp:84] Creating Layer scale5c_branch2c
I0727 13:26:48.538914  9114 net.cpp:406] scale5c_branch2c <- res5c_branch2c
I0727 13:26:48.538923  9114 net.cpp:367] scale5c_branch2c -> res5c_branch2c (in-place)
I0727 13:26:48.539023  9114 layer_factory.hpp:77] Creating layer scale5c_branch2c
I0727 13:26:48.539373  9114 net.cpp:122] Setting up scale5c_branch2c
I0727 13:26:48.539386  9114 net.cpp:129] Top shape: 1 2048 7 7 (100352)
I0727 13:26:48.539391  9114 net.cpp:137] Memory required for data: 6362453288
I0727 13:26:48.539397  9114 layer_factory.hpp:77] Creating layer res5c
I0727 13:26:48.539407  9114 net.cpp:84] Creating Layer res5c
I0727 13:26:48.539412  9114 net.cpp:406] res5c <- res5b_res5b_relu_0_split_1
I0727 13:26:48.539418  9114 net.cpp:406] res5c <- res5c_branch2c
I0727 13:26:48.539424  9114 net.cpp:380] res5c -> res5c
I0727 13:26:48.539492  9114 net.cpp:122] Setting up res5c
I0727 13:26:48.539504  9114 net.cpp:129] Top shape: 1 2048 7 7 (100352)
I0727 13:26:48.539507  9114 net.cpp:137] Memory required for data: 6362854696
I0727 13:26:48.539511  9114 layer_factory.hpp:77] Creating layer res5c_relu
I0727 13:26:48.539520  9114 net.cpp:84] Creating Layer res5c_relu
I0727 13:26:48.539527  9114 net.cpp:406] res5c_relu <- res5c
I0727 13:26:48.539533  9114 net.cpp:367] res5c_relu -> res5c (in-place)
I0727 13:26:48.539862  9114 net.cpp:122] Setting up res5c_relu
I0727 13:26:48.539877  9114 net.cpp:129] Top shape: 1 2048 7 7 (100352)
I0727 13:26:48.539881  9114 net.cpp:137] Memory required for data: 6363256104
I0727 13:26:48.539885  9114 layer_factory.hpp:77] Creating layer pool5
I0727 13:26:48.539896  9114 net.cpp:84] Creating Layer pool5
I0727 13:26:48.539901  9114 net.cpp:406] pool5 <- res5c
I0727 13:26:48.539909  9114 net.cpp:380] pool5 -> pool5
I0727 13:26:48.540997  9114 net.cpp:122] Setting up pool5
I0727 13:26:48.541018  9114 net.cpp:129] Top shape: 1 2048 1 1 (2048)
I0727 13:26:48.541023  9114 net.cpp:137] Memory required for data: 6363264296
I0727 13:26:48.541028  9114 layer_factory.hpp:77] Creating layer pool5_pool5_0_split
I0727 13:26:48.541036  9114 net.cpp:84] Creating Layer pool5_pool5_0_split
I0727 13:26:48.541041  9114 net.cpp:406] pool5_pool5_0_split <- pool5
I0727 13:26:48.541049  9114 net.cpp:380] pool5_pool5_0_split -> pool5_pool5_0_split_0
I0727 13:26:48.541057  9114 net.cpp:380] pool5_pool5_0_split -> pool5_pool5_0_split_1
I0727 13:26:48.541172  9114 net.cpp:122] Setting up pool5_pool5_0_split
I0727 13:26:48.541184  9114 net.cpp:129] Top shape: 1 2048 1 1 (2048)
I0727 13:26:48.541189  9114 net.cpp:129] Top shape: 1 2048 1 1 (2048)
I0727 13:26:48.541193  9114 net.cpp:137] Memory required for data: 6363280680
I0727 13:26:48.541198  9114 layer_factory.hpp:77] Creating layer cls_score
I0727 13:26:48.541209  9114 net.cpp:84] Creating Layer cls_score
I0727 13:26:48.541216  9114 net.cpp:406] cls_score <- pool5_pool5_0_split_0
I0727 13:26:48.541224  9114 net.cpp:380] cls_score -> cls_score
I0727 13:26:48.541693  9114 net.cpp:122] Setting up cls_score
I0727 13:26:48.541705  9114 net.cpp:129] Top shape: 1 2 (2)
I0727 13:26:48.541709  9114 net.cpp:137] Memory required for data: 6363280688
I0727 13:26:48.541718  9114 layer_factory.hpp:77] Creating layer bbox_pred
I0727 13:26:48.541728  9114 net.cpp:84] Creating Layer bbox_pred
I0727 13:26:48.541733  9114 net.cpp:406] bbox_pred <- pool5_pool5_0_split_1
I0727 13:26:48.541740  9114 net.cpp:380] bbox_pred -> bbox_pred
I0727 13:26:48.542659  9114 net.cpp:122] Setting up bbox_pred
I0727 13:26:48.542671  9114 net.cpp:129] Top shape: 1 8 (8)
I0727 13:26:48.542675  9114 net.cpp:137] Memory required for data: 6363280720
I0727 13:26:48.542683  9114 layer_factory.hpp:77] Creating layer loss_cls
I0727 13:26:48.542693  9114 net.cpp:84] Creating Layer loss_cls
I0727 13:26:48.542698  9114 net.cpp:406] loss_cls <- cls_score
I0727 13:26:48.542704  9114 net.cpp:406] loss_cls <- labels
I0727 13:26:48.542711  9114 net.cpp:380] loss_cls -> loss_cls
…
