…
I0726 17:33:36.298177   959 upgrade_proto.cpp:77] Attempting to upgrade batch norm layers using deprecated params: models/sign/ResNet101/faster_rcnn_end2end/train.prototxt
I0726 17:33:36.298215   959 upgrade_proto.cpp:80] Successfully upgraded batch norm layers using deprecated params.
I0726 17:33:36.300791   959 net.cpp:51] Initializing net from parameters: 
name: "Resnet 101"
state {
  phase: TRAIN
}
layer {
  name: "input-data"
  type: "Python"
  top: "data"
  top: "im_info"
  top: "gt_boxes"
  python_param {
    module: "roi_data_layer.layer"
    layer: "RoIDataLayer"
    param_str: "\'num_classes\': 2"
  }
}
layer {
  name: "conv1"
  type: "Convolution"
  bottom: "data"
  top: "conv1"
  param {
    lr_mult: 0
    decay_mult: 0
  }
  convolution_param {
    num_output: 64
    bias_term: false
    pad: 3
    kernel_size: 7
    stride: 2
  }
}
layer {
  name: "bn_conv1"
  type: "BatchNorm"
  bottom: "conv1"
  top: "conv1"
  param {
    lr_mult: 0
    decay_mult: 0
  }
  param {
    lr_mult: 0
    decay_mult: 0
  }
  param {
    lr_mult: 0
    decay_mult: 0
  }
  batch_norm_param {
    use_global_stats: false
  }
}
layer {
  name: "scale_conv1"
  type: "Scale"
  bottom: "conv1"
  top: "conv1"
  param {
    lr_mult: 0
    decay_mult: 0
  }
  param {
    lr_mult: 0
    decay_mult: 0
  }
  scale_param {
    bias_term: true
  }
}
layer {
  name: "conv1_relu"
  type: "ReLU"
  bottom: "conv1"
  top: "conv1"
}
layer {
  name: "pool1"
  type: "Pooling"
  bottom: "conv1"
  top: "pool1"
  pooling_param {
    pool: MAX
    kernel_size: 3
    stride: 2
  }
}
layer {
  name: "res2a_branch1"
  type: "Convolution"
  bottom: "pool1"
  top: "res2a_branch1"
  param {
    lr_mult: 0
    decay_mult: 0
  }
  convolution_param {
    num_output: 256
    bias_term: false
    pad: 0
    kernel_size: 1
    stride: 1
  }
}
layer {
  name: "bn2a_branch1"
  type: "BatchNorm"
  bottom: "res2a_branch1"
  top: "res2a_branch1"
  param {
    lr_mult: 0
    decay_mult: 0
  }
  param {
    lr_mult: 0
    decay_mult: 0
  }
  param {
    lr_mult: 0
    decay_mult: 0
  }
  batch_norm_param {
    use_global_stats: false
  }
}
layer {
  name: "scale2a_branch1"
  type: "Scale"
  bottom: "res2a_branch1"
  top: "res2a_branch1"
  param {
    lr_mult: 0
    decay_mult: 0
  }
  param {
    lr_mult: 0
    decay_mult: 0
  }
  scale_param {
    bias_term: true
  }
}
layer {
  name: "res2a_branch2a"
  type: "Convolution"
  bottom: "pool1"
  top: "res2a_branch2a"
  param {
    lr_mult: 0
    decay_mult: 0
  }
  convolution_param {
    num_output: 64
    bias_term: false
    pad: 0
    kernel_size: 1
    stride: 1
  }
}
layer {
  name: "bn2a_branch2a"
  type: "BatchNorm"
  bottom: "res2a_branch2a"
  top: "res2a_branch2a"
  param {
    lr_mult: 0
    decay_mult: 0
  }
  param {
    lr_mult: 0
    decay_mult: 0
  }
  param {
    lr_mult: 0
    decay_mult: 0
  }
  batch_norm_param {
    use_global_stats: false
  }
}
layer {
  name: "scale2a_branch2a"
  type: "Scale"
  bottom: "res2a_branch2a"
  top: "res2a_branch2a"
  param {
    lr_mult: 0
    decay_mult: 0
  }
  param {
    lr_mult: 0
    decay_mult: 0
  }
  scale_param {
    bias_term: true
  }
}
layer {
  name: "res2a_branch2a_relu"
  type: "ReLU"
  bottom: "res2a_branch2a"
  top: "res2a_branch2a"
}
layer {
  name: "res2a_branch2b"
  type: "Convolution"
  bottom: "res2a_branch2a"
  top: "res2a_branch2b"
  param {
    lr_mult: 0
    decay_mult: 0
  }
  convolution_param {
    num_output: 64
    bias_term: false
    pad: 1
    kernel_size: 3
    stride: 1
  }
}
layer {
  name: "bn2a_branch2b"
  type: "BatchNorm"
  bottom: "res2a_branch2b"
  top: "res2a_branch2b"
  param {
    lr_mult: 0
    decay_mult: 0
  }
  param {
    lr_mult: 0
    decay_mult: 0
  }
  param {
    lr_mult: 0
    decay_mult: 0
  }
  batch_norm_param {
    use_global_stats: false
  }
}
layer {
  name: "scale2a_branch2b"
  type: "Scale"
  bottom: "res2a_branch2b"
  top: "res2a_branch2b"
  param {
    lr_mult: 0
    decay_mult: 0
  }
  param {
    lr_mult: 0
    decay_mult: 0
  }
  scale_param {
    bias_term: true
  }
}
layer {
  name: "res2a_branch2b_relu"
  type: "ReLU"
  bottom: "res2a_branch2b"
  top: "res2a_branch2b"
}
layer {
  name: "res2a_branch2c"
  type: "Convolution"
  bottom: "res2a_branch2b"
  top: "res2a_branch2c"
  param {
    lr_mult: 0
    decay_mult: 0
  }
  convolution_param {
    num_output: 256
    bias_term: false
    pad: 0
    kernel_size: 1
    stride: 1
  }
}
layer {
  name: "bn2a_branch2c"
  type: "BatchNorm"
  bottom: "res2a_branch2c"
  top: "res2a_branch2c"
  param {
    lr_mult: 0
    decay_mult: 0
  }
  param {
    lr_mult: 0
    decay_mult: 0
  }
  param {
    lr_mult: 0
    decay_mult: 0
  }
  batch_norm_param {
    use_global_stats: false
  }
}
layer {
  name: "scale2a_branch2c"
  type: "Scale"
  bottom: "res2a_branch2c"
  top: "res2a_branch2c"
  param {
    lr_mult: 0
    decay_mult: 0
  }
  param {
    lr_mult: 0
    decay_mult: 0
  }
  scale_param {
    bias_term: true
  }
}
layer {
  name: "res2a"
  type: "Eltwise"
  bottom: "res2a_branch1"
  bottom: "res2a_branch2c"
  top: "res2a"
}
layer {
  name: "res2a_relu"
  type: "ReLU"
  bottom: "res2a"
  top: "res2a"
}
layer {
  name: "res2b_branch2a"
  type: "Convolution"
  bottom: "res2a"
  top: "res2b_branch2a"
  param {
    lr_mult: 0
    decay_mult: 0
  }
  convolution_param {
    num_output: 64
    bias_term: false
    pad: 0
    kernel_size: 1
    stride: 1
  }
}
layer {
  name: "bn2b_branch2a"
  type: "BatchNorm"
  bottom: "res2b_branch2a"
  top: "res2b_branch2a"
  param {
    lr_mult: 0
    decay_mult: 0
  }
  param {
    lr_mult: 0
    decay_mult: 0
  }
  param {
    lr_mult: 0
    decay_mult: 0
  }
  batch_norm_param {
    use_global_stats: false
  }
}
layer {
  name: "scale2b_branch2a"
  type: "Scale"
  bottom: "res2b_branch2a"
  top: "res2b_branch2a"
  param {
    lr_mult: 0
    decay_mult: 0
  }
  param {
    lr_mult: 0
    decay_mult: 0
  }
  scale_param {
    bias_term: true
  }
}
layer {
  name: "res2b_branch2a_relu"
  type: "ReLU"
  bottom: "res2b_branch2a"
  top: "res2b_branch2a"
}
layer {
  name: "res2b_branch2b"
  type: "Convolution"
  bottom: "res2b_branch2a"
  top: "res2b_branch2b"
  param {
    lr_mult: 0
    decay_mult: 0
  }
  convolution_param {
    num_output: 64
    bias_term: false
    pad: 1
    kernel_size: 3
    stride: 1
  }
}
layer {
  name: "bn2b_branch2b"
  type: "BatchNorm"
  bottom: "res2b_branch2b"
  top: "res2b_branch2b"
  param {
    lr_mult: 0
    decay_mult: 0
  }
  param {
    lr_mult: 0
    decay_mult: 0
  }
  param {
    lr_mult: 0
    decay_mult: 0
  }
  batch_norm_param {
    use_global_stats: false
  }
}
layer {
  name: "scale2b_branch2b"
  type: "Scale"
  bottom: "res2b_branch2b"
  top: "res2b_branch2b"
  param {
    lr_mult: 0
    decay_mult: 0
  }
  param {
    lr_mult: 0
    decay_mult: 0
  }
  scale_param {
    bias_term: true
  }
}
layer {
  name: "res2b_branch2b_relu"
  type: "ReLU"
  bottom: "res2b_branch2b"
  top: "res2b_branch2b"
}
layer {
  name: "res2b_branch2c"
  type: "Convolution"
  bottom: "res2b_branch2b"
  top: "res2b_branch2c"
  param {
    lr_mult: 0
    decay_mult: 0
  }
  convolution_param {
    num_output: 256
    bias_term: false
    pad: 0
    kernel_size: 1
    stride: 1
  }
}
layer {
  name: "bn2b_branch2c"
  type: "BatchNorm"
  bottom: "res2b_branch2c"
  top: "res2b_branch2c"
  param {
    lr_mult: 0
    decay_mult: 0
  }
  param {
    lr_mult: 0
    decay_mult: 0
  }
  param {
    lr_mult: 0
    decay_mult: 0
  }
  batch_norm_param {
    use_global_stats: false
  }
}
layer {
  name: "scale2b_branch2c"
  type: "Scale"
  bottom: "res2b_branch2c"
  top: "res2b_branch2c"
  param {
    lr_mult: 0
    decay_mult: 0
  }
  param {
    lr_mult: 0
    decay_mult: 0
  }
  scale_param {
    bias_term: true
  }
}
layer {
  name: "res2b"
  type: "Eltwise"
  bottom: "res2a"
  bottom: "res2b_branch2c"
  top: "res2b"
}
layer {
  name: "res2b_relu"
  type: "ReLU"
  bottom: "res2b"
  top: "res2b"
}
layer {
  name: "res2c_branch2a"
  type: "Convolution"
  bottom: "res2b"
  top: "res2c_branch2a"
  param {
    lr_mult: 0
    decay_mult: 0
  }
  convolution_param {
    num_output: 64
    bias_term: false
    pad: 0
    kernel_size: 1
    stride: 1
  }
}
layer {
  name: "bn2c_branch2a"
  type: "BatchNorm"
  bottom: "res2c_branch2a"
  top: "res2c_branch2a"
  param {
    lr_mult: 0
    decay_mult: 0
  }
  param {
    lr_mult: 0
    decay_mult: 0
  }
  param {
    lr_mult: 0
    decay_mult: 0
  }
  batch_norm_param {
    use_global_stats: false
  }
}
layer {
  name: "scale2c_branch2a"
  type: "Scale"
  bottom: "res2c_branch2a"
  top: "res2c_branch2a"
  param {
    lr_mult: 0
    decay_mult: 0
  }
  param {
    lr_mult: 0
    decay_mult: 0
  }
  scale_param {
    bias_term: true
  }
}
layer {
  name: "res2c_branch2a_relu"
  type: "ReLU"
  bottom: "res2c_branch2a"
  top: "res2c_branch2a"
}
layer {
  name: "res2c_branch2b"
  type: "Convolution"
  bottom: "res2c_branch2a"
  top: "res2c_branch2b"
  param {
    lr_mult: 0
    decay_mult: 0
  }
  convolution_param {
    num_output: 64
    bias_term: false
    pad: 1
    kernel_size: 3
    stride: 1
  }
}
layer {
  name: "bn2c_branch2b"
  type: "BatchNorm"
  bottom: "res2c_branch2b"
  top: "res2c_branch2b"
  param {
    lr_mult: 0
    decay_mult: 0
  }
  param {
    lr_mult: 0
    decay_mult: 0
  }
  param {
    lr_mult: 0
    decay_mult: 0
  }
  batch_norm_param {
    use_global_stats: false
  }
}
layer {
  name: "scale2c_branch2b"
  type: "Scale"
  bottom: "res2c_branch2b"
  top: "res2c_branch2b"
  param {
    lr_mult: 0
    decay_mult: 0
  }
  param {
    lr_mult: 0
    decay_mult: 0
  }
  scale_param {
    bias_term: true
  }
}
layer {
  name: "res2c_branch2b_relu"
  type: "ReLU"
  bottom: "res2c_branch2b"
  top: "res2c_branch2b"
}
layer {
  name: "res2c_branch2c"
  type: "Convolution"
  bottom: "res2c_branch2b"
  top: "res2c_branch2c"
  param {
    lr_mult: 0
    decay_mult: 0
  }
  convolution_param {
    num_output: 256
    bias_term: false
    pad: 0
    kernel_size: 1
    stride: 1
  }
}
layer {
  name: "bn2c_branch2c"
  type: "BatchNorm"
  bottom: "res2c_branch2c"
  top: "res2c_branch2c"
  param {
    lr_mult: 0
    decay_mult: 0
  }
  param {
    lr_mult: 0
    decay_mult: 0
  }
  param {
    lr_mult: 0
    decay_mult: 0
  }
  batch_norm_param {
    use_global_stats: false
  }
}
layer {
  name: "scale2c_branch2c"
  type: "Scale"
  bottom: "res2c_branch2c"
  top: "res2c_branch2c"
  param {
    lr_mult: 0
    decay_mult: 0
  }
  param {
    lr_mult: 0
    decay_mult: 0
  }
  scale_param {
    bias_term: true
  }
}
layer {
  name: "res2c"
  type: "Eltwise"
  bottom: "res2b"
  bottom: "res2c_branch2c"
  top: "res2c"
}
layer {
  name: "res2c_relu"
  type: "ReLU"
  bottom: "res2c"
  top: "res2c"
}
layer {
  name: "res3a_branch1"
  type: "Convolution"
  bottom: "res2c"
  top: "res3a_branch1"
  param {
    lr_mult: 1
  }
  convolution_param {
    num_output: 512
    bias_term: false
    pad: 0
    kernel_size: 1
    stride: 2
  }
}
layer {
  name: "bn3a_branch1"
  type: "BatchNorm"
  bottom: "res3a_branch1"
  top: "res3a_branch1"
  param {
    lr_mult: 0
    decay_mult: 0
  }
  param {
    lr_mult: 0
    decay_mult: 0
  }
  param {
    lr_mult: 0
    decay_mult: 0
  }
  batch_norm_param {
    use_global_stats: false
  }
}
layer {
  name: "scale3a_branch1"
  type: "Scale"
  bottom: "res3a_branch1"
  top: "res3a_branch1"
  param {
    lr_mult: 0
    decay_mult: 0
  }
  param {
    lr_mult: 0
    decay_mult: 0
  }
  scale_param {
    bias_term: true
  }
}
layer {
  name: "res3a_branch2a"
  type: "Convolution"
  bottom: "res2c"
  top: "res3a_branch2a"
  param {
    lr_mult: 1
  }
  convolution_param {
    num_output: 128
    bias_term: false
    pad: 0
    kernel_size: 1
    stride: 2
  }
}
layer {
  name: "bn3a_branch2a"
  type: "BatchNorm"
  bottom: "res3a_branch2a"
  top: "res3a_branch2a"
  param {
    lr_mult: 0
    decay_mult: 0
  }
  param {
    lr_mult: 0
    decay_mult: 0
  }
  param {
    lr_mult: 0
    decay_mult: 0
  }
  batch_norm_param {
    use_global_stats: false
  }
}
layer {
  name: "scale3a_branch2a"
  type: "Scale"
  bottom: "res3a_branch2a"
  top: "res3a_branch2a"
  param {
    lr_mult: 0
    decay_mult: 0
  }
  param {
    lr_mult: 0
    decay_mult: 0
  }
  scale_param {
    bias_term: true
  }
}
layer {
  name: "res3a_branch2a_relu"
  type: "ReLU"
  bottom: "res3a_branch2a"
  top: "res3a_branch2a"
}
layer {
  name: "res3a_branch2b"
  type: "Convolution"
  bottom: "res3a_branch2a"
  top: "res3a_branch2b"
  param {
    lr_mult: 1
  }
  convolution_param {
    num_output: 128
    bias_term: false
    pad: 1
    kernel_size: 3
    stride: 1
  }
}
layer {
  name: "bn3a_branch2b"
  type: "BatchNorm"
  bottom: "res3a_branch2b"
  top: "res3a_branch2b"
  param {
    lr_mult: 0
    decay_mult: 0
  }
  param {
    lr_mult: 0
    decay_mult: 0
  }
  param {
    lr_mult: 0
    decay_mult: 0
  }
  batch_norm_param {
    use_global_stats: false
  }
}
layer {
  name: "scale3a_branch2b"
  type: "Scale"
  bottom: "res3a_branch2b"
  top: "res3a_branch2b"
  param {
    lr_mult: 0
    decay_mult: 0
  }
  param {
    lr_mult: 0
    decay_mult: 0
  }
  scale_param {
    bias_term: true
  }
}
layer {
  name: "res3a_branch2b_relu"
  type: "ReLU"
  bottom: "res3a_branch2b"
  top: "res3a_branch2b"
}
layer {
  name: "res3a_branch2c"
  type: "Convolution"
  bottom: "res3a_branch2b"
  top: "res3a_branch2c"
  param {
    lr_mult: 1
  }
  convolution_param {
    num_output: 512
    bias_term: false
    pad: 0
    kernel_size: 1
    stride: 1
  }
}
layer {
  name: "bn3a_branch2c"
  type: "BatchNorm"
  bottom: "res3a_branch2c"
  top: "res3a_branch2c"
  param {
    lr_mult: 0
    decay_mult: 0
  }
  param {
    lr_mult: 0
    decay_mult: 0
  }
  param {
    lr_mult: 0
    decay_mult: 0
  }
  batch_norm_param {
    use_global_stats: false
  }
}
layer {
  name: "scale3a_branch2c"
  type: "Scale"
  bottom: "res3a_branch2c"
  top: "res3a_branch2c"
  param {
    lr_mult: 0
    decay_mult: 0
  }
  param {
    lr_mult: 0
    decay_mult: 0
  }
  scale_param {
    bias_term: true
  }
}
layer {
  name: "res3a"
  type: "Eltwise"
  bottom: "res3a_branch1"
  bottom: "res3a_branch2c"
  top: "res3a"
}
layer {
  name: "res3a_relu"
  type: "ReLU"
  bottom: "res3a"
  top: "res3a"
}
layer {
  name: "res3b1_branch2a"
  type: "Convolution"
  bottom: "res3a"
  top: "res3b1_branch2a"
  param {
    lr_mult: 1
  }
  convolution_param {
    num_output: 128
    bias_term: false
    pad: 0
    kernel_size: 1
    stride: 1
  }
}
layer {
  name: "bn3b1_branch2a"
  type: "BatchNorm"
  bottom: "res3b1_branch2a"
  top: "res3b1_branch2a"
  param {
    lr_mult: 0
    decay_mult: 0
  }
  param {
    lr_mult: 0
    decay_mult: 0
  }
  param {
    lr_mult: 0
    decay_mult: 0
  }
  batch_norm_param {
    use_global_stats: false
  }
}
layer {
  name: "scale3b1_branch2a"
  type: "Scale"
  bottom: "res3b1_branch2a"
  top: "res3b1_branch2a"
  param {
    lr_mult: 0
    decay_mult: 0
  }
  param {
    lr_mult: 0
    decay_mult: 0
  }
  scale_param {
    bias_term: true
  }
}
layer {
  name: "res3b1_branch2a_relu"
  type: "ReLU"
  bottom: "res3b1_branch2a"
  top: "res3b1_branch2a"
}
layer {
  name: "res3b1_branch2b"
  type: "Convolution"
  bottom: "res3b1_branch2a"
  top: "res3b1_branch2b"
  param {
    lr_mult: 1
  }
  convolution_param {
    num_output: 128
    bias_term: false
    pad: 1
    kernel_size: 3
    stride: 1
  }
}
layer {
  name: "bn3b1_branch2b"
  type: "BatchNorm"
  bottom: "res3b1_branch2b"
  top: "res3b1_branch2b"
  param {
    lr_mult: 0
    decay_mult: 0
  }
  param {
    lr_mult: 0
    decay_mult: 0
  }
  param {
    lr_mult: 0
    decay_mult: 0
  }
  batch_norm_param {
    use_global_stats: false
  }
}
layer {
  name: "scale3b1_branch2b"
  type: "Scale"
  bottom: "res3b1_branch2b"
  top: "res3b1_branch2b"
  param {
    lr_mult: 0
    decay_mult: 0
  }
  param {
    lr_mult: 0
    decay_mult: 0
  }
  scale_param {
    bias_term: true
  }
}
layer {
  name: "res3b1_branch2b_relu"
  type: "ReLU"
  bottom: "res3b1_branch2b"
  top: "res3b1_branch2b"
}
layer {
  name: "res3b1_branch2c"
  type: "Convolution"
  bottom: "res3b1_branch2b"
  top: "res3b1_branch2c"
  param {
    lr_mult: 1
  }
  convolution_param {
    num_output: 512
    bias_term: false
    pad: 0
    kernel_size: 1
    stride: 1
  }
}
layer {
  name: "bn3b1_branch2c"
  type: "BatchNorm"
  bottom: "res3b1_branch2c"
  top: "res3b1_branch2c"
  param {
    lr_mult: 0
    decay_mult: 0
  }
  param {
    lr_mult: 0
    decay_mult: 0
  }
  param {
    lr_mult: 0
    decay_mult: 0
  }
  batch_norm_param {
    use_global_stats: false
  }
}
layer {
  name: "scale3b1_branch2c"
  type: "Scale"
  bottom: "res3b1_branch2c"
  top: "res3b1_branch2c"
  param {
    lr_mult: 0
    decay_mult: 0
  }
  param {
    lr_mult: 0
    decay_mult: 0
  }
  scale_param {
    bias_term: true
  }
}
layer {
  name: "res3b1"
  type: "Eltwise"
  bottom: "res3a"
  bottom: "res3b1_branch2c"
  top: "res3b1"
}
layer {
  name: "res3b1_relu"
  type: "ReLU"
  bottom: "res3b1"
  top: "res3b1"
}
layer {
  name: "res3b2_branch2a"
  type: "Convolution"
  bottom: "res3b1"
  top: "res3b2_branch2a"
  param {
    lr_mult: 1
  }
  convolution_param {
    num_output: 128
    bias_term: false
    pad: 0
    kernel_size: 1
    stride: 1
  }
}
layer {
  name: "bn3b2_branch2a"
  type: "BatchNorm"
  bottom: "res3b2_branch2a"
  top: "res3b2_branch2a"
  param {
    lr_mult: 0
    decay_mult: 0
  }
  param {
    lr_mult: 0
    decay_mult: 0
  }
  param {
    lr_mult: 0
    decay_mult: 0
  }
  batch_norm_param {
    use_global_stats: false
  }
}
layer {
  name: "scale3b2_branch2a"
  type: "Scale"
  bottom: "res3b2_branch2a"
  top: "res3b2_branch2a"
  param {
    lr_mult: 0
    decay_mult: 0
  }
  param {
    lr_mult: 0
    decay_mult: 0
  }
  scale_param {
    bias_term: true
  }
}
layer {
  name: "res3b2_branch2a_relu"
  type: "ReLU"
  bottom: "res3b2_branch2a"
  top: "res3b2_branch2a"
}
layer {
  name: "res3b2_branch2b"
  type: "Convolution"
  bottom: "res3b2_branch2a"
  top: "res3b2_branch2b"
  param {
    lr_mult: 1
  }
  convolution_param {
    num_output: 128
    bias_term: false
    pad: 1
    kernel_size: 3
    stride: 1
  }
}
layer {
  name: "bn3b2_branch2b"
  type: "BatchNorm"
  bottom: "res3b2_branch2b"
  top: "res3b2_branch2b"
  param {
    lr_mult: 0
    decay_mult: 0
  }
  param {
    lr_mult: 0
    decay_mult: 0
  }
  param {
    lr_mult: 0
    decay_mult: 0
  }
  batch_norm_param {
    use_global_stats: false
  }
}
layer {
  name: "scale3b2_branch2b"
  type: "Scale"
  bottom: "res3b2_branch2b"
  top: "res3b2_branch2b"
  param {
    lr_mult: 0
    decay_mult: 0
  }
  param {
    lr_mult: 0
    decay_mult: 0
  }
  scale_param {
    bias_term: true
  }
}
layer {
  name: "res3b2_branch2b_relu"
  type: "ReLU"
  bottom: "res3b2_branch2b"
  top: "res3b2_branch2b"
}
layer {
  name: "res3b2_branch2c"
  type: "Convolution"
  bottom: "res3b2_branch2b"
  top: "res3b2_branch2c"
  param {
    lr_mult: 1
  }
  convolution_param {
    num_output: 512
    bias_term: false
    pad: 0
    kernel_size: 1
    stride: 1
  }
}
layer {
  name: "bn3b2_branch2c"
  type: "BatchNorm"
  bottom: "res3b2_branch2c"
  top: "res3b2_branch2c"
  param {
    lr_mult: 0
    decay_mult: 0
  }
  param {
    lr_mult: 0
    decay_mult: 0
  }
  param {
    lr_mult: 0
    decay_mult: 0
  }
  batch_norm_param {
    use_global_stats: false
  }
}
layer {
  name: "scale3b2_branch2c"
  type: "Scale"
  bottom: "res3b2_branch2c"
  top: "res3b2_branch2c"
  param {
    lr_mult: 0
    decay_mult: 0
  }
  param {
    lr_mult: 0
    decay_mult: 0
  }
  scale_param {
    bias_term: true
  }
}
layer {
  name: "res3b2"
  type: "Eltwise"
  bottom: "res3b1"
  bottom: "res3b2_branch2c"
  top: "res3b2"
}
layer {
  name: "res3b2_relu"
  type: "ReLU"
  bottom: "res3b2"
  top: "res3b2"
}
layer {
  name: "res3b3_branch2a"
  type: "Convolution"
  bottom: "res3b2"
  top: "res3b3_branch2a"
  param {
    lr_mult: 1
  }
  convolution_param {
    num_output: 128
    bias_term: false
    pad: 0
    kernel_size: 1
    stride: 1
  }
}
layer {
  name: "bn3b3_branch2a"
  type: "BatchNorm"
  bottom: "res3b3_branch2a"
  top: "res3b3_branch2a"
  param {
    lr_mult: 0
    decay_mult: 0
  }
  param {
    lr_mult: 0
    decay_mult: 0
  }
  param {
    lr_mult: 0
    decay_mult: 0
  }
  batch_norm_param {
    use_global_stats: false
  }
}
layer {
  name: "scale3b3_branch2a"
  type: "Scale"
  bottom: "res3b3_branch2a"
  top: "res3b3_branch2a"
  param {
    lr_mult: 0
    decay_mult: 0
  }
  param {
    lr_mult: 0
    decay_mult: 0
  }
  scale_param {
    bias_term: true
  }
}
layer {
  name: "res3b3_branch2a_relu"
  type: "ReLU"
  bottom: "res3b3_branch2a"
  top: "res3b3_branch2a"
}
layer {
  name: "res3b3_branch2b"
  type: "Convolution"
  bottom: "res3b3_branch2a"
  top: "res3b3_branch2b"
  param {
    lr_mult: 1
  }
  convolution_param {
    num_output: 128
    bias_term: false
    pad: 1
    kernel_size: 3
    stride: 1
  }
}
layer {
  name: "bn3b3_branch2b"
  type: "BatchNorm"
  bottom: "res3b3_branch2b"
  top: "res3b3_branch2b"
  param {
    lr_mult: 0
    decay_mult: 0
  }
  param {
    lr_mult: 0
    decay_mult: 0
  }
  param {
    lr_mult: 0
    decay_mult: 0
  }
  batch_norm_param {
    use_global_stats: false
  }
}
layer {
  name: "scale3b3_branch2b"
  type: "Scale"
  bottom: "res3b3_branch2b"
  top: "res3b3_branch2b"
  param {
    lr_mult: 0
    decay_mult: 0
  }
  param {
    lr_mult: 0
    decay_mult: 0
  }
  scale_param {
    bias_term: true
  }
}
layer {
  name: "res3b3_branch2b_relu"
  type: "ReLU"
  bottom: "res3b3_branch2b"
  top: "res3b3_branch2b"
}
layer {
  name: "res3b3_branch2c"
  type: "Convolution"
  bottom: "res3b3_branch2b"
  top: "res3b3_branch2c"
  param {
    lr_mult: 1
  }
  convolution_param {
    num_output: 512
    bias_term: false
    pad: 0
    kernel_size: 1
    stride: 1
  }
}
layer {
  name: "bn3b3_branch2c"
  type: "BatchNorm"
  bottom: "res3b3_branch2c"
  top: "res3b3_branch2c"
  param {
    lr_mult: 0
    decay_mult: 0
  }
  param {
    lr_mult: 0
    decay_mult: 0
  }
  param {
    lr_mult: 0
    decay_mult: 0
  }
  batch_norm_param {
    use_global_stats: false
  }
}
layer {
  name: "scale3b3_branch2c"
  type: "Scale"
  bottom: "res3b3_branch2c"
  top: "res3b3_branch2c"
  param {
    lr_mult: 0
    decay_mult: 0
  }
  param {
    lr_mult: 0
    decay_mult: 0
  }
  scale_param {
    bias_term: true
  }
}
layer {
  name: "res3b3"
  type: "Eltwise"
  bottom: "res3b2"
  bottom: "res3b3_branch2c"
  top: "res3b3"
}
layer {
  name: "res3b3_relu"
  type: "ReLU"
  bottom: "res3b3"
  top: "res3b3"
}
layer {
  name: "res4a_branch1"
  type: "Convolution"
  bottom: "res3b3"
  top: "res4a_branch1"
  param {
    lr_mult: 1
  }
  convolution_param {
    num_output: 1024
    bias_term: false
    pad: 0
    kernel_size: 1
    stride: 2
  }
}
layer {
  name: "bn4a_branch1"
  type: "BatchNorm"
  bottom: "res4a_branch1"
  top: "res4a_branch1"
  param {
    lr_mult: 0
    decay_mult: 0
  }
  param {
    lr_mult: 0
    decay_mult: 0
  }
  param {
    lr_mult: 0
    decay_mult: 0
  }
  batch_norm_param {
    use_global_stats: false
  }
}
layer {
  name: "scale4a_branch1"
  type: "Scale"
  bottom: "res4a_branch1"
  top: "res4a_branch1"
  param {
    lr_mult: 0
    decay_mult: 0
  }
  param {
    lr_mult: 0
    decay_mult: 0
  }
  scale_param {
    bias_term: true
  }
}
layer {
  name: "res4a_branch2a"
  type: "Convolution"
  bottom: "res3b3"
  top: "res4a_branch2a"
  param {
    lr_mult: 1
  }
  convolution_param {
    num_output: 256
    bias_term: false
    pad: 0
    kernel_size: 1
    stride: 2
  }
}
layer {
  name: "bn4a_branch2a"
  type: "BatchNorm"
  bottom: "res4a_branch2a"
  top: "res4a_branch2a"
  param {
    lr_mult: 0
    decay_mult: 0
  }
  param {
    lr_mult: 0
    decay_mult: 0
  }
  param {
    lr_mult: 0
    decay_mult: 0
  }
  batch_norm_param {
    use_global_stats: false
  }
}
layer {
  name: "scale4a_branch2a"
  type: "Scale"
  bottom: "res4a_branch2a"
  top: "res4a_branch2a"
  param {
    lr_mult: 0
    decay_mult: 0
  }
  param {
    lr_mult: 0
    decay_mult: 0
  }
  scale_param {
    bias_term: true
  }
}
layer {
  name: "res4a_branch2a_relu"
  type: "ReLU"
  bottom: "res4a_branch2a"
  top: "res4a_branch2a"
}
layer {
  name: "res4a_branch2b"
  type: "Convolution"
  bottom: "res4a_branch2a"
  top: "res4a_branch2b"
  param {
    lr_mult: 1
  }
  convolution_param {
    num_output: 256
    bias_term: false
    pad: 1
    kernel_size: 3
    stride: 1
  }
}
layer {
  name: "bn4a_branch2b"
  type: "BatchNorm"
  bottom: "res4a_branch2b"
  top: "res4a_branch2b"
  param {
    lr_mult: 0
    decay_mult: 0
  }
  param {
    lr_mult: 0
    decay_mult: 0
  }
  param {
    lr_mult: 0
    decay_mult: 0
  }
  batch_norm_param {
    use_global_stats: false
  }
}
layer {
  name: "scale4a_branch2b"
  type: "Scale"
  bottom: "res4a_branch2b"
  top: "res4a_branch2b"
  param {
    lr_mult: 0
    decay_mult: 0
  }
  param {
    lr_mult: 0
    decay_mult: 0
  }
  scale_param {
    bias_term: true
  }
}
layer {
  name: "res4a_branch2b_relu"
  type: "ReLU"
  bottom: "res4a_branch2b"
  top: "res4a_branch2b"
}
layer {
  name: "res4a_branch2c"
  type: "Convolution"
  bottom: "res4a_branch2b"
  top: "res4a_branch2c"
  param {
    lr_mult: 1
  }
  convolution_param {
    num_output: 1024
    bias_term: false
    pad: 0
    kernel_size: 1
    stride: 1
  }
}
layer {
  name: "bn4a_branch2c"
  type: "BatchNorm"
  bottom: "res4a_branch2c"
  top: "res4a_branch2c"
  param {
    lr_mult: 0
    decay_mult: 0
  }
  param {
    lr_mult: 0
    decay_mult: 0
  }
  param {
    lr_mult: 0
    decay_mult: 0
  }
  batch_norm_param {
    use_global_stats: false
  }
}
layer {
  name: "scale4a_branch2c"
  type: "Scale"
  bottom: "res4a_branch2c"
  top: "res4a_branch2c"
  param {
    lr_mult: 0
    decay_mult: 0
  }
  param {
    lr_mult: 0
    decay_mult: 0
  }
  scale_param {
    bias_term: true
  }
}
layer {
  name: "res4a"
  type: "Eltwise"
  bottom: "res4a_branch1"
  bottom: "res4a_branch2c"
  top: "res4a"
}
layer {
  name: "res4a_relu"
  type: "ReLU"
  bottom: "res4a"
  top: "res4a"
}
layer {
  name: "res4b1_branch2a"
  type: "Convolution"
  bottom: "res4a"
  top: "res4b1_branch2a"
  param {
    lr_mult: 1
  }
  convolution_param {
    num_output: 256
    bias_term: false
    pad: 0
    kernel_size: 1
    stride: 1
  }
}
layer {
  name: "bn4b1_branch2a"
  type: "BatchNorm"
  bottom: "res4b1_branch2a"
  top: "res4b1_branch2a"
  param {
    lr_mult: 0
    decay_mult: 0
  }
  param {
    lr_mult: 0
    decay_mult: 0
  }
  param {
    lr_mult: 0
    decay_mult: 0
  }
  batch_norm_param {
    use_global_stats: false
  }
}
layer {
  name: "scale4b1_branch2a"
  type: "Scale"
  bottom: "res4b1_branch2a"
  top: "res4b1_branch2a"
  param {
    lr_mult: 0
    decay_mult: 0
  }
  param {
    lr_mult: 0
    decay_mult: 0
  }
  scale_param {
    bias_term: true
  }
}
layer {
  name: "res4b1_branch2a_relu"
  type: "ReLU"
  bottom: "res4b1_branch2a"
  top: "res4b1_branch2a"
}
layer {
  name: "res4b1_branch2b"
  type: "Convolution"
  bottom: "res4b1_branch2a"
  top: "res4b1_branch2b"
  param {
    lr_mult: 1
  }
  convolution_param {
    num_output: 256
    bias_term: false
    pad: 1
    kernel_size: 3
    stride: 1
  }
}
layer {
  name: "bn4b1_branch2b"
  type: "BatchNorm"
  bottom: "res4b1_branch2b"
  top: "res4b1_branch2b"
  param {
    lr_mult: 0
    decay_mult: 0
  }
  param {
    lr_mult: 0
    decay_mult: 0
  }
  param {
    lr_mult: 0
    decay_mult: 0
  }
  batch_norm_param {
    use_global_stats: false
  }
}
layer {
  name: "scale4b1_branch2b"
  type: "Scale"
  bottom: "res4b1_branch2b"
  top: "res4b1_branch2b"
  param {
    lr_mult: 0
    decay_mult: 0
  }
  param {
    lr_mult: 0
    decay_mult: 0
  }
  scale_param {
    bias_term: true
  }
}
layer {
  name: "res4b1_branch2b_relu"
  type: "ReLU"
  bottom: "res4b1_branch2b"
  top: "res4b1_branch2b"
}
layer {
  name: "res4b1_branch2c"
  type: "Convolution"
  bottom: "res4b1_branch2b"
  top: "res4b1_branch2c"
  param {
    lr_mult: 1
  }
  convolution_param {
    num_output: 1024
    bias_term: false
    pad: 0
    kernel_size: 1
    stride: 1
  }
}
layer {
  name: "bn4b1_branch2c"
  type: "BatchNorm"
  bottom: "res4b1_branch2c"
  top: "res4b1_branch2c"
  param {
    lr_mult: 0
    decay_mult: 0
  }
  param {
    lr_mult: 0
    decay_mult: 0
  }
  param {
    lr_mult: 0
    decay_mult: 0
  }
  batch_norm_param {
    use_global_stats: false
  }
}
layer {
  name: "scale4b1_branch2c"
  type: "Scale"
  bottom: "res4b1_branch2c"
  top: "res4b1_branch2c"
  param {
    lr_mult: 0
    decay_mult: 0
  }
  param {
    lr_mult: 0
    decay_mult: 0
  }
  scale_param {
    bias_term: true
  }
}
layer {
  name: "res4b1"
  type: "Eltwise"
  bottom: "res4a"
  bottom: "res4b1_branch2c"
  top: "res4b1"
}
layer {
  name: "res4b1_relu"
  type: "ReLU"
  bottom: "res4b1"
  top: "res4b1"
}
layer {
  name: "res4b2_branch2a"
  type: "Convolution"
  bottom: "res4b1"
  top: "res4b2_branch2a"
  param {
    lr_mult: 1
  }
  convolution_param {
    num_output: 256
    bias_term: false
    pad: 0
    kernel_size: 1
    stride: 1
  }
}
layer {
  name: "bn4b2_branch2a"
  type: "BatchNorm"
  bottom: "res4b2_branch2a"
  top: "res4b2_branch2a"
  param {
    lr_mult: 0
    decay_mult: 0
  }
  param {
    lr_mult: 0
    decay_mult: 0
  }
  param {
    lr_mult: 0
    decay_mult: 0
  }
  batch_norm_param {
    use_global_stats: false
  }
}
layer {
  name: "scale4b2_branch2a"
  type: "Scale"
  bottom: "res4b2_branch2a"
  top: "res4b2_branch2a"
  param {
    lr_mult: 0
    decay_mult: 0
  }
  param {
    lr_mult: 0
    decay_mult: 0
  }
  scale_param {
    bias_term: true
  }
}
layer {
  name: "res4b2_branch2a_relu"
  type: "ReLU"
  bottom: "res4b2_branch2a"
  top: "res4b2_branch2a"
}
layer {
  name: "res4b2_branch2b"
  type: "Convolution"
  bottom: "res4b2_branch2a"
  top: "res4b2_branch2b"
  param {
    lr_mult: 1
  }
  convolution_param {
    num_output: 256
    bias_term: false
    pad: 1
    kernel_size: 3
    stride: 1
  }
}
layer {
  name: "bn4b2_branch2b"
  type: "BatchNorm"
  bottom: "res4b2_branch2b"
  top: "res4b2_branch2b"
  param {
    lr_mult: 0
    decay_mult: 0
  }
  param {
    lr_mult: 0
    decay_mult: 0
  }
  param {
    lr_mult: 0
    decay
I0726 17:33:36.302489   959 layer_factory.hpp:77] Creating layer input-data
I0726 17:33:36.310194   959 net.cpp:84] Creating Layer input-data
I0726 17:33:36.310210   959 net.cpp:380] input-data -> data
I0726 17:33:36.310231   959 net.cpp:380] input-data -> im_info
I0726 17:33:36.310238   959 net.cpp:380] input-data -> gt_boxes
RoiDataLayer: name_to_top: {'gt_boxes': 2, 'data': 0, 'im_info': 1}
I0726 17:33:36.322712   959 net.cpp:122] Setting up input-data
I0726 17:33:36.322726   959 net.cpp:129] Top shape: 1 3 720 1280 (2764800)
I0726 17:33:36.322731   959 net.cpp:129] Top shape: 1 3 (3)
I0726 17:33:36.322736   959 net.cpp:129] Top shape: 1 4 (4)
I0726 17:33:36.322739   959 net.cpp:137] Memory required for data: 11059228
I0726 17:33:36.322743   959 layer_factory.hpp:77] Creating layer data_input-data_0_split
I0726 17:33:36.322751   959 net.cpp:84] Creating Layer data_input-data_0_split
I0726 17:33:36.322754   959 net.cpp:406] data_input-data_0_split <- data
I0726 17:33:36.322760   959 net.cpp:380] data_input-data_0_split -> data_input-data_0_split_0
I0726 17:33:36.322767   959 net.cpp:380] data_input-data_0_split -> data_input-data_0_split_1
I0726 17:33:36.322816   959 net.cpp:122] Setting up data_input-data_0_split
I0726 17:33:36.322825   959 net.cpp:129] Top shape: 1 3 720 1280 (2764800)
I0726 17:33:36.322830   959 net.cpp:129] Top shape: 1 3 720 1280 (2764800)
I0726 17:33:36.322834   959 net.cpp:137] Memory required for data: 33177628
I0726 17:33:36.322836   959 layer_factory.hpp:77] Creating layer im_info_input-data_1_split
I0726 17:33:36.322842   959 net.cpp:84] Creating Layer im_info_input-data_1_split
I0726 17:33:36.322845   959 net.cpp:406] im_info_input-data_1_split <- im_info
I0726 17:33:36.322850   959 net.cpp:380] im_info_input-data_1_split -> im_info_input-data_1_split_0
I0726 17:33:36.322855   959 net.cpp:380] im_info_input-data_1_split -> im_info_input-data_1_split_1
I0726 17:33:36.322896   959 net.cpp:122] Setting up im_info_input-data_1_split
I0726 17:33:36.322902   959 net.cpp:129] Top shape: 1 3 (3)
I0726 17:33:36.322906   959 net.cpp:129] Top shape: 1 3 (3)
I0726 17:33:36.322909   959 net.cpp:137] Memory required for data: 33177652
I0726 17:33:36.322913   959 layer_factory.hpp:77] Creating layer gt_boxes_input-data_2_split
I0726 17:33:36.322916   959 net.cpp:84] Creating Layer gt_boxes_input-data_2_split
I0726 17:33:36.322921   959 net.cpp:406] gt_boxes_input-data_2_split <- gt_boxes
I0726 17:33:36.322924   959 net.cpp:380] gt_boxes_input-data_2_split -> gt_boxes_input-data_2_split_0
I0726 17:33:36.322929   959 net.cpp:380] gt_boxes_input-data_2_split -> gt_boxes_input-data_2_split_1
I0726 17:33:36.322969   959 net.cpp:122] Setting up gt_boxes_input-data_2_split
I0726 17:33:36.322976   959 net.cpp:129] Top shape: 1 4 (4)
I0726 17:33:36.322980   959 net.cpp:129] Top shape: 1 4 (4)
I0726 17:33:36.322983   959 net.cpp:137] Memory required for data: 33177684
I0726 17:33:36.322986   959 layer_factory.hpp:77] Creating layer conv1
I0726 17:33:36.323001   959 net.cpp:84] Creating Layer conv1
I0726 17:33:36.323006   959 net.cpp:406] conv1 <- data_input-data_0_split_0
I0726 17:33:36.323011   959 net.cpp:380] conv1 -> conv1
I0726 17:33:37.151137   959 net.cpp:122] Setting up conv1
I0726 17:33:37.151183   959 net.cpp:129] Top shape: 1 64 360 640 (14745600)
I0726 17:33:37.151188   959 net.cpp:137] Memory required for data: 92160084
I0726 17:33:37.151201   959 layer_factory.hpp:77] Creating layer bn_conv1
I0726 17:33:37.151213   959 net.cpp:84] Creating Layer bn_conv1
I0726 17:33:37.151218   959 net.cpp:406] bn_conv1 <- conv1
I0726 17:33:37.151224   959 net.cpp:367] bn_conv1 -> conv1 (in-place)
I0726 17:33:37.152257   959 net.cpp:122] Setting up bn_conv1
I0726 17:33:37.152273   959 net.cpp:129] Top shape: 1 64 360 640 (14745600)
I0726 17:33:37.152288   959 net.cpp:137] Memory required for data: 151142484
I0726 17:33:37.152300   959 layer_factory.hpp:77] Creating layer scale_conv1
I0726 17:33:37.152308   959 net.cpp:84] Creating Layer scale_conv1
I0726 17:33:37.152312   959 net.cpp:406] scale_conv1 <- conv1
I0726 17:33:37.152318   959 net.cpp:367] scale_conv1 -> conv1 (in-place)
I0726 17:33:37.152379   959 layer_factory.hpp:77] Creating layer scale_conv1
I0726 17:33:37.153867   959 net.cpp:122] Setting up scale_conv1
I0726 17:33:37.153882   959 net.cpp:129] Top shape: 1 64 360 640 (14745600)
I0726 17:33:37.153898   959 net.cpp:137] Memory required for data: 210124884
I0726 17:33:37.153906   959 layer_factory.hpp:77] Creating layer conv1_relu
I0726 17:33:37.153913   959 net.cpp:84] Creating Layer conv1_relu
I0726 17:33:37.153918   959 net.cpp:406] conv1_relu <- conv1
I0726 17:33:37.153923   959 net.cpp:367] conv1_relu -> conv1 (in-place)
I0726 17:33:37.154584   959 net.cpp:122] Setting up conv1_relu
I0726 17:33:37.154598   959 net.cpp:129] Top shape: 1 64 360 640 (14745600)
I0726 17:33:37.154613   959 net.cpp:137] Memory required for data: 269107284
I0726 17:33:37.154616   959 layer_factory.hpp:77] Creating layer pool1
I0726 17:33:37.154628   959 net.cpp:84] Creating Layer pool1
I0726 17:33:37.154631   959 net.cpp:406] pool1 <- conv1
I0726 17:33:37.154639   959 net.cpp:380] pool1 -> pool1
I0726 17:33:37.154708   959 net.cpp:122] Setting up pool1
I0726 17:33:37.154718   959 net.cpp:129] Top shape: 1 64 180 320 (3686400)
I0726 17:33:37.154721   959 net.cpp:137] Memory required for data: 283852884
I0726 17:33:37.154724   959 layer_factory.hpp:77] Creating layer pool1_pool1_0_split
I0726 17:33:37.154731   959 net.cpp:84] Creating Layer pool1_pool1_0_split
I0726 17:33:37.154736   959 net.cpp:406] pool1_pool1_0_split <- pool1
I0726 17:33:37.154739   959 net.cpp:380] pool1_pool1_0_split -> pool1_pool1_0_split_0
I0726 17:33:37.154747   959 net.cpp:380] pool1_pool1_0_split -> pool1_pool1_0_split_1
I0726 17:33:37.154799   959 net.cpp:122] Setting up pool1_pool1_0_split
I0726 17:33:37.154808   959 net.cpp:129] Top shape: 1 64 180 320 (3686400)
I0726 17:33:37.154811   959 net.cpp:129] Top shape: 1 64 180 320 (3686400)
I0726 17:33:37.154814   959 net.cpp:137] Memory required for data: 313344084
I0726 17:33:37.154817   959 layer_factory.hpp:77] Creating layer res2a_branch1
I0726 17:33:37.154827   959 net.cpp:84] Creating Layer res2a_branch1
I0726 17:33:37.154832   959 net.cpp:406] res2a_branch1 <- pool1_pool1_0_split_0
I0726 17:33:37.154839   959 net.cpp:380] res2a_branch1 -> res2a_branch1
I0726 17:33:37.157037   959 net.cpp:122] Setting up res2a_branch1
I0726 17:33:37.157053   959 net.cpp:129] Top shape: 1 256 180 320 (14745600)
I0726 17:33:37.157068   959 net.cpp:137] Memory required for data: 372326484
I0726 17:33:37.157076   959 layer_factory.hpp:77] Creating layer bn2a_branch1
I0726 17:33:37.157083   959 net.cpp:84] Creating Layer bn2a_branch1
I0726 17:33:37.157088   959 net.cpp:406] bn2a_branch1 <- res2a_branch1
I0726 17:33:37.157094   959 net.cpp:367] bn2a_branch1 -> res2a_branch1 (in-place)
I0726 17:33:37.157948   959 net.cpp:122] Setting up bn2a_branch1
I0726 17:33:37.157963   959 net.cpp:129] Top shape: 1 256 180 320 (14745600)
I0726 17:33:37.157977   959 net.cpp:137] Memory required for data: 431308884
I0726 17:33:37.157989   959 layer_factory.hpp:77] Creating layer scale2a_branch1
I0726 17:33:37.158001   959 net.cpp:84] Creating Layer scale2a_branch1
I0726 17:33:37.158005   959 net.cpp:406] scale2a_branch1 <- res2a_branch1
I0726 17:33:37.158010   959 net.cpp:367] scale2a_branch1 -> res2a_branch1 (in-place)
I0726 17:33:37.158071   959 layer_factory.hpp:77] Creating layer scale2a_branch1
I0726 17:33:37.158294   959 net.cpp:122] Setting up scale2a_branch1
I0726 17:33:37.158304   959 net.cpp:129] Top shape: 1 256 180 320 (14745600)
I0726 17:33:37.158308   959 net.cpp:137] Memory required for data: 490291284
I0726 17:33:37.158313   959 layer_factory.hpp:77] Creating layer res2a_branch2a
I0726 17:33:37.158321   959 net.cpp:84] Creating Layer res2a_branch2a
I0726 17:33:37.158326   959 net.cpp:406] res2a_branch2a <- pool1_pool1_0_split_1
I0726 17:33:37.158335   959 net.cpp:380] res2a_branch2a -> res2a_branch2a
I0726 17:33:37.160604   959 net.cpp:122] Setting up res2a_branch2a
I0726 17:33:37.160620   959 net.cpp:129] Top shape: 1 64 180 320 (3686400)
I0726 17:33:37.160635   959 net.cpp:137] Memory required for data: 505036884
I0726 17:33:37.160641   959 layer_factory.hpp:77] Creating layer bn2a_branch2a
I0726 17:33:37.160650   959 net.cpp:84] Creating Layer bn2a_branch2a
I0726 17:33:37.160655   959 net.cpp:406] bn2a_branch2a <- res2a_branch2a
I0726 17:33:37.160661   959 net.cpp:367] bn2a_branch2a -> res2a_branch2a (in-place)
I0726 17:33:37.161011   959 net.cpp:122] Setting up bn2a_branch2a
I0726 17:33:37.161020   959 net.cpp:129] Top shape: 1 64 180 320 (3686400)
I0726 17:33:37.161036   959 net.cpp:137] Memory required for data: 519782484
I0726 17:33:37.161042   959 layer_factory.hpp:77] Creating layer scale2a_branch2a
I0726 17:33:37.161051   959 net.cpp:84] Creating Layer scale2a_branch2a
I0726 17:33:37.161054   959 net.cpp:406] scale2a_branch2a <- res2a_branch2a
I0726 17:33:37.161061   959 net.cpp:367] scale2a_branch2a -> res2a_branch2a (in-place)
I0726 17:33:37.161118   959 layer_factory.hpp:77] Creating layer scale2a_branch2a
I0726 17:33:37.161901   959 net.cpp:122] Setting up scale2a_branch2a
I0726 17:33:37.161916   959 net.cpp:129] Top shape: 1 64 180 320 (3686400)
I0726 17:33:37.161931   959 net.cpp:137] Memory required for data: 534528084
I0726 17:33:37.161940   959 layer_factory.hpp:77] Creating layer res2a_branch2a_relu
I0726 17:33:37.161949   959 net.cpp:84] Creating Layer res2a_branch2a_relu
I0726 17:33:37.161953   959 net.cpp:406] res2a_branch2a_relu <- res2a_branch2a
I0726 17:33:37.161958   959 net.cpp:367] res2a_branch2a_relu -> res2a_branch2a (in-place)
I0726 17:33:37.162614   959 net.cpp:122] Setting up res2a_branch2a_relu
I0726 17:33:37.162641   959 net.cpp:129] Top shape: 1 64 180 320 (3686400)
I0726 17:33:37.162644   959 net.cpp:137] Memory required for data: 549273684
I0726 17:33:37.162648   959 layer_factory.hpp:77] Creating layer res2a_branch2b
I0726 17:33:37.162657   959 net.cpp:84] Creating Layer res2a_branch2b
I0726 17:33:37.162660   959 net.cpp:406] res2a_branch2b <- res2a_branch2a
I0726 17:33:37.162667   959 net.cpp:380] res2a_branch2b -> res2a_branch2b
I0726 17:33:37.164896   959 net.cpp:122] Setting up res2a_branch2b
I0726 17:33:37.164912   959 net.cpp:129] Top shape: 1 64 180 320 (3686400)
I0726 17:33:37.164928   959 net.cpp:137] Memory required for data: 564019284
I0726 17:33:37.164934   959 layer_factory.hpp:77] Creating layer bn2a_branch2b
I0726 17:33:37.164942   959 net.cpp:84] Creating Layer bn2a_branch2b
I0726 17:33:37.164947   959 net.cpp:406] bn2a_branch2b <- res2a_branch2b
I0726 17:33:37.164952   959 net.cpp:367] bn2a_branch2b -> res2a_branch2b (in-place)
I0726 17:33:37.165307   959 net.cpp:122] Setting up bn2a_branch2b
I0726 17:33:37.165315   959 net.cpp:129] Top shape: 1 64 180 320 (3686400)
I0726 17:33:37.165330   959 net.cpp:137] Memory required for data: 578764884
I0726 17:33:37.165338   959 layer_factory.hpp:77] Creating layer scale2a_branch2b
I0726 17:33:37.165345   959 net.cpp:84] Creating Layer scale2a_branch2b
I0726 17:33:37.165349   959 net.cpp:406] scale2a_branch2b <- res2a_branch2b
I0726 17:33:37.165354   959 net.cpp:367] scale2a_branch2b -> res2a_branch2b (in-place)
I0726 17:33:37.165413   959 layer_factory.hpp:77] Creating layer scale2a_branch2b
I0726 17:33:37.166208   959 net.cpp:122] Setting up scale2a_branch2b
I0726 17:33:37.166223   959 net.cpp:129] Top shape: 1 64 180 320 (3686400)
I0726 17:33:37.166237   959 net.cpp:137] Memory required for data: 593510484
I0726 17:33:37.166244   959 layer_factory.hpp:77] Creating layer res2a_branch2b_relu
I0726 17:33:37.166251   959 net.cpp:84] Creating Layer res2a_branch2b_relu
I0726 17:33:37.166255   959 net.cpp:406] res2a_branch2b_relu <- res2a_branch2b
I0726 17:33:37.166260   959 net.cpp:367] res2a_branch2b_relu -> res2a_branch2b (in-place)
I0726 17:33:37.166448   959 net.cpp:122] Setting up res2a_branch2b_relu
I0726 17:33:37.166460   959 net.cpp:129] Top shape: 1 64 180 320 (3686400)
I0726 17:33:37.166463   959 net.cpp:137] Memory required for data: 608256084
I0726 17:33:37.166467   959 layer_factory.hpp:77] Creating layer res2a_branch2c
I0726 17:33:37.166477   959 net.cpp:84] Creating Layer res2a_branch2c
I0726 17:33:37.166482   959 net.cpp:406] res2a_branch2c <- res2a_branch2b
I0726 17:33:37.166488   959 net.cpp:380] res2a_branch2c -> res2a_branch2c
I0726 17:33:37.168704   959 net.cpp:122] Setting up res2a_branch2c
I0726 17:33:37.168733   959 net.cpp:129] Top shape: 1 256 180 320 (14745600)
I0726 17:33:37.168737   959 net.cpp:137] Memory required for data: 667238484
I0726 17:33:37.168743   959 layer_factory.hpp:77] Creating layer bn2a_branch2c
I0726 17:33:37.168751   959 net.cpp:84] Creating Layer bn2a_branch2c
I0726 17:33:37.168754   959 net.cpp:406] bn2a_branch2c <- res2a_branch2c
I0726 17:33:37.168761   959 net.cpp:367] bn2a_branch2c -> res2a_branch2c (in-place)
I0726 17:33:37.169102   959 net.cpp:122] Setting up bn2a_branch2c
I0726 17:33:37.169113   959 net.cpp:129] Top shape: 1 256 180 320 (14745600)
I0726 17:33:37.169127   959 net.cpp:137] Memory required for data: 726220884
I0726 17:33:37.169134   959 layer_factory.hpp:77] Creating layer scale2a_branch2c
I0726 17:33:37.169140   959 net.cpp:84] Creating Layer scale2a_branch2c
I0726 17:33:37.169144   959 net.cpp:406] scale2a_branch2c <- res2a_branch2c
I0726 17:33:37.169150   959 net.cpp:367] scale2a_branch2c -> res2a_branch2c (in-place)
I0726 17:33:37.169214   959 layer_factory.hpp:77] Creating layer scale2a_branch2c
I0726 17:33:37.169994   959 net.cpp:122] Setting up scale2a_branch2c
I0726 17:33:37.170008   959 net.cpp:129] Top shape: 1 256 180 320 (14745600)
I0726 17:33:37.170023   959 net.cpp:137] Memory required for data: 785203284
I0726 17:33:37.170030   959 layer_factory.hpp:77] Creating layer res2a
I0726 17:33:37.170037   959 net.cpp:84] Creating Layer res2a
I0726 17:33:37.170042   959 net.cpp:406] res2a <- res2a_branch1
I0726 17:33:37.170047   959 net.cpp:406] res2a <- res2a_branch2c
I0726 17:33:37.170053   959 net.cpp:380] res2a -> res2a
I0726 17:33:37.170096   959 net.cpp:122] Setting up res2a
I0726 17:33:37.170105   959 net.cpp:129] Top shape: 1 256 180 320 (14745600)
I0726 17:33:37.170109   959 net.cpp:137] Memory required for data: 844185684
I0726 17:33:37.170111   959 layer_factory.hpp:77] Creating layer res2a_relu
I0726 17:33:37.170119   959 net.cpp:84] Creating Layer res2a_relu
I0726 17:33:37.170121   959 net.cpp:406] res2a_relu <- res2a
I0726 17:33:37.170126   959 net.cpp:367] res2a_relu -> res2a (in-place)
I0726 17:33:37.170792   959 net.cpp:122] Setting up res2a_relu
I0726 17:33:37.170806   959 net.cpp:129] Top shape: 1 256 180 320 (14745600)
I0726 17:33:37.170821   959 net.cpp:137] Memory required for data: 903168084
I0726 17:33:37.170825   959 layer_factory.hpp:77] Creating layer res2a_res2a_relu_0_split
I0726 17:33:37.170832   959 net.cpp:84] Creating Layer res2a_res2a_relu_0_split
I0726 17:33:37.170836   959 net.cpp:406] res2a_res2a_relu_0_split <- res2a
I0726 17:33:37.170842   959 net.cpp:380] res2a_res2a_relu_0_split -> res2a_res2a_relu_0_split_0
I0726 17:33:37.170848   959 net.cpp:380] res2a_res2a_relu_0_split -> res2a_res2a_relu_0_split_1
I0726 17:33:37.170912   959 net.cpp:122] Setting up res2a_res2a_relu_0_split
I0726 17:33:37.170922   959 net.cpp:129] Top shape: 1 256 180 320 (14745600)
I0726 17:33:37.170925   959 net.cpp:129] Top shape: 1 256 180 320 (14745600)
I0726 17:33:37.170928   959 net.cpp:137] Memory required for data: 1021132884
I0726 17:33:37.170931   959 layer_factory.hpp:77] Creating layer res2b_branch2a
I0726 17:33:37.170940   959 net.cpp:84] Creating Layer res2b_branch2a
I0726 17:33:37.170946   959 net.cpp:406] res2b_branch2a <- res2a_res2a_relu_0_split_0
I0726 17:33:37.170956   959 net.cpp:380] res2b_branch2a -> res2b_branch2a
I0726 17:33:37.172725   959 net.cpp:122] Setting up res2b_branch2a
I0726 17:33:37.172740   959 net.cpp:129] Top shape: 1 64 180 320 (3686400)
I0726 17:33:37.172756   959 net.cpp:137] Memory required for data: 1035878484
I0726 17:33:37.172762   959 layer_factory.hpp:77] Creating layer bn2b_branch2a
I0726 17:33:37.172771   959 net.cpp:84] Creating Layer bn2b_branch2a
I0726 17:33:37.172775   959 net.cpp:406] bn2b_branch2a <- res2b_branch2a
I0726 17:33:37.172780   959 net.cpp:367] bn2b_branch2a -> res2b_branch2a (in-place)
I0726 17:33:37.173141   959 net.cpp:122] Setting up bn2b_branch2a
I0726 17:33:37.173151   959 net.cpp:129] Top shape: 1 64 180 320 (3686400)
I0726 17:33:37.173153   959 net.cpp:137] Memory required for data: 1050624084
I0726 17:33:37.173178   959 layer_factory.hpp:77] Creating layer scale2b_branch2a
I0726 17:33:37.173187   959 net.cpp:84] Creating Layer scale2b_branch2a
I0726 17:33:37.173190   959 net.cpp:406] scale2b_branch2a <- res2b_branch2a
I0726 17:33:37.173195   959 net.cpp:367] scale2b_branch2a -> res2b_branch2a (in-place)
I0726 17:33:37.173256   959 layer_factory.hpp:77] Creating layer scale2b_branch2a
I0726 17:33:37.173501   959 net.cpp:122] Setting up scale2b_branch2a
I0726 17:33:37.173511   959 net.cpp:129] Top shape: 1 64 180 320 (3686400)
I0726 17:33:37.173513   959 net.cpp:137] Memory required for data: 1065369684
I0726 17:33:37.173519   959 layer_factory.hpp:77] Creating layer res2b_branch2a_relu
I0726 17:33:37.173527   959 net.cpp:84] Creating Layer res2b_branch2a_relu
I0726 17:33:37.173532   959 net.cpp:406] res2b_branch2a_relu <- res2b_branch2a
I0726 17:33:37.173537   959 net.cpp:367] res2b_branch2a_relu -> res2b_branch2a (in-place)
I0726 17:33:37.174198   959 net.cpp:122] Setting up res2b_branch2a_relu
I0726 17:33:37.174226   959 net.cpp:129] Top shape: 1 64 180 320 (3686400)
I0726 17:33:37.174229   959 net.cpp:137] Memory required for data: 1080115284
I0726 17:33:37.174232   959 layer_factory.hpp:77] Creating layer res2b_branch2b
I0726 17:33:37.174240   959 net.cpp:84] Creating Layer res2b_branch2b
I0726 17:33:37.174245   959 net.cpp:406] res2b_branch2b <- res2b_branch2a
I0726 17:33:37.174252   959 net.cpp:380] res2b_branch2b -> res2b_branch2b
I0726 17:33:37.176488   959 net.cpp:122] Setting up res2b_branch2b
I0726 17:33:37.176514   959 net.cpp:129] Top shape: 1 64 180 320 (3686400)
I0726 17:33:37.176518   959 net.cpp:137] Memory required for data: 1094860884
I0726 17:33:37.176524   959 layer_factory.hpp:77] Creating layer bn2b_branch2b
I0726 17:33:37.176535   959 net.cpp:84] Creating Layer bn2b_branch2b
I0726 17:33:37.176539   959 net.cpp:406] bn2b_branch2b <- res2b_branch2b
I0726 17:33:37.176547   959 net.cpp:367] bn2b_branch2b -> res2b_branch2b (in-place)
I0726 17:33:37.177456   959 net.cpp:122] Setting up bn2b_branch2b
I0726 17:33:37.177470   959 net.cpp:129] Top shape: 1 64 180 320 (3686400)
I0726 17:33:37.177486   959 net.cpp:137] Memory required for data: 1109606484
I0726 17:33:37.177494   959 layer_factory.hpp:77] Creating layer scale2b_branch2b
I0726 17:33:37.177502   959 net.cpp:84] Creating Layer scale2b_branch2b
I0726 17:33:37.177506   959 net.cpp:406] scale2b_branch2b <- res2b_branch2b
I0726 17:33:37.177511   959 net.cpp:367] scale2b_branch2b -> res2b_branch2b (in-place)
I0726 17:33:37.177577   959 layer_factory.hpp:77] Creating layer scale2b_branch2b
I0726 17:33:37.177829   959 net.cpp:122] Setting up scale2b_branch2b
I0726 17:33:37.177840   959 net.cpp:129] Top shape: 1 64 180 320 (3686400)
I0726 17:33:37.177844   959 net.cpp:137] Memory required for data: 1124352084
I0726 17:33:37.177848   959 layer_factory.hpp:77] Creating layer res2b_branch2b_relu
I0726 17:33:37.177855   959 net.cpp:84] Creating Layer res2b_branch2b_relu
I0726 17:33:37.177858   959 net.cpp:406] res2b_branch2b_relu <- res2b_branch2b
I0726 17:33:37.177865   959 net.cpp:367] res2b_branch2b_relu -> res2b_branch2b (in-place)
I0726 17:33:37.178055   959 net.cpp:122] Setting up res2b_branch2b_relu
I0726 17:33:37.178066   959 net.cpp:129] Top shape: 1 64 180 320 (3686400)
I0726 17:33:37.178069   959 net.cpp:137] Memory required for data: 1139097684
I0726 17:33:37.178073   959 layer_factory.hpp:77] Creating layer res2b_branch2c
I0726 17:33:37.178081   959 net.cpp:84] Creating Layer res2b_branch2c
I0726 17:33:37.178087   959 net.cpp:406] res2b_branch2c <- res2b_branch2b
I0726 17:33:37.178092   959 net.cpp:380] res2b_branch2c -> res2b_branch2c
I0726 17:33:37.180348   959 net.cpp:122] Setting up res2b_branch2c
I0726 17:33:37.180377   959 net.cpp:129] Top shape: 1 256 180 320 (14745600)
I0726 17:33:37.180380   959 net.cpp:137] Memory required for data: 1198080084
I0726 17:33:37.180387   959 layer_factory.hpp:77] Creating layer bn2b_branch2c
I0726 17:33:37.180392   959 net.cpp:84] Creating Layer bn2b_branch2c
I0726 17:33:37.180397   959 net.cpp:406] bn2b_branch2c <- res2b_branch2c
I0726 17:33:37.180403   959 net.cpp:367] bn2b_branch2c -> res2b_branch2c (in-place)
I0726 17:33:37.180758   959 net.cpp:122] Setting up bn2b_branch2c
I0726 17:33:37.180768   959 net.cpp:129] Top shape: 1 256 180 320 (14745600)
I0726 17:33:37.180783   959 net.cpp:137] Memory required for data: 1257062484
I0726 17:33:37.180789   959 layer_factory.hpp:77] Creating layer scale2b_branch2c
I0726 17:33:37.180795   959 net.cpp:84] Creating Layer scale2b_branch2c
I0726 17:33:37.180799   959 net.cpp:406] scale2b_branch2c <- res2b_branch2c
I0726 17:33:37.180805   959 net.cpp:367] scale2b_branch2c -> res2b_branch2c (in-place)
I0726 17:33:37.180867   959 layer_factory.hpp:77] Creating layer scale2b_branch2c
I0726 17:33:37.181663   959 net.cpp:122] Setting up scale2b_branch2c
I0726 17:33:37.181677   959 net.cpp:129] Top shape: 1 256 180 320 (14745600)
I0726 17:33:37.181694   959 net.cpp:137] Memory required for data: 1316044884
I0726 17:33:37.181699   959 layer_factory.hpp:77] Creating layer res2b
I0726 17:33:37.181706   959 net.cpp:84] Creating Layer res2b
I0726 17:33:37.181710   959 net.cpp:406] res2b <- res2a_res2a_relu_0_split_1
I0726 17:33:37.181715   959 net.cpp:406] res2b <- res2b_branch2c
I0726 17:33:37.181720   959 net.cpp:380] res2b -> res2b
I0726 17:33:37.181759   959 net.cpp:122] Setting up res2b
I0726 17:33:37.181767   959 net.cpp:129] Top shape: 1 256 180 320 (14745600)
I0726 17:33:37.181771   959 net.cpp:137] Memory required for data: 1375027284
I0726 17:33:37.181773   959 layer_factory.hpp:77] Creating layer res2b_relu
I0726 17:33:37.181780   959 net.cpp:84] Creating Layer res2b_relu
I0726 17:33:37.181783   959 net.cpp:406] res2b_relu <- res2b
I0726 17:33:37.181787   959 net.cpp:367] res2b_relu -> res2b (in-place)
I0726 17:33:37.182458   959 net.cpp:122] Setting up res2b_relu
I0726 17:33:37.182472   959 net.cpp:129] Top shape: 1 256 180 320 (14745600)
I0726 17:33:37.182487   959 net.cpp:137] Memory required for data: 1434009684
I0726 17:33:37.182492   959 layer_factory.hpp:77] Creating layer res2b_res2b_relu_0_split
I0726 17:33:37.182498   959 net.cpp:84] Creating Layer res2b_res2b_relu_0_split
I0726 17:33:37.182502   959 net.cpp:406] res2b_res2b_relu_0_split <- res2b
I0726 17:33:37.182507   959 net.cpp:380] res2b_res2b_relu_0_split -> res2b_res2b_relu_0_split_0
I0726 17:33:37.182513   959 net.cpp:380] res2b_res2b_relu_0_split -> res2b_res2b_relu_0_split_1
I0726 17:33:37.182579   959 net.cpp:122] Setting up res2b_res2b_relu_0_split
I0726 17:33:37.182587   959 net.cpp:129] Top shape: 1 256 180 320 (14745600)
I0726 17:33:37.182591   959 net.cpp:129] Top shape: 1 256 180 320 (14745600)
I0726 17:33:37.182595   959 net.cpp:137] Memory required for data: 1551974484
I0726 17:33:37.182597   959 layer_factory.hpp:77] Creating layer res2c_branch2a
I0726 17:33:37.182606   959 net.cpp:84] Creating Layer res2c_branch2a
I0726 17:33:37.182612   959 net.cpp:406] res2c_branch2a <- res2b_res2b_relu_0_split_0
I0726 17:33:37.182617   959 net.cpp:380] res2c_branch2a -> res2c_branch2a
I0726 17:33:37.184855   959 net.cpp:122] Setting up res2c_branch2a
I0726 17:33:37.184881   959 net.cpp:129] Top shape: 1 64 180 320 (3686400)
I0726 17:33:37.184886   959 net.cpp:137] Memory required for data: 1566720084
I0726 17:33:37.184891   959 layer_factory.hpp:77] Creating layer bn2c_branch2a
I0726 17:33:37.184898   959 net.cpp:84] Creating Layer bn2c_branch2a
I0726 17:33:37.184902   959 net.cpp:406] bn2c_branch2a <- res2c_branch2a
I0726 17:33:37.184909   959 net.cpp:367] bn2c_branch2a -> res2c_branch2a (in-place)
I0726 17:33:37.185282   959 net.cpp:122] Setting up bn2c_branch2a
I0726 17:33:37.185292   959 net.cpp:129] Top shape: 1 64 180 320 (3686400)
I0726 17:33:37.185307   959 net.cpp:137] Memory required for data: 1581465684
I0726 17:33:37.185314   959 layer_factory.hpp:77] Creating layer scale2c_branch2a
I0726 17:33:37.185325   959 net.cpp:84] Creating Layer scale2c_branch2a
I0726 17:33:37.185329   959 net.cpp:406] scale2c_branch2a <- res2c_branch2a
I0726 17:33:37.185335   959 net.cpp:367] scale2c_branch2a -> res2c_branch2a (in-place)
I0726 17:33:37.185400   959 layer_factory.hpp:77] Creating layer scale2c_branch2a
I0726 17:33:37.186203   959 net.cpp:122] Setting up scale2c_branch2a
I0726 17:33:37.186216   959 net.cpp:129] Top shape: 1 64 180 320 (3686400)
I0726 17:33:37.186231   959 net.cpp:137] Memory required for data: 1596211284
I0726 17:33:37.186238   959 layer_factory.hpp:77] Creating layer res2c_branch2a_relu
I0726 17:33:37.186244   959 net.cpp:84] Creating Layer res2c_branch2a_relu
I0726 17:33:37.186247   959 net.cpp:406] res2c_branch2a_relu <- res2c_branch2a
I0726 17:33:37.186254   959 net.cpp:367] res2c_branch2a_relu -> res2c_branch2a (in-place)
I0726 17:33:37.186914   959 net.cpp:122] Setting up res2c_branch2a_relu
I0726 17:33:37.186928   959 net.cpp:129] Top shape: 1 64 180 320 (3686400)
I0726 17:33:37.186944   959 net.cpp:137] Memory required for data: 1610956884
I0726 17:33:37.186947   959 layer_factory.hpp:77] Creating layer res2c_branch2b
I0726 17:33:37.186956   959 net.cpp:84] Creating Layer res2c_branch2b
I0726 17:33:37.186961   959 net.cpp:406] res2c_branch2b <- res2c_branch2a
I0726 17:33:37.186969   959 net.cpp:380] res2c_branch2b -> res2c_branch2b
I0726 17:33:37.189219   959 net.cpp:122] Setting up res2c_branch2b
I0726 17:33:37.189234   959 net.cpp:129] Top shape: 1 64 180 320 (3686400)
I0726 17:33:37.189249   959 net.cpp:137] Memory required for data: 1625702484
I0726 17:33:37.189255   959 layer_factory.hpp:77] Creating layer bn2c_branch2b
I0726 17:33:37.189263   959 net.cpp:84] Creating Layer bn2c_branch2b
I0726 17:33:37.189267   959 net.cpp:406] bn2c_branch2b <- res2c_branch2b
I0726 17:33:37.189273   959 net.cpp:367] bn2c_branch2b -> res2c_branch2b (in-place)
I0726 17:33:37.189651   959 net.cpp:122] Setting up bn2c_branch2b
I0726 17:33:37.189661   959 net.cpp:129] Top shape: 1 64 180 320 (3686400)
I0726 17:33:37.189663   959 net.cpp:137] Memory required for data: 1640448084
I0726 17:33:37.189682   959 layer_factory.hpp:77] Creating layer scale2c_branch2b
I0726 17:33:37.189689   959 net.cpp:84] Creating Layer scale2c_branch2b
I0726 17:33:37.189694   959 net.cpp:406] scale2c_branch2b <- res2c_branch2b
I0726 17:33:37.189699   959 net.cpp:367] scale2c_branch2b -> res2c_branch2b (in-place)
I0726 17:33:37.189764   959 layer_factory.hpp:77] Creating layer scale2c_branch2b
I0726 17:33:37.190570   959 net.cpp:122] Setting up scale2c_branch2b
I0726 17:33:37.190584   959 net.cpp:129] Top shape: 1 64 180 320 (3686400)
I0726 17:33:37.190600   959 net.cpp:137] Memory required for data: 1655193684
I0726 17:33:37.190608   959 layer_factory.hpp:77] Creating layer res2c_branch2b_relu
I0726 17:33:37.190614   959 net.cpp:84] Creating Layer res2c_branch2b_relu
I0726 17:33:37.190618   959 net.cpp:406] res2c_branch2b_relu <- res2c_branch2b
I0726 17:33:37.190623   959 net.cpp:367] res2c_branch2b_relu -> res2c_branch2b (in-place)
I0726 17:33:37.190838   959 net.cpp:122] Setting up res2c_branch2b_relu
I0726 17:33:37.190850   959 net.cpp:129] Top shape: 1 64 180 320 (3686400)
I0726 17:33:37.190853   959 net.cpp:137] Memory required for data: 1669939284
I0726 17:33:37.190857   959 layer_factory.hpp:77] Creating layer res2c_branch2c
I0726 17:33:37.190868   959 net.cpp:84] Creating Layer res2c_branch2c
I0726 17:33:37.190874   959 net.cpp:406] res2c_branch2c <- res2c_branch2b
I0726 17:33:37.190881   959 net.cpp:380] res2c_branch2c -> res2c_branch2c
I0726 17:33:37.193142   959 net.cpp:122] Setting up res2c_branch2c
I0726 17:33:37.193169   959 net.cpp:129] Top shape: 1 256 180 320 (14745600)
I0726 17:33:37.193173   959 net.cpp:137] Memory required for data: 1728921684
I0726 17:33:37.193179   959 layer_factory.hpp:77] Creating layer bn2c_branch2c
I0726 17:33:37.193187   959 net.cpp:84] Creating Layer bn2c_branch2c
I0726 17:33:37.193192   959 net.cpp:406] bn2c_branch2c <- res2c_branch2c
I0726 17:33:37.193197   959 net.cpp:367] bn2c_branch2c -> res2c_branch2c (in-place)
I0726 17:33:37.193563   959 net.cpp:122] Setting up bn2c_branch2c
I0726 17:33:37.193573   959 net.cpp:129] Top shape: 1 256 180 320 (14745600)
I0726 17:33:37.193588   959 net.cpp:137] Memory required for data: 1787904084
I0726 17:33:37.193594   959 layer_factory.hpp:77] Creating layer scale2c_branch2c
I0726 17:33:37.193603   959 net.cpp:84] Creating Layer scale2c_branch2c
I0726 17:33:37.193606   959 net.cpp:406] scale2c_branch2c <- res2c_branch2c
I0726 17:33:37.193611   959 net.cpp:367] scale2c_branch2c -> res2c_branch2c (in-place)
I0726 17:33:37.193675   959 layer_factory.hpp:77] Creating layer scale2c_branch2c
I0726 17:33:37.193914   959 net.cpp:122] Setting up scale2c_branch2c
I0726 17:33:37.193924   959 net.cpp:129] Top shape: 1 256 180 320 (14745600)
I0726 17:33:37.193928   959 net.cpp:137] Memory required for data: 1846886484
I0726 17:33:37.193946   959 layer_factory.hpp:77] Creating layer res2c
I0726 17:33:37.193954   959 net.cpp:84] Creating Layer res2c
I0726 17:33:37.193958   959 net.cpp:406] res2c <- res2b_res2b_relu_0_split_1
I0726 17:33:37.193963   959 net.cpp:406] res2c <- res2c_branch2c
I0726 17:33:37.193969   959 net.cpp:380] res2c -> res2c
I0726 17:33:37.194008   959 net.cpp:122] Setting up res2c
I0726 17:33:37.194017   959 net.cpp:129] Top shape: 1 256 180 320 (14745600)
I0726 17:33:37.194020   959 net.cpp:137] Memory required for data: 1905868884
I0726 17:33:37.194023   959 layer_factory.hpp:77] Creating layer res2c_relu
I0726 17:33:37.194028   959 net.cpp:84] Creating Layer res2c_relu
I0726 17:33:37.194031   959 net.cpp:406] res2c_relu <- res2c
I0726 17:33:37.194037   959 net.cpp:367] res2c_relu -> res2c (in-place)
I0726 17:33:37.194711   959 net.cpp:122] Setting up res2c_relu
I0726 17:33:37.194725   959 net.cpp:129] Top shape: 1 256 180 320 (14745600)
I0726 17:33:37.194741   959 net.cpp:137] Memory required for data: 1964851284
I0726 17:33:37.194744   959 layer_factory.hpp:77] Creating layer res2c_res2c_relu_0_split
I0726 17:33:37.194751   959 net.cpp:84] Creating Layer res2c_res2c_relu_0_split
I0726 17:33:37.194753   959 net.cpp:406] res2c_res2c_relu_0_split <- res2c
I0726 17:33:37.194761   959 net.cpp:380] res2c_res2c_relu_0_split -> res2c_res2c_relu_0_split_0
I0726 17:33:37.194767   959 net.cpp:380] res2c_res2c_relu_0_split -> res2c_res2c_relu_0_split_1
I0726 17:33:37.194838   959 net.cpp:122] Setting up res2c_res2c_relu_0_split
I0726 17:33:37.194846   959 net.cpp:129] Top shape: 1 256 180 320 (14745600)
I0726 17:33:37.194850   959 net.cpp:129] Top shape: 1 256 180 320 (14745600)
I0726 17:33:37.194854   959 net.cpp:137] Memory required for data: 2082816084
I0726 17:33:37.194856   959 layer_factory.hpp:77] Creating layer res3a_branch1
I0726 17:33:37.194865   959 net.cpp:84] Creating Layer res3a_branch1
I0726 17:33:37.194871   959 net.cpp:406] res3a_branch1 <- res2c_res2c_relu_0_split_0
I0726 17:33:37.194876   959 net.cpp:380] res3a_branch1 -> res3a_branch1
I0726 17:33:37.197278   959 net.cpp:122] Setting up res3a_branch1
I0726 17:33:37.197305   959 net.cpp:129] Top shape: 1 512 90 160 (7372800)
I0726 17:33:37.197309   959 net.cpp:137] Memory required for data: 2112307284
I0726 17:33:37.197315   959 layer_factory.hpp:77] Creating layer bn3a_branch1
I0726 17:33:37.197327   959 net.cpp:84] Creating Layer bn3a_branch1
I0726 17:33:37.197331   959 net.cpp:406] bn3a_branch1 <- res3a_branch1
I0726 17:33:37.197336   959 net.cpp:367] bn3a_branch1 -> res3a_branch1 (in-place)
I0726 17:33:37.198233   959 net.cpp:122] Setting up bn3a_branch1
I0726 17:33:37.198247   959 net.cpp:129] Top shape: 1 512 90 160 (7372800)
I0726 17:33:37.198262   959 net.cpp:137] Memory required for data: 2141798484
I0726 17:33:37.198271   959 layer_factory.hpp:77] Creating layer scale3a_branch1
I0726 17:33:37.198278   959 net.cpp:84] Creating Layer scale3a_branch1
I0726 17:33:37.198282   959 net.cpp:406] scale3a_branch1 <- res3a_branch1
I0726 17:33:37.198288   959 net.cpp:367] scale3a_branch1 -> res3a_branch1 (in-place)
I0726 17:33:37.198349   959 layer_factory.hpp:77] Creating layer scale3a_branch1
I0726 17:33:37.198580   959 net.cpp:122] Setting up scale3a_branch1
I0726 17:33:37.198590   959 net.cpp:129] Top shape: 1 512 90 160 (7372800)
I0726 17:33:37.198593   959 net.cpp:137] Memory required for data: 2171289684
I0726 17:33:37.198599   959 layer_factory.hpp:77] Creating layer res3a_branch2a
I0726 17:33:37.198607   959 net.cpp:84] Creating Layer res3a_branch2a
I0726 17:33:37.198613   959 net.cpp:406] res3a_branch2a <- res2c_res2c_relu_0_split_1
I0726 17:33:37.198619   959 net.cpp:380] res3a_branch2a -> res3a_branch2a
I0726 17:33:37.200428   959 net.cpp:122] Setting up res3a_branch2a
I0726 17:33:37.200443   959 net.cpp:129] Top shape: 1 128 90 160 (1843200)
I0726 17:33:37.200459   959 net.cpp:137] Memory required for data: 2178662484
I0726 17:33:37.200464   959 layer_factory.hpp:77] Creating layer bn3a_branch2a
I0726 17:33:37.200472   959 net.cpp:84] Creating Layer bn3a_branch2a
I0726 17:33:37.200476   959 net.cpp:406] bn3a_branch2a <- res3a_branch2a
I0726 17:33:37.200484   959 net.cpp:367] bn3a_branch2a -> res3a_branch2a (in-place)
I0726 17:33:37.200846   959 net.cpp:122] Setting up bn3a_branch2a
I0726 17:33:37.200856   959 net.cpp:129] Top shape: 1 128 90 160 (1843200)
I0726 17:33:37.200870   959 net.cpp:137] Memory required for data: 2186035284
I0726 17:33:37.200878   959 layer_factory.hpp:77] Creating layer scale3a_branch2a
I0726 17:33:37.200886   959 net.cpp:84] Creating Layer scale3a_branch2a
I0726 17:33:37.200889   959 net.cpp:406] scale3a_branch2a <- res3a_branch2a
I0726 17:33:37.200896   959 net.cpp:367] scale3a_branch2a -> res3a_branch2a (in-place)
I0726 17:33:37.200963   959 layer_factory.hpp:77] Creating layer scale3a_branch2a
I0726 17:33:37.201195   959 net.cpp:122] Setting up scale3a_branch2a
I0726 17:33:37.201205   959 net.cpp:129] Top shape: 1 128 90 160 (1843200)
I0726 17:33:37.201208   959 net.cpp:137] Memory required for data: 2193408084
I0726 17:33:37.201213   959 layer_factory.hpp:77] Creating layer res3a_branch2a_relu
I0726 17:33:37.201220   959 net.cpp:84] Creating Layer res3a_branch2a_relu
I0726 17:33:37.201227   959 net.cpp:406] res3a_branch2a_relu <- res3a_branch2a
I0726 17:33:37.201232   959 net.cpp:367] res3a_branch2a_relu -> res3a_branch2a (in-place)
I0726 17:33:37.201905   959 net.cpp:122] Setting up res3a_branch2a_relu
I0726 17:33:37.201920   959 net.cpp:129] Top shape: 1 128 90 160 (1843200)
I0726 17:33:37.201934   959 net.cpp:137] Memory required for data: 2200780884
I0726 17:33:37.201938   959 layer_factory.hpp:77] Creating layer res3a_branch2b
I0726 17:33:37.201947   959 net.cpp:84] Creating Layer res3a_branch2b
I0726 17:33:37.201952   959 net.cpp:406] res3a_branch2b <- res3a_branch2a
I0726 17:33:37.201958   959 net.cpp:380] res3a_branch2b -> res3a_branch2b
I0726 17:33:37.204897   959 net.cpp:122] Setting up res3a_branch2b
I0726 17:33:37.204924   959 net.cpp:129] Top shape: 1 128 90 160 (1843200)
I0726 17:33:37.204928   959 net.cpp:137] Memory required for data: 2208153684
I0726 17:33:37.204934   959 layer_factory.hpp:77] Creating layer bn3a_branch2b
I0726 17:33:37.204943   959 net.cpp:84] Creating Layer bn3a_branch2b
I0726 17:33:37.204947   959 net.cpp:406] bn3a_branch2b <- res3a_branch2b
I0726 17:33:37.204952   959 net.cpp:367] bn3a_branch2b -> res3a_branch2b (in-place)
I0726 17:33:37.205320   959 net.cpp:122] Setting up bn3a_branch2b
I0726 17:33:37.205329   959 net.cpp:129] Top shape: 1 128 90 160 (1843200)
I0726 17:33:37.205344   959 net.cpp:137] Memory required for data: 2215526484
I0726 17:33:37.205351   959 layer_factory.hpp:77] Creating layer scale3a_branch2b
I0726 17:33:37.205364   959 net.cpp:84] Creating Layer scale3a_branch2b
I0726 17:33:37.205368   959 net.cpp:406] scale3a_branch2b <- res3a_branch2b
I0726 17:33:37.205374   959 net.cpp:367] scale3a_branch2b -> res3a_branch2b (in-place)
I0726 17:33:37.205441   959 layer_factory.hpp:77] Creating layer scale3a_branch2b
I0726 17:33:37.205664   959 net.cpp:122] Setting up scale3a_branch2b
I0726 17:33:37.205674   959 net.cpp:129] Top shape: 1 128 90 160 (1843200)
I0726 17:33:37.205678   959 net.cpp:137] Memory required for data: 2222899284
I0726 17:33:37.205684   959 layer_factory.hpp:77] Creating layer res3a_branch2b_relu
I0726 17:33:37.205689   959 net.cpp:84] Creating Layer res3a_branch2b_relu
I0726 17:33:37.205693   959 net.cpp:406] res3a_branch2b_relu <- res3a_branch2b
I0726 17:33:37.205699   959 net.cpp:367] res3a_branch2b_relu -> res3a_branch2b (in-place)
I0726 17:33:37.205893   959 net.cpp:122] Setting up res3a_branch2b_relu
I0726 17:33:37.205904   959 net.cpp:129] Top shape: 1 128 90 160 (1843200)
I0726 17:33:37.205909   959 net.cpp:137] Memory required for data: 2230272084
I0726 17:33:37.205912   959 layer_factory.hpp:77] Creating layer res3a_branch2c
I0726 17:33:37.205920   959 net.cpp:84] Creating Layer res3a_branch2c
I0726 17:33:37.205927   959 net.cpp:406] res3a_branch2c <- res3a_branch2b
I0726 17:33:37.205932   959 net.cpp:380] res3a_branch2c -> res3a_branch2c
I0726 17:33:37.208364   959 net.cpp:122] Setting up res3a_branch2c
I0726 17:33:37.208380   959 net.cpp:129] Top shape: 1 512 90 160 (7372800)
I0726 17:33:37.208395   959 net.cpp:137] Memory required for data: 2259763284
I0726 17:33:37.208401   959 layer_factory.hpp:77] Creating layer bn3a_branch2c
I0726 17:33:37.208410   959 net.cpp:84] Creating Layer bn3a_branch2c
I0726 17:33:37.208415   959 net.cpp:406] bn3a_branch2c <- res3a_branch2c
I0726 17:33:37.208420   959 net.cpp:367] bn3a_branch2c -> res3a_branch2c (in-place)
I0726 17:33:37.208784   959 net.cpp:122] Setting up bn3a_branch2c
I0726 17:33:37.208793   959 net.cpp:129] Top shape: 1 512 90 160 (7372800)
I0726 17:33:37.208808   959 net.cpp:137] Memory required for data: 2289254484
I0726 17:33:37.208815   959 layer_factory.hpp:77] Creating layer scale3a_branch2c
I0726 17:33:37.208822   959 net.cpp:84] Creating Layer scale3a_branch2c
I0726 17:33:37.208827   959 net.cpp:406] scale3a_branch2c <- res3a_branch2c
I0726 17:33:37.208832   959 net.cpp:367] scale3a_branch2c -> res3a_branch2c (in-place)
I0726 17:33:37.208894   959 layer_factory.hpp:77] Creating layer scale3a_branch2c
I0726 17:33:37.209672   959 net.cpp:122] Setting up scale3a_branch2c
I0726 17:33:37.209687   959 net.cpp:129] Top shape: 1 512 90 160 (7372800)
I0726 17:33:37.209702   959 net.cpp:137] Memory required for data: 2318745684
I0726 17:33:37.209708   959 layer_factory.hpp:77] Creating layer res3a
I0726 17:33:37.209714   959 net.cpp:84] Creating Layer res3a
I0726 17:33:37.209719   959 net.cpp:406] res3a <- res3a_branch1
I0726 17:33:37.209724   959 net.cpp:406] res3a <- res3a_branch2c
I0726 17:33:37.209728   959 net.cpp:380] res3a -> res3a
I0726 17:33:37.209774   959 net.cpp:122] Setting up res3a
I0726 17:33:37.209784   959 net.cpp:129] Top shape: 1 512 90 160 (7372800)
I0726 17:33:37.209786   959 net.cpp:137] Memory required for data: 2348236884
I0726 17:33:37.209790   959 layer_factory.hpp:77] Creating layer res3a_relu
I0726 17:33:37.209795   959 net.cpp:84] Creating Layer res3a_relu
I0726 17:33:37.209798   959 net.cpp:406] res3a_relu <- res3a
I0726 17:33:37.209805   959 net.cpp:367] res3a_relu -> res3a (in-place)
I0726 17:33:37.209997   959 net.cpp:122] Setting up res3a_relu
I0726 17:33:37.210009   959 net.cpp:129] Top shape: 1 512 90 160 (7372800)
I0726 17:33:37.210013   959 net.cpp:137] Memory required for data: 2377728084
I0726 17:33:37.210017   959 layer_factory.hpp:77] Creating layer res3a_res3a_relu_0_split
I0726 17:33:37.210022   959 net.cpp:84] Creating Layer res3a_res3a_relu_0_split
I0726 17:33:37.210026   959 net.cpp:406] res3a_res3a_relu_0_split <- res3a
I0726 17:33:37.210032   959 net.cpp:380] res3a_res3a_relu_0_split -> res3a_res3a_relu_0_split_0
I0726 17:33:37.210038   959 net.cpp:380] res3a_res3a_relu_0_split -> res3a_res3a_relu_0_split_1
I0726 17:33:37.210108   959 net.cpp:122] Setting up res3a_res3a_relu_0_split
I0726 17:33:37.210117   959 net.cpp:129] Top shape: 1 512 90 160 (7372800)
I0726 17:33:37.210121   959 net.cpp:129] Top shape: 1 512 90 160 (7372800)
I0726 17:33:37.210125   959 net.cpp:137] Memory required for data: 2436710484
I0726 17:33:37.210129   959 layer_factory.hpp:77] Creating layer res3b1_branch2a
I0726 17:33:37.210136   959 net.cpp:84] Creating Layer res3b1_branch2a
I0726 17:33:37.210140   959 net.cpp:406] res3b1_branch2a <- res3a_res3a_relu_0_split_0
I0726 17:33:37.210147   959 net.cpp:380] res3b1_branch2a -> res3b1_branch2a
I0726 17:33:37.212484   959 net.cpp:122] Setting up res3b1_branch2a
I0726 17:33:37.212501   959 net.cpp:129] Top shape: 1 128 90 160 (1843200)
I0726 17:33:37.212517   959 net.cpp:137] Memory required for data: 2444083284
I0726 17:33:37.212523   959 layer_factory.hpp:77] Creating layer bn3b1_branch2a
I0726 17:33:37.212532   959 net.cpp:84] Creating Layer bn3b1_branch2a
I0726 17:33:37.212537   959 net.cpp:406] bn3b1_branch2a <- res3b1_branch2a
I0726 17:33:37.212541   959 net.cpp:367] bn3b1_branch2a -> res3b1_branch2a (in-place)
I0726 17:33:37.212901   959 net.cpp:122] Setting up bn3b1_branch2a
I0726 17:33:37.212911   959 net.cpp:129] Top shape: 1 128 90 160 (1843200)
I0726 17:33:37.212926   959 net.cpp:137] Memory required for data: 2451456084
I0726 17:33:37.212934   959 layer_factory.hpp:77] Creating layer scale3b1_branch2a
I0726 17:33:37.212941   959 net.cpp:84] Creating Layer scale3b1_branch2a
I0726 17:33:37.212945   959 net.cpp:406] scale3b1_branch2a <- res3b1_branch2a
I0726 17:33:37.212950   959 net.cpp:367] scale3b1_branch2a -> res3b1_branch2a (in-place)
I0726 17:33:37.213017   959 layer_factory.hpp:77] Creating layer scale3b1_branch2a
I0726 17:33:37.213232   959 net.cpp:122] Setting up scale3b1_branch2a
I0726 17:33:37.213243   959 net.cpp:129] Top shape: 1 128 90 160 (1843200)
I0726 17:33:37.213246   959 net.cpp:137] Memory required for data: 2458828884
I0726 17:33:37.213251   959 layer_factory.hpp:77] Creating layer res3b1_branch2a_relu
I0726 17:33:37.213258   959 net.cpp:84] Creating Layer res3b1_branch2a_relu
I0726 17:33:37.213260   959 net.cpp:406] res3b1_branch2a_relu <- res3b1_branch2a
I0726 17:33:37.213266   959 net.cpp:367] res3b1_branch2a_relu -> res3b1_branch2a (in-place)
I0726 17:33:37.213948   959 net.cpp:122] Setting up res3b1_branch2a_relu
I0726 17:33:37.213963   959 net.cpp:129] Top shape: 1 128 90 160 (1843200)
I0726 17:33:37.213977   959 net.cpp:137] Memory required for data: 2466201684
I0726 17:33:37.213980   959 layer_factory.hpp:77] Creating layer res3b1_branch2b
I0726 17:33:37.213990   959 net.cpp:84] Creating Layer res3b1_branch2b
I0726 17:33:37.213995   959 net.cpp:406] res3b1_branch2b <- res3b1_branch2a
I0726 17:33:37.214001   959 net.cpp:380] res3b1_branch2b -> res3b1_branch2b
I0726 17:33:37.217365   959 net.cpp:122] Setting up res3b1_branch2b
I0726 17:33:37.217381   959 net.cpp:129] Top shape: 1 128 90 160 (1843200)
I0726 17:33:37.217396   959 net.cpp:137] Memory required for data: 2473574484
I0726 17:33:37.217402   959 layer_factory.hpp:77] Creating layer bn3b1_branch2b
I0726 17:33:37.217411   959 net.cpp:84] Creating Layer bn3b1_branch2b
I0726 17:33:37.217414   959 net.cpp:406] bn3b1_branch2b <- res3b1_branch2b
I0726 17:33:37.217419   959 net.cpp:367] bn3b1_branch2b -> res3b1_branch2b (in-place)
I0726 17:33:37.217790   959 net.cpp:122] Setting up bn3b1_branch2b
I0726 17:33:37.217800   959 net.cpp:129] Top shape: 1 128 90 160 (1843200)
I0726 17:33:37.217815   959 net.cpp:137] Memory required for data: 2480947284
I0726 17:33:37.217823   959 layer_factory.hpp:77] Creating layer scale3b1_branch2b
I0726 17:33:37.217829   959 net.cpp:84] Creating Layer scale3b1_branch2b
I0726 17:33:37.217834   959 net.cpp:406] scale3b1_branch2b <- res3b1_branch2b
I0726 17:33:37.217839   959 net.cpp:367] scale3b1_branch2b -> res3b1_branch2b (in-place)
I0726 17:33:37.217908   959 layer_factory.hpp:77] Creating layer scale3b1_branch2b
I0726 17:33:37.218129   959 net.cpp:122] Setting up scale3b1_branch2b
I0726 17:33:37.218139   959 net.cpp:129] Top shape: 1 128 90 160 (1843200)
I0726 17:33:37.218142   959 net.cpp:137] Memory required for data: 2488320084
I0726 17:33:37.218148   959 layer_factory.hpp:77] Creating layer res3b1_branch2b_relu
I0726 17:33:37.218153   959 net.cpp:84] Creating Layer res3b1_branch2b_relu
I0726 17:33:37.218158   959 net.cpp:406] res3b1_branch2b_relu <- res3b1_branch2b
I0726 17:33:37.218163   959 net.cpp:367] res3b1_branch2b_relu -> res3b1_branch2b (in-place)
I0726 17:33:37.218366   959 net.cpp:122] Setting up res3b1_branch2b_relu
I0726 17:33:37.218379   959 net.cpp:129] Top shape: 1 128 90 160 (1843200)
I0726 17:33:37.218382   959 net.cpp:137] Memory required for data: 2495692884
I0726 17:33:37.218385   959 layer_factory.hpp:77] Creating layer res3b1_branch2c
I0726 17:33:37.218394   959 net.cpp:84] Creating Layer res3b1_branch2c
I0726 17:33:37.218400   959 net.cpp:406] res3b1_branch2c <- res3b1_branch2b
I0726 17:33:37.218406   959 net.cpp:380] res3b1_branch2c -> res3b1_branch2c
I0726 17:33:37.220324   959 net.cpp:122] Setting up res3b1_branch2c
I0726 17:33:37.220340   959 net.cpp:129] Top shape: 1 512 90 160 (7372800)
I0726 17:33:37.220355   959 net.cpp:137] Memory required for data: 2525184084
I0726 17:33:37.220360   959 layer_factory.hpp:77] Creating layer bn3b1_branch2c
I0726 17:33:37.220368   959 net.cpp:84] Creating Layer bn3b1_branch2c
I0726 17:33:37.220372   959 net.cpp:406] bn3b1_branch2c <- res3b1_branch2c
I0726 17:33:37.220377   959 net.cpp:367] bn3b1_branch2c -> res3b1_branch2c (in-place)
I0726 17:33:37.220747   959 net.cpp:122] Setting up bn3b1_branch2c
I0726 17:33:37.220757   959 net.cpp:129] Top shape: 1 512 90 160 (7372800)
I0726 17:33:37.220772   959 net.cpp:137] Memory required for data: 2554675284
I0726 17:33:37.220778   959 layer_factory.hpp:77] Creating layer scale3b1_branch2c
I0726 17:33:37.220787   959 net.cpp:84] Creating Layer scale3b1_branch2c
I0726 17:33:37.220790   959 net.cpp:406] scale3b1_branch2c <- res3b1_branch2c
I0726 17:33:37.220795   959 net.cpp:367] scale3b1_branch2c -> res3b1_branch2c (in-place)
I0726 17:33:37.220856   959 layer_factory.hpp:77] Creating layer scale3b1_branch2c
I0726 17:33:37.221091   959 net.cpp:122] Setting up scale3b1_branch2c
I0726 17:33:37.221101   959 net.cpp:129] Top shape: 1 512 90 160 (7372800)
I0726 17:33:37.221103   959 net.cpp:137] Memory required for data: 2584166484
I0726 17:33:37.221109   959 layer_factory.hpp:77] Creating layer res3b1
I0726 17:33:37.221114   959 net.cpp:84] Creating Layer res3b1
I0726 17:33:37.221118   959 net.cpp:406] res3b1 <- res3a_res3a_relu_0_split_1
I0726 17:33:37.221122   959 net.cpp:406] res3b1 <- res3b1_branch2c
I0726 17:33:37.221129   959 net.cpp:380] res3b1 -> res3b1
I0726 17:33:37.221174   959 net.cpp:122] Setting up res3b1
I0726 17:33:37.221181   959 net.cpp:129] Top shape: 1 512 90 160 (7372800)
I0726 17:33:37.221185   959 net.cpp:137] Memory required for data: 2613657684
I0726 17:33:37.221189   959 layer_factory.hpp:77] Creating layer res3b1_relu
I0726 17:33:37.221194   959 net.cpp:84] Creating Layer res3b1_relu
I0726 17:33:37.221196   959 net.cpp:406] res3b1_relu <- res3b1
I0726 17:33:37.221201   959 net.cpp:367] res3b1_relu -> res3b1 (in-place)
I0726 17:33:37.221390   959 net.cpp:122] Setting up res3b1_relu
I0726 17:33:37.221401   959 net.cpp:129] Top shape: 1 512 90 160 (7372800)
I0726 17:33:37.221405   959 net.cpp:137] Memory required for data: 2643148884
I0726 17:33:37.221408   959 layer_factory.hpp:77] Creating layer res3b1_res3b1_relu_0_split
I0726 17:33:37.221415   959 net.cpp:84] Creating Layer res3b1_res3b1_relu_0_split
I0726 17:33:37.221418   959 net.cpp:406] res3b1_res3b1_relu_0_split <- res3b1
I0726 17:33:37.221423   959 net.cpp:380] res3b1_res3b1_relu_0_split -> res3b1_res3b1_relu_0_split_0
I0726 17:33:37.221429   959 net.cpp:380] res3b1_res3b1_relu_0_split -> res3b1_res3b1_relu_0_split_1
I0726 17:33:37.221499   959 net.cpp:122] Setting up res3b1_res3b1_relu_0_split
I0726 17:33:37.221508   959 net.cpp:129] Top shape: 1 512 90 160 (7372800)
I0726 17:33:37.221513   959 net.cpp:129] Top shape: 1 512 90 160 (7372800)
I0726 17:33:37.221515   959 net.cpp:137] Memory required for data: 2702131284
I0726 17:33:37.221518   959 layer_factory.hpp:77] Creating layer res3b2_branch2a
I0726 17:33:37.221527   959 net.cpp:84] Creating Layer res3b2_branch2a
I0726 17:33:37.221531   959 net.cpp:406] res3b2_branch2a <- res3b1_res3b1_relu_0_split_0
I0726 17:33:37.221541   959 net.cpp:380] res3b2_branch2a -> res3b2_branch2a
I0726 17:33:37.223393   959 net.cpp:122] Setting up res3b2_branch2a
I0726 17:33:37.223408   959 net.cpp:129] Top shape: 1 128 90 160 (1843200)
I0726 17:33:37.223423   959 net.cpp:137] Memory required for data: 2709504084
I0726 17:33:37.223429   959 layer_factory.hpp:77] Creating layer bn3b2_branch2a
I0726 17:33:37.223438   959 net.cpp:84] Creating Layer bn3b2_branch2a
I0726 17:33:37.223443   959 net.cpp:406] bn3b2_branch2a <- res3b2_branch2a
I0726 17:33:37.223448   959 net.cpp:367] bn3b2_branch2a -> res3b2_branch2a (in-place)
I0726 17:33:37.223819   959 net.cpp:122] Setting up bn3b2_branch2a
I0726 17:33:37.223829   959 net.cpp:129] Top shape: 1 128 90 160 (1843200)
I0726 17:33:37.223843   959 net.cpp:137] Memory required for data: 2716876884
I0726 17:33:37.223851   959 layer_factory.hpp:77] Creating layer scale3b2_branch2a
I0726 17:33:37.223858   959 net.cpp:84] Creating Layer scale3b2_branch2a
I0726 17:33:37.223863   959 net.cpp:406] scale3b2_branch2a <- res3b2_branch2a
I0726 17:33:37.223868   959 net.cpp:367] scale3b2_branch2a -> res3b2_branch2a (in-place)
I0726 17:33:37.223935   959 layer_factory.hpp:77] Creating layer scale3b2_branch2a
I0726 17:33:37.224153   959 net.cpp:122] Setting up scale3b2_branch2a
I0726 17:33:37.224162   959 net.cpp:129] Top shape: 1 128 90 160 (1843200)
I0726 17:33:37.224165   959 net.cpp:137] Memory required for data: 2724249684
I0726 17:33:37.224171   959 layer_factory.hpp:77] Creating layer res3b2_branch2a_relu
I0726 17:33:37.224179   959 net.cpp:84] Creating Layer res3b2_branch2a_relu
I0726 17:33:37.224184   959 net.cpp:406] res3b2_branch2a_relu <- res3b2_branch2a
I0726 17:33:37.224189   959 net.cpp:367] res3b2_branch2a_relu -> res3b2_branch2a (in-place)
I0726 17:33:37.224859   959 net.cpp:122] Setting up res3b2_branch2a_relu
I0726 17:33:37.224886   959 net.cpp:129] Top shape: 1 128 90 160 (1843200)
I0726 17:33:37.224890   959 net.cpp:137] Memory required for data: 2731622484
I0726 17:33:37.224894   959 layer_factory.hpp:77] Creating layer res3b2_branch2b
I0726 17:33:37.224901   959 net.cpp:84] Creating Layer res3b2_branch2b
I0726 17:33:37.224906   959 net.cpp:406] res3b2_branch2b <- res3b2_branch2a
I0726 17:33:37.224912   959 net.cpp:380] res3b2_branch2b -> res3b2_branch2b
I0726 17:33:37.227825   959 net.cpp:122] Setting up res3b2_branch2b
I0726 17:33:37.227841   959 net.cpp:129] Top shape: 1 128 90 160 (1843200)
I0726 17:33:37.227857   959 net.cpp:137] Memory required for data: 2738995284
I0726 17:33:37.227862   959 layer_factory.hpp:77] Creating layer bn3b2_branch2b
I0726 17:33:37.227870   959 net.cpp:84] Creating Layer bn3b2_branch2b
I0726 17:33:37.227874   959 net.cpp:406] bn3b2_branch2b <- res3b2_branch2b
I0726 17:33:37.227880   959 net.cpp:367] bn3b2_branch2b -> res3b2_branch2b (in-place)
I0726 17:33:37.228260   959 net.cpp:122] Setting up bn3b2_branch2b
I0726 17:33:37.228269   959 net.cpp:129] Top shape: 1 128 90 160 (1843200)
I0726 17:33:37.228283   959 net.cpp:137] Memory required for data: 2746368084
I0726 17:33:37.228291   959 layer_factory.hpp:77] Creating layer scale3b2_branch2b
I0726 17:33:37.228298   959 net.cpp:84] Creating Layer scale3b2_branch2b
I0726 17:33:37.228303   959 net.cpp:406] scale3b2_branch2b <- res3b2_branch2b
I0726 17:33:37.228309   959 net.cpp:367] scale3b2_branch2b -> res3b2_branch2b (in-place)
I0726 17:33:37.228377   959 layer_factory.hpp:77] Creating layer scale3b2_branch2b
I0726 17:33:37.228600   959 net.cpp:122] Setting up scale3b2_branch2b
I0726 17:33:37.228610   959 net.cpp:129] Top shape: 1 128 90 160 (1843200)
I0726 17:33:37.228613   959 net.cpp:137] Memory required for data: 2753740884
I0726 17:33:37.228619   959 layer_factory.hpp:77] Creating layer res3b2_branch2b_relu
I0726 17:33:37.228626   959 net.cpp:84] Creating Layer res3b2_branch2b_relu
I0726 17:33:37.228628   959 net.cpp:406] res3b2_branch2b_relu <- res3b2_branch2b
I0726 17:33:37.228634   959 net.cpp:367] res3b2_branch2b_relu -> res3b2_branch2b (in-place)
I0726 17:33:37.228837   959 net.cpp:122] Setting up res3b2_branch2b_relu
I0726 17:33:37.228848   959 net.cpp:129] Top shape: 1 128 90 160 (1843200)
I0726 17:33:37.228852   959 net.cpp:137] Memory required for data: 2761113684
I0726 17:33:37.228855   959 layer_factory.hpp:77] Creating layer res3b2_branch2c
I0726 17:33:37.228864   959 net.cpp:84] Creating Layer res3b2_branch2c
I0726 17:33:37.228870   959 net.cpp:406] res3b2_branch2c <- res3b2_branch2b
I0726 17:33:37.228878   959 net.cpp:380] res3b2_branch2c -> res3b2_branch2c
I0726 17:33:37.231744   959 net.cpp:122] Setting up res3b2_branch2c
I0726 17:33:37.231760   959 net.cpp:129] Top shape: 1 512 90 160 (7372800)
I0726 17:33:37.231775   959 net.cpp:137] Memory required for data: 2790604884
I0726 17:33:37.231781   959 layer_factory.hpp:77] Creating layer bn3b2_branch2c
I0726 17:33:37.231789   959 net.cpp:84] Creating Layer bn3b2_branch2c
I0726 17:33:37.231793   959 net.cpp:406] bn3b2_branch2c <- res3b2_branch2c
I0726 17:33:37.231801   959 net.cpp:367] bn3b2_branch2c -> res3b2_branch2c (in-place)
I0726 17:33:37.232218   959 net.cpp:122] Setting up bn3b2_branch2c
I0726 17:33:37.232228   959 net.cpp:129] Top shape: 1 512 90 160 (7372800)
I0726 17:33:37.232244   959 net.cpp:137] Memory required for data: 2820096084
I0726 17:33:37.232250   959 layer_factory.hpp:77] Creating layer scale3b2_branch2c
I0726 17:33:37.232257   959 net.cpp:84] Creating Layer scale3b2_branch2c
I0726 17:33:37.232262   959 net.cpp:406] scale3b2_branch2c <- res3b2_branch2c
I0726 17:33:37.232267   959 net.cpp:367] scale3b2_branch2c -> res3b2_branch2c (in-place)
I0726 17:33:37.232331   959 layer_factory.hpp:77] Creating layer scale3b2_branch2c
I0726 17:33:37.233115   959 net.cpp:122] Setting up scale3b2_branch2c
I0726 17:33:37.233129   959 net.cpp:129] Top shape: 1 512 90 160 (7372800)
I0726 17:33:37.233144   959 net.cpp:137] Memory required for data: 2849587284
I0726 17:33:37.233151   959 layer_factory.hpp:77] Creating layer res3b2
I0726 17:33:37.233157   959 net.cpp:84] Creating Layer res3b2
I0726 17:33:37.233160   959 net.cpp:406] res3b2 <- res3b1_res3b1_relu_0_split_1
I0726 17:33:37.233165   959 net.cpp:406] res3b2 <- res3b2_branch2c
I0726 17:33:37.233171   959 net.cpp:380] res3b2 -> res3b2
I0726 17:33:37.233219   959 net.cpp:122] Setting up res3b2
I0726 17:33:37.233228   959 net.cpp:129] Top shape: 1 512 90 160 (7372800)
I0726 17:33:37.233232   959 net.cpp:137] Memory required for data: 2879078484
I0726 17:33:37.233234   959 layer_factory.hpp:77] Creating layer res3b2_relu
I0726 17:33:37.233239   959 net.cpp:84] Creating Layer res3b2_relu
I0726 17:33:37.233242   959 net.cpp:406] res3b2_relu <- res3b2
I0726 17:33:37.233248   959 net.cpp:367] res3b2_relu -> res3b2 (in-place)
I0726 17:33:37.233455   959 net.cpp:122] Setting up res3b2_relu
I0726 17:33:37.233467   959 net.cpp:129] Top shape: 1 512 90 160 (7372800)
I0726 17:33:37.233471   959 net.cpp:137] Memory required for data: 2908569684
I0726 17:33:37.233475   959 layer_factory.hpp:77] Creating layer res3b2_res3b2_relu_0_split
I0726 17:33:37.233482   959 net.cpp:84] Creating Layer res3b2_res3b2_relu_0_split
I0726 17:33:37.233486   959 net.cpp:406] res3b2_res3b2_relu_0_split <- res3b2
I0726 17:33:37.233491   959 net.cpp:380] res3b2_res3b2_relu_0_split -> res3b2_res3b2_relu_0_split_0
I0726 17:33:37.233497   959 net.cpp:380] res3b2_res3b2_relu_0_split -> res3b2_res3b2_relu_0_split_1
I0726 17:33:37.233572   959 net.cpp:122] Setting up res3b2_res3b2_relu_0_split
I0726 17:33:37.233582   959 net.cpp:129] Top shape: 1 512 90 160 (7372800)
I0726 17:33:37.233585   959 net.cpp:129] Top shape: 1 512 90 160 (7372800)
I0726 17:33:37.233589   959 net.cpp:137] Memory required for data: 2967552084
I0726 17:33:37.233592   959 layer_factory.hpp:77] Creating layer res3b3_branch2a
I0726 17:33:37.233603   959 net.cpp:84] Creating Layer res3b3_branch2a
I0726 17:33:37.233609   959 net.cpp:406] res3b3_branch2a <- res3b2_res3b2_relu_0_split_0
I0726 17:33:37.233616   959 net.cpp:380] res3b3_branch2a -> res3b3_branch2a
I0726 17:33:37.235484   959 net.cpp:122] Setting up res3b3_branch2a
I0726 17:33:37.235499   959 net.cpp:129] Top shape: 1 128 90 160 (1843200)
I0726 17:33:37.235514   959 net.cpp:137] Memory required for data: 2974924884
I0726 17:33:37.235520   959 layer_factory.hpp:77] Creating layer bn3b3_branch2a
I0726 17:33:37.235528   959 net.cpp:84] Creating Layer bn3b3_branch2a
I0726 17:33:37.235533   959 net.cpp:406] bn3b3_branch2a <- res3b3_branch2a
I0726 17:33:37.235539   959 net.cpp:367] bn3b3_branch2a -> res3b3_branch2a (in-place)
I0726 17:33:37.235913   959 net.cpp:122] Setting up bn3b3_branch2a
I0726 17:33:37.235924   959 net.cpp:129] Top shape: 1 128 90 160 (1843200)
I0726 17:33:37.235937   959 net.cpp:137] Memory required for data: 2982297684
I0726 17:33:37.235961   959 layer_factory.hpp:77] Creating layer scale3b3_branch2a
I0726 17:33:37.235968   959 net.cpp:84] Creating Layer scale3b3_branch2a
I0726 17:33:37.235972   959 net.cpp:406] scale3b3_branch2a <- res3b3_branch2a
I0726 17:33:37.235977   959 net.cpp:367] scale3b3_branch2a -> res3b3_branch2a (in-place)
I0726 17:33:37.236050   959 layer_factory.hpp:77] Creating layer scale3b3_branch2a
I0726 17:33:37.236277   959 net.cpp:122] Setting up scale3b3_branch2a
I0726 17:33:37.236287   959 net.cpp:129] Top shape: 1 128 90 160 (1843200)
I0726 17:33:37.236290   959 net.cpp:137] Memory required for data: 2989670484
I0726 17:33:37.236296   959 layer_factory.hpp:77] Creating layer res3b3_branch2a_relu
I0726 17:33:37.236301   959 net.cpp:84] Creating Layer res3b3_branch2a_relu
I0726 17:33:37.236305   959 net.cpp:406] res3b3_branch2a_relu <- res3b3_branch2a
I0726 17:33:37.236310   959 net.cpp:367] res3b3_branch2a_relu -> res3b3_branch2a (in-place)
I0726 17:33:37.236990   959 net.cpp:122] Setting up res3b3_branch2a_relu
I0726 17:33:37.237004   959 net.cpp:129] Top shape: 1 128 90 160 (1843200)
I0726 17:33:37.237020   959 net.cpp:137] Memory required for data: 2997043284
I0726 17:33:37.237023   959 layer_factory.hpp:77] Creating layer res3b3_branch2b
I0726 17:33:37.237033   959 net.cpp:84] Creating Layer res3b3_branch2b
I0726 17:33:37.237037   959 net.cpp:406] res3b3_branch2b <- res3b3_branch2a
I0726 17:33:37.237043   959 net.cpp:380] res3b3_branch2b -> res3b3_branch2b
I0726 17:33:37.240067   959 net.cpp:122] Setting up res3b3_branch2b
I0726 17:33:37.240083   959 net.cpp:129] Top shape: 1 128 90 160 (1843200)
I0726 17:33:37.240098   959 net.cpp:137] Memory required for data: 3004416084
I0726 17:33:37.240104   959 layer_factory.hpp:77] Creating layer bn3b3_branch2b
I0726 17:33:37.240113   959 net.cpp:84] Creating Layer bn3b3_branch2b
I0726 17:33:37.240118   959 net.cpp:406] bn3b3_branch2b <- res3b3_branch2b
I0726 17:33:37.240123   959 net.cpp:367] bn3b3_branch2b -> res3b3_branch2b (in-place)
I0726 17:33:37.240516   959 net.cpp:122] Setting up bn3b3_branch2b
I0726 17:33:37.240527   959 net.cpp:129] Top shape: 1 128 90 160 (1843200)
I0726 17:33:37.240542   959 net.cpp:137] Memory required for data: 3011788884
I0726 17:33:37.240550   959 layer_factory.hpp:77] Creating layer scale3b3_branch2b
I0726 17:33:37.240556   959 net.cpp:84] Creating Layer scale3b3_branch2b
I0726 17:33:37.240561   959 net.cpp:406] scale3b3_branch2b <- res3b3_branch2b
I0726 17:33:37.240566   959 net.cpp:367] scale3b3_branch2b -> res3b3_branch2b (in-place)
I0726 17:33:37.240639   959 layer_factory.hpp:77] Creating layer scale3b3_branch2b
I0726 17:33:37.240869   959 net.cpp:122] Setting up scale3b3_branch2b
I0726 17:33:37.240878   959 net.cpp:129] Top shape: 1 128 90 160 (1843200)
I0726 17:33:37.240881   959 net.cpp:137] Memory required for data: 3019161684
I0726 17:33:37.240887   959 layer_factory.hpp:77] Creating layer res3b3_branch2b_relu
I0726 17:33:37.240892   959 net.cpp:84] Creating Layer res3b3_branch2b_relu
I0726 17:33:37.240896   959 net.cpp:406] res3b3_branch2b_relu <- res3b3_branch2b
I0726 17:33:37.240900   959 net.cpp:367] res3b3_branch2b_relu -> res3b3_branch2b (in-place)
I0726 17:33:37.241134   959 net.cpp:122] Setting up res3b3_branch2b_relu
I0726 17:33:37.241147   959 net.cpp:129] Top shape: 1 128 90 160 (1843200)
I0726 17:33:37.241150   959 net.cpp:137] Memory required for data: 3026534484
I0726 17:33:37.241154   959 layer_factory.hpp:77] Creating layer res3b3_branch2c
I0726 17:33:37.241163   959 net.cpp:84] Creating Layer res3b3_branch2c
I0726 17:33:37.241169   959 net.cpp:406] res3b3_branch2c <- res3b3_branch2b
I0726 17:33:37.241176   959 net.cpp:380] res3b3_branch2c -> res3b3_branch2c
I0726 17:33:37.243131   959 net.cpp:122] Setting up res3b3_branch2c
I0726 17:33:37.243146   959 net.cpp:129] Top shape: 1 512 90 160 (7372800)
I0726 17:33:37.243162   959 net.cpp:137] Memory required for data: 3056025684
I0726 17:33:37.243168   959 layer_factory.hpp:77] Creating layer bn3b3_branch2c
I0726 17:33:37.243176   959 net.cpp:84] Creating Layer bn3b3_branch2c
I0726 17:33:37.243180   959 net.cpp:406] bn3b3_branch2c <- res3b3_branch2c
I0726 17:33:37.243186   959 net.cpp:367] bn3b3_branch2c -> res3b3_branch2c (in-place)
I0726 17:33:37.243598   959 net.cpp:122] Setting up bn3b3_branch2c
I0726 17:33:37.243612   959 net.cpp:129] Top shape: 1 512 90 160 (7372800)
I0726 17:33:37.243614   959 net.cpp:137] Memory required for data: 3085516884
I0726 17:33:37.243623   959 layer_factory.hpp:77] Creating layer scale3b3_branch2c
I0726 17:33:37.243628   959 net.cpp:84] Creating Layer scale3b3_branch2c
I0726 17:33:37.243633   959 net.cpp:406] scale3b3_branch2c <- res3b3_branch2c
I0726 17:33:37.243638   959 net.cpp:367] scale3b3_branch2c -> res3b3_branch2c (in-place)
I0726 17:33:37.243703   959 layer_factory.hpp:77] Creating layer scale3b3_branch2c
I0726 17:33:37.243945   959 net.cpp:122] Setting up scale3b3_branch2c
I0726 17:33:37.243955   959 net.cpp:129] Top shape: 1 512 90 160 (7372800)
I0726 17:33:37.243959   959 net.cpp:137] Memory required for data: 3115008084
I0726 17:33:37.243964   959 layer_factory.hpp:77] Creating layer res3b3
I0726 17:33:37.243969   959 net.cpp:84] Creating Layer res3b3
I0726 17:33:37.243973   959 net.cpp:406] res3b3 <- res3b2_res3b2_relu_0_split_1
I0726 17:33:37.243978   959 net.cpp:406] res3b3 <- res3b3_branch2c
I0726 17:33:37.243983   959 net.cpp:380] res3b3 -> res3b3
I0726 17:33:37.244029   959 net.cpp:122] Setting up res3b3
I0726 17:33:37.244037   959 net.cpp:129] Top shape: 1 512 90 160 (7372800)
I0726 17:33:37.244040   959 net.cpp:137] Memory required for data: 3144499284
I0726 17:33:37.244043   959 layer_factory.hpp:77] Creating layer res3b3_relu
I0726 17:33:37.244050   959 net.cpp:84] Creating Layer res3b3_relu
I0726 17:33:37.244052   959 net.cpp:406] res3b3_relu <- res3b3
I0726 17:33:37.244057   959 net.cpp:367] res3b3_relu -> res3b3 (in-place)
I0726 17:33:37.244256   959 net.cpp:122] Setting up res3b3_relu
I0726 17:33:37.244269   959 net.cpp:129] Top shape: 1 512 90 160 (7372800)
I0726 17:33:37.244273   959 net.cpp:137] Memory required for data: 3173990484
I0726 17:33:37.244277   959 layer_factory.hpp:77] Creating layer res3b3_res3b3_relu_0_split
I0726 17:33:37.244282   959 net.cpp:84] Creating Layer res3b3_res3b3_relu_0_split
I0726 17:33:37.244285   959 net.cpp:406] res3b3_res3b3_relu_0_split <- res3b3
I0726 17:33:37.244290   959 net.cpp:380] res3b3_res3b3_relu_0_split -> res3b3_res3b3_relu_0_split_0
I0726 17:33:37.244297   959 net.cpp:380] res3b3_res3b3_relu_0_split -> res3b3_res3b3_relu_0_split_1
I0726 17:33:37.244374   959 net.cpp:122] Setting up res3b3_res3b3_relu_0_split
I0726 17:33:37.244382   959 net.cpp:129] Top shape: 1 512 90 160 (7372800)
I0726 17:33:37.244386   959 net.cpp:129] Top shape: 1 512 90 160 (7372800)
I0726 17:33:37.244390   959 net.cpp:137] Memory required for data: 3232972884
I0726 17:33:37.244393   959 layer_factory.hpp:77] Creating layer res4a_branch1
I0726 17:33:37.244401   959 net.cpp:84] Creating Layer res4a_branch1
I0726 17:33:37.244405   959 net.cpp:406] res4a_branch1 <- res3b3_res3b3_relu_0_split_0
I0726 17:33:37.244412   959 net.cpp:380] res4a_branch1 -> res4a_branch1
I0726 17:33:37.247844   959 net.cpp:122] Setting up res4a_branch1
I0726 17:33:37.247871   959 net.cpp:129] Top shape: 1 1024 45 80 (3686400)
I0726 17:33:37.247875   959 net.cpp:137] Memory required for data: 3247718484
I0726 17:33:37.247881   959 layer_factory.hpp:77] Creating layer bn4a_branch1
I0726 17:33:37.247890   959 net.cpp:84] Creating Layer bn4a_branch1
I0726 17:33:37.247895   959 net.cpp:406] bn4a_branch1 <- res4a_branch1
I0726 17:33:37.247900   959 net.cpp:367] bn4a_branch1 -> res4a_branch1 (in-place)
I0726 17:33:37.248276   959 net.cpp:122] Setting up bn4a_branch1
I0726 17:33:37.248286   959 net.cpp:129] Top shape: 1 1024 45 80 (3686400)
I0726 17:33:37.248288   959 net.cpp:137] Memory required for data: 3262464084
I0726 17:33:37.248307   959 layer_factory.hpp:77] Creating layer scale4a_branch1
I0726 17:33:37.248314   959 net.cpp:84] Creating Layer scale4a_branch1
I0726 17:33:37.248317   959 net.cpp:406] scale4a_branch1 <- res4a_branch1
I0726 17:33:37.248322   959 net.cpp:367] scale4a_branch1 -> res4a_branch1 (in-place)
I0726 17:33:37.248392   959 layer_factory.hpp:77] Creating layer scale4a_branch1
I0726 17:33:37.248625   959 net.cpp:122] Setting up scale4a_branch1
I0726 17:33:37.248636   959 net.cpp:129] Top shape: 1 1024 45 80 (3686400)
I0726 17:33:37.248638   959 net.cpp:137] Memory required for data: 3277209684
I0726 17:33:37.248644   959 layer_factory.hpp:77] Creating layer res4a_branch2a
I0726 17:33:37.248652   959 net.cpp:84] Creating Layer res4a_branch2a
I0726 17:33:37.248656   959 net.cpp:406] res4a_branch2a <- res3b3_res3b3_relu_0_split_1
I0726 17:33:37.248662   959 net.cpp:380] res4a_branch2a -> res4a_branch2a
I0726 17:33:37.250597   959 net.cpp:122] Setting up res4a_branch2a
I0726 17:33:37.250612   959 net.cpp:129] Top shape: 1 256 45 80 (921600)
I0726 17:33:37.250628   959 net.cpp:137] Memory required for data: 3280896084
I0726 17:33:37.250633   959 layer_factory.hpp:77] Creating layer bn4a_branch2a
I0726 17:33:37.250643   959 net.cpp:84] Creating Layer bn4a_branch2a
I0726 17:33:37.250646   959 net.cpp:406] bn4a_branch2a <- res4a_branch2a
I0726 17:33:37.250653   959 net.cpp:367] bn4a_branch2a -> res4a_branch2a (in-place)
I0726 17:33:37.251041   959 net.cpp:122] Setting up bn4a_branch2a
I0726 17:33:37.251050   959 net.cpp:129] Top shape: 1 256 45 80 (921600)
I0726 17:33:37.251065   959 net.cpp:137] Memory required for data: 3284582484
I0726 17:33:37.251080   959 layer_factory.hpp:77] Creating layer scale4a_branch2a
I0726 17:33:37.251087   959 net.cpp:84] Creating Layer scale4a_branch2a
I0726 17:33:37.251092   959 net.cpp:406] scale4a_branch2a <- res4a_branch2a
I0726 17:33:37.251096   959 net.cpp:367] scale4a_branch2a -> res4a_branch2a (in-place)
I0726 17:33:37.251171   959 layer_factory.hpp:77] Creating layer scale4a_branch2a
I0726 17:33:37.251389   959 net.cpp:122] Setting up scale4a_branch2a
I0726 17:33:37.251399   959 net.cpp:129] Top shape: 1 256 45 80 (921600)
I0726 17:33:37.251401   959 net.cpp:137] Memory required for data: 3288268884
I0726 17:33:37.251406   959 layer_factory.hpp:77] Creating layer res4a_branch2a_relu
I0726 17:33:37.251413   959 net.cpp:84] Creating Layer res4a_branch2a_relu
I0726 17:33:37.251417   959 net.cpp:406] res4a_branch2a_relu <- res4a_branch2a
I0726 17:33:37.251422   959 net.cpp:367] res4a_branch2a_relu -> res4a_branch2a (in-place)
I0726 17:33:37.252106   959 net.cpp:122] Setting up res4a_branch2a_relu
I0726 17:33:37.252133   959 net.cpp:129] Top shape: 1 256 45 80 (921600)
I0726 17:33:37.252137   959 net.cpp:137] Memory required for data: 3291955284
I0726 17:33:37.252141   959 layer_factory.hpp:77] Creating layer res4a_branch2b
I0726 17:33:37.252148   959 net.cpp:84] Creating Layer res4a_branch2b
I0726 17:33:37.252153   959 net.cpp:406] res4a_branch2b <- res4a_branch2a
I0726 17:33:37.252161   959 net.cpp:380] res4a_branch2b -> res4a_branch2b
I0726 17:33:37.255280   959 net.cpp:122] Setting up res4a_branch2b
I0726 17:33:37.255295   959 net.cpp:129] Top shape: 1 256 45 80 (921600)
I0726 17:33:37.255311   959 net.cpp:137] Memory required for data: 3295641684
I0726 17:33:37.255317   959 layer_factory.hpp:77] Creating layer bn4a_branch2b
I0726 17:33:37.255324   959 net.cpp:84] Creating Layer bn4a_branch2b
I0726 17:33:37.255331   959 net.cpp:406] bn4a_branch2b <- res4a_branch2b
I0726 17:33:37.255336   959 net.cpp:367] bn4a_branch2b -> res4a_branch2b (in-place)
I0726 17:33:37.255735   959 net.cpp:122] Setting up bn4a_branch2b
I0726 17:33:37.255745   959 net.cpp:129] Top shape: 1 256 45 80 (921600)
I0726 17:33:37.255760   959 net.cpp:137] Memory required for data: 3299328084
I0726 17:33:37.255767   959 layer_factory.hpp:77] Creating layer scale4a_branch2b
I0726 17:33:37.255775   959 net.cpp:84] Creating Layer scale4a_branch2b
I0726 17:33:37.255779   959 net.cpp:406] scale4a_branch2b <- res4a_branch2b
I0726 17:33:37.255784   959 net.cpp:367] scale4a_branch2b -> res4a_branch2b (in-place)
I0726 17:33:37.255862   959 layer_factory.hpp:77] Creating layer scale4a_branch2b
I0726 17:33:37.256089   959 net.cpp:122] Setting up scale4a_branch2b
I0726 17:33:37.256100   959 net.cpp:129] Top shape: 1 256 45 80 (921600)
I0726 17:33:37.256103   959 net.cpp:137] Memory required for data: 3303014484
I0726 17:33:37.256108   959 layer_factory.hpp:77] Creating layer res4a_branch2b_relu
I0726 17:33:37.256114   959 net.cpp:84] Creating Layer res4a_branch2b_relu
I0726 17:33:37.256117   959 net.cpp:406] res4a_branch2b_relu <- res4a_branch2b
I0726 17:33:37.256124   959 net.cpp:367] res4a_branch2b_relu -> res4a_branch2b (in-place)
I0726 17:33:37.256803   959 net.cpp:122] Setting up res4a_branch2b_relu
I0726 17:33:37.256817   959 net.cpp:129] Top shape: 1 256 45 80 (921600)
I0726 17:33:37.256832   959 net.cpp:137] Memory required for data: 3306700884
I0726 17:33:37.256835   959 layer_factory.hpp:77] Creating layer res4a_branch2c
I0726 17:33:37.256844   959 net.cpp:84] Creating Layer res4a_branch2c
I0726 17:33:37.256850   959 net.cpp:406] res4a_branch2c <- res4a_branch2b
I0726 17:33:37.256855   959 net.cpp:380] res4a_branch2c -> res4a_branch2c
I0726 17:33:37.259487   959 net.cpp:122] Setting up res4a_branch2c
I0726 17:33:37.259515   959 net.cpp:129] Top shape: 1 1024 45 80 (3686400)
I0726 17:33:37.259519   959 net.cpp:137] Memory required for data: 3321446484
I0726 17:33:37.259524   959 layer_factory.hpp:77] Creating layer bn4a_branch2c
I0726 17:33:37.259533   959 net.cpp:84] Creating Layer bn4a_branch2c
I0726 17:33:37.259537   959 net.cpp:406] bn4a_branch2c <- res4a_branch2c
I0726 17:33:37.259543   959 net.cpp:367] bn4a_branch2c -> res4a_branch2c (in-place)
I0726 17:33:37.259945   959 net.cpp:122] Setting up bn4a_branch2c
I0726 17:33:37.259955   959 net.cpp:129] Top shape: 1 1024 45 80 (3686400)
I0726 17:33:37.259969   959 net.cpp:137] Memory required for data: 3336192084
I0726 17:33:37.259977   959 layer_factory.hpp:77] Creating layer scale4a_branch2c
I0726 17:33:37.259984   959 net.cpp:84] Creating Layer scale4a_branch2c
I0726 17:33:37.259989   959 net.cpp:406] scale4a_branch2c <- res4a_branch2c
I0726 17:33:37.259994   959 net.cpp:367] scale4a_branch2c -> res4a_branch2c (in-place)
I0726 17:33:37.260062   959 layer_factory.hpp:77] Creating layer scale4a_branch2c
I0726 17:33:37.260298   959 net.cpp:122] Setting up scale4a_branch2c
I0726 17:33:37.260308   959 net.cpp:129] Top shape: 1 1024 45 80 (3686400)
I0726 17:33:37.260313   959 net.cpp:137] Memory required for data: 3350937684
I0726 17:33:37.260318   959 layer_factory.hpp:77] Creating layer res4a
I0726 17:33:37.260334   959 net.cpp:84] Creating Layer res4a
I0726 17:33:37.260339   959 net.cpp:406] res4a <- res4a_branch1
I0726 17:33:37.260344   959 net.cpp:406] res4a <- res4a_branch2c
I0726 17:33:37.260349   959 net.cpp:380] res4a -> res4a
I0726 17:33:37.260396   959 net.cpp:122] Setting up res4a
I0726 17:33:37.260406   959 net.cpp:129] Top shape: 1 1024 45 80 (3686400)
I0726 17:33:37.260408   959 net.cpp:137] Memory required for data: 3365683284
I0726 17:33:37.260412   959 layer_factory.hpp:77] Creating layer res4a_relu
I0726 17:33:37.260419   959 net.cpp:84] Creating Layer res4a_relu
I0726 17:33:37.260423   959 net.cpp:406] res4a_relu <- res4a
I0726 17:33:37.260427   959 net.cpp:367] res4a_relu -> res4a (in-place)
I0726 17:33:37.260627   959 net.cpp:122] Setting up res4a_relu
I0726 17:33:37.260638   959 net.cpp:129] Top shape: 1 1024 45 80 (3686400)
I0726 17:33:37.260641   959 net.cpp:137] Memory required for data: 3380428884
I0726 17:33:37.260645   959 layer_factory.hpp:77] Creating layer res4a_res4a_relu_0_split
I0726 17:33:37.260651   959 net.cpp:84] Creating Layer res4a_res4a_relu_0_split
I0726 17:33:37.260655   959 net.cpp:406] res4a_res4a_relu_0_split <- res4a
I0726 17:33:37.260660   959 net.cpp:380] res4a_res4a_relu_0_split -> res4a_res4a_relu_0_split_0
I0726 17:33:37.260666   959 net.cpp:380] res4a_res4a_relu_0_split -> res4a_res4a_relu_0_split_1
I0726 17:33:37.260746   959 net.cpp:122] Setting up res4a_res4a_relu_0_split
I0726 17:33:37.260756   959 net.cpp:129] Top shape: 1 1024 45 80 (3686400)
I0726 17:33:37.260759   959 net.cpp:129] Top shape: 1 1024 45 80 (3686400)
I0726 17:33:37.260762   959 net.cpp:137] Memory required for data: 3409920084
I0726 17:33:37.260766   959 layer_factory.hpp:77] Creating layer res4b1_branch2a
I0726 17:33:37.260774   959 net.cpp:84] Creating Layer res4b1_branch2a
I0726 17:33:37.260779   959 net.cpp:406] res4b1_branch2a <- res4a_res4a_relu_0_split_0
I0726 17:33:37.260785   959 net.cpp:380] res4b1_branch2a -> res4b1_branch2a
I0726 17:33:37.263357   959 net.cpp:122] Setting up res4b1_branch2a
I0726 17:33:37.263373   959 net.cpp:129] Top shape: 1 256 45 80 (921600)
I0726 17:33:37.263389   959 net.cpp:137] Memory required for data: 3413606484
I0726 17:33:37.263396   959 layer_factory.hpp:77] Creating layer bn4b1_branch2a
I0726 17:33:37.263403   959 net.cpp:84] Creating Layer bn4b1_branch2a
I0726 17:33:37.263408   959 net.cpp:406] bn4b1_branch2a <- res4b1_branch2a
I0726 17:33:37.263414   959 net.cpp:367] bn4b1_branch2a -> res4b1_branch2a (in-place)
I0726 17:33:37.263815   959 net.cpp:122] Setting up bn4b1_branch2a
I0726 17:33:37.263825   959 net.cpp:129] Top shape: 1 256 45 80 (921600)
I0726 17:33:37.263839   959 net.cpp:137] Memory required for data: 3417292884
I0726 17:33:37.263847   959 layer_factory.hpp:77] Creating layer scale4b1_branch2a
I0726 17:33:37.263854   959 net.cpp:84] Creating Layer scale4b1_branch2a
I0726 17:33:37.263859   959 net.cpp:406] scale4b1_branch2a <- res4b1_branch2a
I0726 17:33:37.263864   959 net.cpp:367] scale4b1_branch2a -> res4b1_branch2a (in-place)
I0726 17:33:37.263939   959 layer_factory.hpp:77] Creating layer scale4b1_branch2a
I0726 17:33:37.264166   959 net.cpp:122] Setting up scale4b1_branch2a
I0726 17:33:37.264176   959 net.cpp:129] Top shape: 1 256 45 80 (921600)
I0726 17:33:37.264180   959 net.cpp:137] Memory required for data: 3420979284
I0726 17:33:37.264185   959 layer_factory.hpp:77] Creating layer res4b1_branch2a_relu
I0726 17:33:37.264192   959 net.cpp:84] Creating Layer res4b1_branch2a_relu
I0726 17:33:37.264196   959 net.cpp:406] res4b1_branch2a_relu <- res4b1_branch2a
I0726 17:33:37.264200   959 net.cpp:367] res4b1_branch2a_relu -> res4b1_branch2a (in-place)
I0726 17:33:37.264881   959 net.cpp:122] Setting up res4b1_branch2a_relu
I0726 17:33:37.264895   959 net.cpp:129] Top shape: 1 256 45 80 (921600)
I0726 17:33:37.264912   959 net.cpp:137] Memory required for data: 3424665684
I0726 17:33:37.264916   959 layer_factory.hpp:77] Creating layer res4b1_branch2b
I0726 17:33:37.264925   959 net.cpp:84] Creating Layer res4b1_branch2b
I0726 17:33:37.264928   959 net.cpp:406] res4b1_branch2b <- res4b1_branch2a
I0726 17:33:37.264935   959 net.cpp:380] res4b1_branch2b -> res4b1_branch2b
I0726 17:33:37.268105   959 net.cpp:122] Setting up res4b1_branch2b
I0726 17:33:37.268121   959 net.cpp:129] Top shape: 1 256 45 80 (921600)
I0726 17:33:37.268136   959 net.cpp:137] Memory required for data: 3428352084
I0726 17:33:37.268142   959 layer_factory.hpp:77] Creating layer bn4b1_branch2b
I0726 17:33:37.268149   959 net.cpp:84] Creating Layer bn4b1_branch2b
I0726 17:33:37.268154   959 net.cpp:406] bn4b1_branch2b <- res4b1_branch2b
I0726 17:33:37.268160   959 net.cpp:367] bn4b1_branch2b -> res4b1_branch2b (in-place)
I0726 17:33:37.268565   959 net.cpp:122] Setting up bn4b1_branch2b
I0726 17:33:37.268574   959 net.cpp:129] Top shape: 1 256 45 80 (921600)
I0726 17:33:37.268589   959 net.cpp:137] Memory required for data: 3432038484
I0726 17:33:37.268596   959 layer_factory.hpp:77] Creating layer scale4b1_branch2b
I0726 17:33:37.268604   959 net.cpp:84] Creating Layer scale4b1_branch2b
I0726 17:33:37.268609   959 net.cpp:406] scale4b1_branch2b <- res4b1_branch2b
I0726 17:33:37.268613   959 net.cpp:367] scale4b1_branch2b -> res4b1_branch2b (in-place)
I0726 17:33:37.268690   959 layer_factory.hpp:77] Creating layer scale4b1_branch2b
I0726 17:33:37.268920   959 net.cpp:122] Setting up scale4b1_branch2b
I0726 17:33:37.268930   959 net.cpp:129] Top shape: 1 256 45 80 (921600)
I0726 17:33:37.268934   959 net.cpp:137] Memory required for data: 3435724884
I0726 17:33:37.268939   959 layer_factory.hpp:77] Creating layer res4b1_branch2b_relu
I0726 17:33:37.268944   959 net.cpp:84] Creating Layer res4b1_branch2b_relu
I0726 17:33:37.268949   959 net.cpp:406] res4b1_branch2b_relu <- res4b1_branch2b
I0726 17:33:37.268954   959 net.cpp:367] res4b1_branch2b_relu -> res4b1_branch2b (in-place)
I0726 17:33:37.269636   959 net.cpp:122] Setting up res4b1_branch2b_relu
I0726 17:33:37.269665   959 net.cpp:129] Top shape: 1 256 45 80 (921600)
I0726 17:33:37.269668   959 net.cpp:137] Memory required for data: 3439411284
I0726 17:33:37.269672   959 layer_factory.hpp:77] Creating layer res4b1_branch2c
I0726 17:33:37.269680   959 net.cpp:84] Creating Layer res4b1_branch2c
I0726 17:33:37.269685   959 net.cpp:406] res4b1_branch2c <- res4b1_branch2b
I0726 17:33:37.269691   959 net.cpp:380] res4b1_branch2c -> res4b1_branch2c
I0726 17:33:37.272285   959 net.cpp:122] Setting up res4b1_branch2c
I0726 17:33:37.272313   959 net.cpp:129] Top shape: 1 1024 45 80 (3686400)
I0726 17:33:37.272317   959 net.cpp:137] Memory required for data: 3454156884
I0726 17:33:37.272323   959 layer_factory.hpp:77] Creating layer bn4b1_branch2c
I0726 17:33:37.272334   959 net.cpp:84] Creating Layer bn4b1_branch2c
I0726 17:33:37.272338   959 net.cpp:406] bn4b1_branch2c <- res4b1_branch2c
I0726 17:33:37.272346   959 net.cpp:367] bn4b1_branch2c -> res4b1_branch2c (in-place)
I0726 17:33:37.272753   959 net.cpp:122] Setting up bn4b1_branch2c
I0726 17:33:37.272763   959 net.cpp:129] Top shape: 1 1024 45 80 (3686400)
I0726 17:33:37.272778   959 net.cpp:137] Memory required for data: 3468902484
I0726 17:33:37.272785   959 layer_factory.hpp:77] Creating layer scale4b1_branch2c
I0726 17:33:37.272792   959 net.cpp:84] Creating Layer scale4b1_branch2c
I0726 17:33:37.272797   959 net.cpp:406] scale4b1_branch2c <- res4b1_branch2c
I0726 17:33:37.272801   959 net.cpp:367] scale4b1_branch2c -> res4b1_branch2c (in-place)
I0726 17:33:37.272872   959 layer_factory.hpp:77] Creating layer scale4b1_branch2c
I0726 17:33:37.273119   959 net.cpp:122] Setting up scale4b1_branch2c
I0726 17:33:37.273130   959 net.cpp:129] Top shape: 1 1024 45 80 (3686400)
I0726 17:33:37.273133   959 net.cpp:137] Memory required for data: 3483648084
I0726 17:33:37.273139   959 layer_factory.hpp:77] Creating layer res4b1
I0726 17:33:37.273145   959 net.cpp:84] Creating Layer res4b1
I0726 17:33:37.273151   959 net.cpp:406] res4b1 <- res4a_res4a_relu_0_split_1
I0726 17:33:37.273156   959 net.cpp:406] res4b1 <- res4b1_branch2c
I0726 17:33:37.273160   959 net.cpp:380] res4b1 -> res4b1
I0726 17:33:37.273205   959 net.cpp:122] Setting up res4b1
I0726 17:33:37.273213   959 net.cpp:129] Top shape: 1 1024 45 80 (3686400)
I0726 17:33:37.273216   959 net.cpp:137] Memory required for data: 3498393684
I0726 17:33:37.273219   959 layer_factory.hpp:77] Creating layer res4b1_relu
I0726 17:33:37.273226   959 net.cpp:84] Creating Layer res4b1_relu
I0726 17:33:37.273231   959 net.cpp:406] res4b1_relu <- res4b1
I0726 17:33:37.273236   959 net.cpp:367] res4b1_relu -> res4b1 (in-place)
I0726 17:33:37.273433   959 net.cpp:122] Setting up res4b1_relu
I0726 17:33:37.273445   959 net.cpp:129] Top shape: 1 1024 45 80 (3686400)
I0726 17:33:37.273448   959 net.cpp:137] Memory required for data: 3513139284
I0726 17:33:37.273452   959 layer_factory.hpp:77] Creating layer res4b1_res4b1_relu_0_split
I0726 17:33:37.273458   959 net.cpp:84] Creating Layer res4b1_res4b1_relu_0_split
I0726 17:33:37.273460   959 net.cpp:406] res4b1_res4b1_relu_0_split <- res4b1
I0726 17:33:37.273468   959 net.cpp:380] res4b1_res4b1_relu_0_split -> res4b1_res4b1_relu_0_split_0
I0726 17:33:37.273473   959 net.cpp:380] res4b1_res4b1_relu_0_split -> res4b1_res4b1_relu_0_split_1
I0726 17:33:37.273558   959 net.cpp:122] Setting up res4b1_res4b1_relu_0_split
I0726 17:33:37.273568   959 net.cpp:129] Top shape: 1 1024 45 80 (3686400)
I0726 17:33:37.273572   959 net.cpp:129] Top shape: 1 1024 45 80 (3686400)
I0726 17:33:37.273576   959 net.cpp:137] Memory required for data: 3542630484
I0726 17:33:37.273578   959 layer_factory.hpp:77] Creating layer res4b2_branch2a
I0726 17:33:37.273588   959 net.cpp:84] Creating Layer res4b2_branch2a
I0726 17:33:37.273592   959 net.cpp:406] res4b2_branch2a <- res4b1_res4b1_relu_0_split_0
I0726 17:33:37.273597   959 net.cpp:380] res4b2_branch2a -> res4b2_branch2a
I0726 17:33:37.276638   959 net.cpp:122] Setting up res4b2_branch2a
I0726 17:33:37.276654   959 net.cpp:129] Top shape: 1 256 45 80 (921600)
I0726 17:33:37.276669   959 net.cpp:137] Memory required for data: 3546316884
I0726 17:33:37.276675   959 layer_factory.hpp:77] Creating layer bn4b2_branch2a
I0726 17:33:37.276684   959 net.cpp:84] Creating Layer bn4b2_branch2a
I0726 17:33:37.276688   959 net.cpp:406] bn4b2_branch2a <- res4b2_branch2a
I0726 17:33:37.276693   959 net.cpp:367] bn4b2_branch2a -> res4b2_branch2a (in-place)
I0726 17:33:37.277109   959 net.cpp:122] Setting up bn4b2_branch2a
I0726 17:33:37.277119   959 net.cpp:129] Top shape: 1 256 45 80 (921600)
I0726 17:33:37.277134   959 net.cpp:137] Memory required for data: 3550003284
I0726 17:33:37.277142   959 layer_factory.hpp:77] Creating layer scale4b2_branch2a
I0726 17:33:37.277148   959 net.cpp:84] Creating Layer scale4b2_branch2a
I0726 17:33:37.277151   959 net.cpp:406] scale4b2_branch2a <- res4b2_branch2a
I0726 17:33:37.277155   959 net.cpp:367] scale4b2_branch2a -> res4b2_branch2a (in-place)
I0726 17:33:37.277237   959 layer_factory.hpp:77] Creating layer scale4b2_branch2a
I0726 17:33:37.277482   959 net.cpp:122] Setting up scale4b2_branch2a
I0726 17:33:37.277492   959 net.cpp:129] Top shape: 1 256 45 80 (921600)
I0726 17:33:37.277494   959 net.cpp:137] Memory required for data: 3553689684
I0726 17:33:37.277500   959 layer_factory.hpp:77] Creating layer res4b2_branch2a_relu
I0726 17:33:37.277506   959 net.cpp:84] Creating Layer res4b2_branch2a_relu
I0726 17:33:37.277509   959 net.cpp:406] res4b2_branch2a_relu <- res4b2_branch2a
I0726 17:33:37.277515   959 net.cpp:367] res4b2_branch2a_relu -> res4b2_branch2a (in-place)
I0726 17:33:37.278211   959 net.cpp:122] Setting up res4b2_branch2a_relu
I0726 17:33:37.278224   959 net.cpp:129] Top shape: 1 256 45 80 (921600)
I0726 17:33:37.278239   959 net.cpp:137] Memory required for data: 3557376084
I0726 17:33:37.278244   959 layer_factory.hpp:77] Creating layer res4b2_branch2b
I0726 17:33:37.278252   959 net.cpp:84] Creating Layer res4b2_branch2b
I0726 17:33:37.278257   959 net.cpp:406] res4b2_branch2b <- res4b2_branch2a
I0726 17:33:37.278264   959 net.cpp:380] res4b2_branch2b -> res4b2_branch2b
I0726 17:33:37.281416   959 net.cpp:122] Setting up res4b2_branch2b
I0726 17:33:37.281445   959 net.cpp:129] Top shape: 1 256 45 80 (921600)
I0726 17:33:37.281448   959 net.cpp:137] Memory required for data: 3561062484
I0726 17:33:37.281453   959 layer_factory.hpp:77] Creating layer bn4b2_branch2b
I0726 17:33:37.281462   959 net.cpp:84] Creating Layer bn4b2_branch2b
I0726 17:33:37.281466   959 net.cpp:406] bn4b2_branch2b <- res4b2_branch2b
I0726 17:33:37.281471   959 net.cpp:367] bn4b2_branch2b -> res4b2_branch2b (in-place)
I0726 17:33:37.281935   959 net.cpp:122] Setting up bn4b2_branch2b
I0726 17:33:37.281945   959 net.cpp:129] Top shape: 1 256 45 80 (921600)
I0726 17:33:37.281960   959 net.cpp:137] Memory required for data: 3564748884
I0726 17:33:37.281967   959 layer_factory.hpp:77] Creating layer scale4b2_branch2b
I0726 17:33:37.281975   959 net.cpp:84] Creating Layer scale4b2_branch2b
I0726 17:33:37.281980   959 net.cpp:406] scale4b2_branch2b <- res4b2_branch2b
I0726 17:33:37.281985   959 net.cpp:367] scale4b2_branch2b -> res4b2_branch2b (in-place)
I0726 17:33:37.282063   959 layer_factory.hpp:77] Creating layer scale4b2_branch2b
I0726 17:33:37.282310   959 net.cpp:122] Setting up scale4b2_branch2b
I0726 17:33:37.282320   959 net.cpp:129] Top shape: 1 256 45 80 (921600)
I0726 17:33:37.282323   959 net.cpp:137] Memory required for data: 3568435284
I0726 17:33:37.282330   959 layer_factory.hpp:77] Creating layer res4b2_branch2b_relu
I0726 17:33:37.282335   959 net.cpp:84] Creating Layer res4b2_branch2b_relu
I0726 17:33:37.282338   959 net.cpp:406] res4b2_branch2b_relu <- res4b2_branch2b
I0726 17:33:37.282346   959 net.cpp:367] res4b2_branch2b_relu -> res4b2_branch2b (in-place)
I0726 17:33:37.283032   959 net.cpp:122] Setting up res4b2_branch2b_relu
I0726 17:33:37.283046   959 net.cpp:129] Top shape: 1 256 45 80 (921600)
I0726 17:33:37.283061   959 net.cpp:137] Memory required for data: 3572121684
I0726 17:33:37.283064   959 layer_factory.hpp:77] Creating layer res4b2_branch2c
I0726 17:33:37.283082   959 net.cpp:84] Creating Layer res4b2_branch2c
I0726 17:33:37.283087   959 net.cpp:406] res4b2_branch2c <- res4b2_branch2b
I0726 17:33:37.283093   959 net.cpp:380] res4b2_branch2c -> res4b2_branch2c
I0726 17:33:37.285708   959 net.cpp:122] Setting up res4b2_branch2c
I0726 17:33:37.285724   959 net.cpp:129] Top shape: 1 1024 45 80 (3686400)
I0726 17:33:37.285739   959 net.cpp:137] Memory required for data: 3586867284
I0726 17:33:37.285745   959 layer_factory.hpp:77] Creating layer bn4b2_branch2c
I0726 17:33:37.285753   959 net.cpp:84] Creating Layer bn4b2_branch2c
I0726 17:33:37.285758   959 net.cpp:406] bn4b2_branch2c <- res4b2_branch2c
I0726 17:33:37.285763   959 net.cpp:367] bn4b2_branch2c -> res4b2_branch2c (in-place)
I0726 17:33:37.286201   959 net.cpp:122] Setting up bn4b2_branch2c
I0726 17:33:37.286211   959 net.cpp:129] Top shape: 1 1024 45 80 (3686400)
I0726 17:33:37.286224   959 net.cpp:137] Memory required for data: 3601612884
I0726 17:33:37.286232   959 layer_factory.hpp:77] Creating layer scale4b2_branch2c
I0726 17:33:37.286239   959 net.cpp:84] Creating Layer scale4b2_branch2c
I0726 17:33:37.286244   959 net.cpp:406] scale4b2_branch2c <- res4b2_branch2c
I0726 17:33:37.286249   959 net.cpp:367] scale4b2_branch2c -> res4b2_branch2c (in-place)
I0726 17:33:37.286321   959 layer_factory.hpp:77] Creating layer scale4b2_branch2c
I0726 17:33:37.286578   959 net.cpp:122] Setting up scale4b2_branch2c
I0726 17:33:37.286589   959 net.cpp:129] Top shape: 1 1024 45 80 (3686400)
I0726 17:33:37.286592   959 net.cpp:137] Memory required for data: 3616358484
I0726 17:33:37.286598   959 layer_factory.hpp:77] Creating layer res4b2
I0726 17:33:37.286603   959 net.cpp:84] Creating Layer res4b2
I0726 17:33:37.286607   959 net.cpp:406] res4b2 <- res4b1_res4b1_relu_0_split_1
I0726 17:33:37.286612   959 net.cpp:406] res4b2 <- res4b2_branch2c
I0726 17:33:37.286618   959 net.cpp:380] res4b2 -> res4b2
I0726 17:33:37.286667   959 net.cpp:122] Setting up res4b2
I0726 17:33:37.286676   959 net.cpp:129] Top shape: 1 1024 45 80 (3686400)
I0726 17:33:37.286679   959 net.cpp:137] Memory required for data: 3631104084
I0726 17:33:37.286682   959 layer_factory.hpp:77] Creating layer res4b2_relu
I0726 17:33:37.286687   959 net.cpp:84] Creating Layer res4b2_relu
I0726 17:33:37.286691   959 net.cpp:406] res4b2_relu <- res4b2
I0726 17:33:37.286695   959 net.cpp:367] res4b2_relu -> res4b2 (in-place)
I0726 17:33:37.286896   959 net.cpp:122] Setting up res4b2_relu
I0726 17:33:37.286908   959 net.cpp:129] Top shape: 1 1024 45 80 (3686400)
I0726 17:33:37.286911   959 net.cpp:137] Memory required for data: 3645849684
I0726 17:33:37.286916   959 layer_factory.hpp:77] Creating layer res4b2_res4b2_relu_0_split
I0726 17:33:37.286922   959 net.cpp:84] Creating Layer res4b2_res4b2_relu_0_split
I0726 17:33:37.286926   959 net.cpp:406] res4b2_res4b2_relu_0_split <- res4b2
I0726 17:33:37.286931   959 net.cpp:380] res4b2_res4b2_relu_0_split -> res4b2_res4b2_relu_0_split_0
I0726 17:33:37.286937   959 net.cpp:380] res4b2_res4b2_relu_0_split -> res4b2_res4b2_relu_0_split_1
I0726 17:33:37.287021   959 net.cpp:122] Setting up res4b2_res4b2_relu_0_split
I0726 17:33:37.287030   959 net.cpp:129] Top shape: 1 1024 45 80 (3686400)
I0726 17:33:37.287034   959 net.cpp:129] Top shape: 1 1024 45 80 (3686400)
I0726 17:33:37.287037   959 net.cpp:137] Memory required for data: 3675340884
I0726 17:33:37.287040   959 layer_factory.hpp:77] Creating layer res4b3_branch2a
I0726 17:33:37.287050   959 net.cpp:84] Creating Layer res4b3_branch2a
I0726 17:33:37.287053   959 net.cpp:406] res4b3_branch2a <- res4b2_res4b2_relu_0_split_0
I0726 17:33:37.287060   959 net.cpp:380] res4b3_branch2a -> res4b3_branch2a
I0726 17:33:37.289688   959 net.cpp:122] Setting up res4b3_branch2a
I0726 17:33:37.289716   959 net.cpp:129] Top shape: 1 256 45 80 (921600)
I0726 17:33:37.289719   959 net.cpp:137] Memory required for data: 3679027284
I0726 17:33:37.289726   959 layer_factory.hpp:77] Creating layer bn4b3_branch2a
I0726 17:33:37.289733   959 net.cpp:84] Creating Layer bn4b3_branch2a
I0726 17:33:37.289738   959 net.cpp:406] bn4b3_branch2a <- res4b3_branch2a
I0726 17:33:37.289744   959 net.cpp:367] bn4b3_branch2a -> res4b3_branch2a (in-place)
I0726 17:33:37.290172   959 net.cpp:122] Setting up bn4b3_branch2a
I0726 17:33:37.290182   959 net.cpp:129] Top shape: 1 256 45 80 (921600)
I0726 17:33:37.290196   959 net.cpp:137] Memory required for data: 3682713684
I0726 17:33:37.290204   959 layer_factory.hpp:77] Creating layer scale4b3_branch2a
I0726 17:33:37.290211   959 net.cpp:84] Creating Layer scale4b3_branch2a
I0726 17:33:37.290215   959 net.cpp:406] scale4b3_branch2a <- res4b3_branch2a
I0726 17:33:37.290220   959 net.cpp:367] scale4b3_branch2a -> res4b3_branch2a (in-place)
I0726 17:33:37.290299   959 layer_factory.hpp:77] Creating layer scale4b3_branch2a
I0726 17:33:37.290549   959 net.cpp:122] Setting up scale4b3_branch2a
I0726 17:33:37.290558   959 net.cpp:129] Top shape: 1 256 45 80 (921600)
I0726 17:33:37.290561   959 net.cpp:137] Memory required for data: 3686400084
I0726 17:33:37.290567   959 layer_factory.hpp:77] Creating layer res4b3_branch2a_relu
I0726 17:33:37.290575   959 net.cpp:84] Creating Layer res4b3_branch2a_relu
I0726 17:33:37.290580   959 net.cpp:406] res4b3_branch2a_relu <- res4b3_branch2a
I0726 17:33:37.290585   959 net.cpp:367] res4b3_branch2a_relu -> res4b3_branch2a (in-place)
I0726 17:33:37.291318   959 net.cpp:122] Setting up res4b3_branch2a_relu
I0726 17:33:37.291345   959 net.cpp:129] Top shape: 1 256 45 80 (921600)
I0726 17:33:37.291349   959 net.cpp:137] Memory required for data: 3690086484
I0726 17:33:37.291353   959 layer_factory.hpp:77] Creating layer res4b3_branch2b
I0726 17:33:37.291362   959 net.cpp:84] Creating Layer res4b3_branch2b
I0726 17:33:37.291365   959 net.cpp:406] res4b3_branch2b <- res4b3_branch2a
I0726 17:33:37.291373   959 net.cpp:380] res4b3_branch2b -> res4b3_branch2b
I0726 17:33:37.294589   959 net.cpp:122] Setting up res4b3_branch2b
I0726 17:33:37.294603   959 net.cpp:129] Top shape: 1 256 45 80 (921600)
I0726 17:33:37.294620   959 net.cpp:137] Memory required for data: 3693772884
I0726 17:33:37.294625   959 layer_factory.hpp:77] Creating layer bn4b3_branch2b
I0726 17:33:37.294633   959 net.cpp:84] Creating Layer bn4b3_branch2b
I0726 17:33:37.294638   959 net.cpp:406] bn4b3_branch2b <- res4b3_branch2b
I0726 17:33:37.294644   959 net.cpp:367] bn4b3_branch2b -> res4b3_branch2b (in-place)
I0726 17:33:37.295094   959 net.cpp:122] Setting up bn4b3_branch2b
I0726 17:33:37.295104   959 net.cpp:129] Top shape: 1 256 45 80 (921600)
I0726 17:33:37.295119   959 net.cpp:137] Memory required for data: 3697459284
I0726 17:33:37.295126   959 layer_factory.hpp:77] Creating layer scale4b3_branch2b
I0726 17:33:37.295135   959 net.cpp:84] Creating Layer scale4b3_branch2b
I0726 17:33:37.295137   959 net.cpp:406] scale4b3_branch2b <- res4b3_branch2b
I0726 17:33:37.295142   959 net.cpp:367] scale4b3_branch2b -> res4b3_branch2b (in-place)
I0726 17:33:37.295225   959 layer_factory.hpp:77] Creating layer scale4b3_branch2b
I0726 17:33:37.295475   959 net.cpp:122] Setting up scale4b3_branch2b
I0726 17:33:37.295485   959 net.cpp:129] Top shape: 1 256 45 80 (921600)
I0726 17:33:37.295488   959 net.cpp:137] Memory required for data: 3701145684
I0726 17:33:37.295495   959 layer_factory.hpp:77] Creating layer res4b3_branch2b_relu
I0726 17:33:37.295502   959 net.cpp:84] Creating Layer res4b3_branch2b_relu
I0726 17:33:37.295508   959 net.cpp:406] res4b3_branch2b_relu <- res4b3_branch2b
I0726 17:33:37.295513   959 net.cpp:367] res4b3_branch2b_relu -> res4b3_branch2b (in-place)
I0726 17:33:37.296203   959 net.cpp:122] Setting up res4b3_branch2b_relu
I0726 17:33:37.296217   959 net.cpp:129] Top shape: 1 256 45 80 (921600)
I0726 17:33:37.296232   959 net.cpp:137] Memory required for data: 3704832084
I0726 17:33:37.296236   959 layer_factory.hpp:77] Creating layer res4b3_branch2c
I0726 17:33:37.296245   959 net.cpp:84] Creating Layer res4b3_branch2c
I0726 17:33:37.296250   959 net.cpp:406] res4b3_branch2c <- res4b3_branch2b
I0726 17:33:37.296257   959 net.cpp:380] res4b3_branch2c -> res4b3_branch2c
I0726 17:33:37.298889   959 net.cpp:122] Setting up res4b3_branch2c
I0726 17:33:37.298905   959 net.cpp:129] Top shape: 1 1024 45 80 (3686400)
I0726 17:33:37.298921   959 net.cpp:137] Memory required for data: 3719577684
I0726 17:33:37.298926   959 layer_factory.hpp:77] Creating layer bn4b3_branch2c
I0726 17:33:37.298935   959 net.cpp:84] Creating Layer bn4b3_branch2c
I0726 17:33:37.298939   959 net.cpp:406] bn4b3_branch2c <- res4b3_branch2c
I0726 17:33:37.298945   959 net.cpp:367] bn4b3_branch2c -> res4b3_branch2c (in-place)
I0726 17:33:37.299396   959 net.cpp:122] Setting up bn4b3_branch2c
I0726 17:33:37.299407   959 net.cpp:129] Top shape: 1 1024 45 80 (3686400)
I0726 17:33:37.299409   959 net.cpp:137] Memory required for data: 3734323284
I0726 17:33:37.299428   959 layer_factory.hpp:77] Creating layer scale4b3_branch2c
I0726 17:33:37.299435   959 net.cpp:84] Creating Layer scale4b3_branch2c
I0726 17:33:37.299439   959 net.cpp:406] scale4b3_branch2c <- res4b3_branch2c
I0726 17:33:37.299444   959 net.cpp:367] scale4b3_branch2c -> res4b3_branch2c (in-place)
I0726 17:33:37.299518   959 layer_factory.hpp:77] Creating layer scale4b3_branch2c
I0726 17:33:37.299784   959 net.cpp:122] Setting up scale4b3_branch2c
I0726 17:33:37.299795   959 net.cpp:129] Top shape: 1 1024 45 80 (3686400)
I0726 17:33:37.299798   959 net.cpp:137] Memory required for data: 3749068884
I0726 17:33:37.299803   959 layer_factory.hpp:77] Creating layer res4b3
I0726 17:33:37.299810   959 net.cpp:84] Creating Layer res4b3
I0726 17:33:37.299815   959 net.cpp:406] res4b3 <- res4b2_res4b2_relu_0_split_1
I0726 17:33:37.299819   959 net.cpp:406] res4b3 <- res4b3_branch2c
I0726 17:33:37.299823   959 net.cpp:380] res4b3 -> res4b3
I0726 17:33:37.299875   959 net.cpp:122] Setting up res4b3
I0726 17:33:37.299885   959 net.cpp:129] Top shape: 1 1024 45 80 (3686400)
I0726 17:33:37.299887   959 net.cpp:137] Memory required for data: 3763814484
I0726 17:33:37.299890   959 layer_factory.hpp:77] Creating layer res4b3_relu
I0726 17:33:37.299896   959 net.cpp:84] Creating Layer res4b3_relu
I0726 17:33:37.299899   959 net.cpp:406] res4b3_relu <- res4b3
I0726 17:33:37.299904   959 net.cpp:367] res4b3_relu -> res4b3 (in-place)
I0726 17:33:37.300107   959 net.cpp:122] Setting up res4b3_relu
I0726 17:33:37.300119   959 net.cpp:129] Top shape: 1 1024 45 80 (3686400)
I0726 17:33:37.300123   959 net.cpp:137] Memory required for data: 3778560084
I0726 17:33:37.300127   959 layer_factory.hpp:77] Creating layer res4b3_res4b3_relu_0_split
I0726 17:33:37.300132   959 net.cpp:84] Creating Layer res4b3_res4b3_relu_0_split
I0726 17:33:37.300135   959 net.cpp:406] res4b3_res4b3_relu_0_split <- res4b3
I0726 17:33:37.300143   959 net.cpp:380] res4b3_res4b3_relu_0_split -> res4b3_res4b3_relu_0_split_0
I0726 17:33:37.300148   959 net.cpp:380] res4b3_res4b3_relu_0_split -> res4b3_res4b3_relu_0_split_1
I0726 17:33:37.300233   959 net.cpp:122] Setting up res4b3_res4b3_relu_0_split
I0726 17:33:37.300242   959 net.cpp:129] Top shape: 1 1024 45 80 (3686400)
I0726 17:33:37.300246   959 net.cpp:129] Top shape: 1 1024 45 80 (3686400)
I0726 17:33:37.300251   959 net.cpp:137] Memory required for data: 3808051284
I0726 17:33:37.300253   959 layer_factory.hpp:77] Creating layer res4b4_branch2a
I0726 17:33:37.300263   959 net.cpp:84] Creating Layer res4b4_branch2a
I0726 17:33:37.300268   959 net.cpp:406] res4b4_branch2a <- res4b3_res4b3_relu_0_split_0
I0726 17:33:37.300273   959 net.cpp:380] res4b4_branch2a -> res4b4_branch2a
I0726 17:33:37.303400   959 net.cpp:122] Setting up res4b4_branch2a
I0726 17:33:37.303416   959 net.cpp:129] Top shape: 1 256 45 80 (921600)
I0726 17:33:37.303431   959 net.cpp:137] Memory required for data: 3811737684
I0726 17:33:37.303438   959 layer_factory.hpp:77] Creating layer bn4b4_branch2a
I0726 17:33:37.303447   959 net.cpp:84] Creating Layer bn4b4_branch2a
I0726 17:33:37.303452   959 net.cpp:406] bn4b4_branch2a <- res4b4_branch2a
I0726 17:33:37.303457   959 net.cpp:367] bn4b4_branch2a -> res4b4_branch2a (in-place)
I0726 17:33:37.303905   959 net.cpp:122] Setting up bn4b4_branch2a
I0726 17:33:37.303915   959 net.cpp:129] Top shape: 1 256 45 80 (921600)
I0726 17:33:37.303930   959 net.cpp:137] Memory required for data: 3815424084
I0726 17:33:37.303936   959 layer_factory.hpp:77] Creating layer scale4b4_branch2a
I0726 17:33:37.303944   959 net.cpp:84] Creating Layer scale4b4_branch2a
I0726 17:33:37.303947   959 net.cpp:406] scale4b4_branch2a <- res4b4_branch2a
I0726 17:33:37.303952   959 net.cpp:367] scale4b4_branch2a -> res4b4_branch2a (in-place)
I0726 17:33:37.304047   959 layer_factory.hpp:77] Creating layer scale4b4_branch2a
I0726 17:33:37.304311   959 net.cpp:122] Setting up scale4b4_branch2a
I0726 17:33:37.304322   959 net.cpp:129] Top shape: 1 256 45 80 (921600)
I0726 17:33:37.304324   959 net.cpp:137] Memory required for data: 3819110484
I0726 17:33:37.304330   959 layer_factory.hpp:77] Creating layer res4b4_branch2a_relu
I0726 17:33:37.304335   959 net.cpp:84] Creating Layer res4b4_branch2a_relu
I0726 17:33:37.304339   959 net.cpp:406] res4b4_branch2a_relu <- res4b4_branch2a
I0726 17:33:37.304345   959 net.cpp:367] res4b4_branch2a_relu -> res4b4_branch2a (in-place)
I0726 17:33:37.305068   959 net.cpp:122] Setting up res4b4_branch2a_relu
I0726 17:33:37.305083   959 net.cpp:129] Top shape: 1 256 45 80 (921600)
I0726 17:33:37.305099   959 net.cpp:137] Memory required for data: 3822796884
I0726 17:33:37.305101   959 layer_factory.hpp:77] Creating layer res4b4_branch2b
I0726 17:33:37.305111   959 net.cpp:84] Creating Layer res4b4_branch2b
I0726 17:33:37.305115   959 net.cpp:406] res4b4_branch2b <- res4b4_branch2a
I0726 17:33:37.305121   959 net.cpp:380] res4b4_branch2b -> res4b4_branch2b
I0726 17:33:37.308290   959 net.cpp:122] Setting up res4b4_branch2b
I0726 17:33:37.308317   959 net.cpp:129] Top shape: 1 256 45 80 (921600)
I0726 17:33:37.308321   959 net.cpp:137] Memory required for data: 3826483284
I0726 17:33:37.308328   959 layer_factory.hpp:77] Creating layer bn4b4_branch2b
I0726 17:33:37.308336   959 net.cpp:84] Creating Layer bn4b4_branch2b
I0726 17:33:37.308341   959 net.cpp:406] bn4b4_branch2b <- res4b4_branch2b
I0726 17:33:37.308346   959 net.cpp:367] bn4b4_branch2b -> res4b4_branch2b (in-place)
I0726 17:33:37.308797   959 net.cpp:122] Setting up bn4b4_branch2b
I0726 17:33:37.308807   959 net.cpp:129] Top shape: 1 256 45 80 (921600)
I0726 17:33:37.308822   959 net.cpp:137] Memory required for data: 3830169684
I0726 17:33:37.308830   959 layer_factory.hpp:77] Creating layer scale4b4_branch2b
I0726 17:33:37.308836   959 net.cpp:84] Creating Layer scale4b4_branch2b
I0726 17:33:37.308840   959 net.cpp:406] scale4b4_branch2b <- res4b4_branch2b
I0726 17:33:37.308845   959 net.cpp:367] scale4b4_branch2b -> res4b4_branch2b (in-place)
I0726 17:33:37.308928   959 layer_factory.hpp:77] Creating layer scale4b4_branch2b
I0726 17:33:37.309183   959 net.cpp:122] Setting up scale4b4_branch2b
I0726 17:33:37.309193   959 net.cpp:129] Top shape: 1 256 45 80 (921600)
I0726 17:33:37.309197   959 net.cpp:137] Memory required for data: 3833856084
I0726 17:33:37.309202   959 layer_factory.hpp:77] Creating layer res4b4_branch2b_relu
I0726 17:33:37.309208   959 net.cpp:84] Creating Layer res4b4_branch2b_relu
I0726 17:33:37.309211   959 net.cpp:406] res4b4_branch2b_relu <- res4b4_branch2b
I0726 17:33:37.309217   959 net.cpp:367] res4b4_branch2b_relu -> res4b4_branch2b (in-place)
I0726 17:33:37.309908   959 net.cpp:122] Setting up res4b4_branch2b_relu
I0726 17:33:37.309934   959 net.cpp:129] Top shape: 1 256 45 80 (921600)
I0726 17:33:37.309938   959 net.cpp:137] Memory required for data: 3837542484
I0726 17:33:37.309942   959 layer_factory.hpp:77] Creating layer res4b4_branch2c
I0726 17:33:37.309949   959 net.cpp:84] Creating Layer res4b4_branch2c
I0726 17:33:37.309954   959 net.cpp:406] res4b4_branch2c <- res4b4_branch2b
I0726 17:33:37.309962   959 net.cpp:380] res4b4_branch2c -> res4b4_branch2c
I0726 17:33:37.313100   959 net.cpp:122] Setting up res4b4_branch2c
I0726 17:33:37.313129   959 net.cpp:129] Top shape: 1 1024 45 80 (3686400)
I0726 17:33:37.313133   959 net.cpp:137] Memory required for data: 3852288084
I0726 17:33:37.313139   959 layer_factory.hpp:77] Creating layer bn4b4_branch2c
I0726 17:33:37.313146   959 net.cpp:84] Creating Layer bn4b4_branch2c
I0726 17:33:37.313150   959 net.cpp:406] bn4b4_branch2c <- res4b4_branch2c
I0726 17:33:37.313156   959 net.cpp:367] bn4b4_branch2c -> res4b4_branch2c (in-place)
I0726 17:33:37.313611   959 net.cpp:122] Setting up bn4b4_branch2c
I0726 17:33:37.313621   959 net.cpp:129] Top shape: 1 1024 45 80 (3686400)
I0726 17:33:37.313635   959 net.cpp:137] Memory required for data: 3867033684
I0726 17:33:37.313642   959 layer_factory.hpp:77] Creating layer scale4b4_branch2c
I0726 17:33:37.313650   959 net.cpp:84] Creating Layer scale4b4_branch2c
I0726 17:33:37.313654   959 net.cpp:406] scale4b4_branch2c <- res4b4_branch2c
I0726 17:33:37.313658   959 net.cpp:367] scale4b4_branch2c -> res4b4_branch2c (in-place)
I0726 17:33:37.313736   959 layer_factory.hpp:77] Creating layer scale4b4_branch2c
I0726 17:33:37.314003   959 net.cpp:122] Setting up scale4b4_branch2c
I0726 17:33:37.314013   959 net.cpp:129] Top shape: 1 1024 45 80 (3686400)
I0726 17:33:37.314016   959 net.cpp:137] Memory required for data: 3881779284
I0726 17:33:37.314023   959 layer_factory.hpp:77] Creating layer res4b4
I0726 17:33:37.314028   959 net.cpp:84] Creating Layer res4b4
I0726 17:33:37.314031   959 net.cpp:406] res4b4 <- res4b3_res4b3_relu_0_split_1
I0726 17:33:37.314036   959 net.cpp:406] res4b4 <- res4b4_branch2c
I0726 17:33:37.314040   959 net.cpp:380] res4b4 -> res4b4
I0726 17:33:37.314092   959 net.cpp:122] Setting up res4b4
I0726 17:33:37.314100   959 net.cpp:129] Top shape: 1 1024 45 80 (3686400)
I0726 17:33:37.314105   959 net.cpp:137] Memory required for data: 3896524884
I0726 17:33:37.314107   959 layer_factory.hpp:77] Creating layer res4b4_relu
I0726 17:33:37.314112   959 net.cpp:84] Creating Layer res4b4_relu
I0726 17:33:37.314116   959 net.cpp:406] res4b4_relu <- res4b4
I0726 17:33:37.314121   959 net.cpp:367] res4b4_relu -> res4b4 (in-place)
I0726 17:33:37.314334   959 net.cpp:122] Setting up res4b4_relu
I0726 17:33:37.314347   959 net.cpp:129] Top shape: 1 1024 45 80 (3686400)
I0726 17:33:37.314349   959 net.cpp:137] Memory required for data: 3911270484
I0726 17:33:37.314353   959 layer_factory.hpp:77] Creating layer res4b4_res4b4_relu_0_split
I0726 17:33:37.314359   959 net.cpp:84] Creating Layer res4b4_res4b4_relu_0_split
I0726 17:33:37.314363   959 net.cpp:406] res4b4_res4b4_relu_0_split <- res4b4
I0726 17:33:37.314369   959 net.cpp:380] res4b4_res4b4_relu_0_split -> res4b4_res4b4_relu_0_split_0
I0726 17:33:37.314375   959 net.cpp:380] res4b4_res4b4_relu_0_split -> res4b4_res4b4_relu_0_split_1
I0726 17:33:37.314466   959 net.cpp:122] Setting up res4b4_res4b4_relu_0_split
I0726 17:33:37.314476   959 net.cpp:129] Top shape: 1 1024 45 80 (3686400)
I0726 17:33:37.314479   959 net.cpp:129] Top shape: 1 1024 45 80 (3686400)
I0726 17:33:37.314483   959 net.cpp:137] Memory required for data: 3940761684
I0726 17:33:37.314486   959 layer_factory.hpp:77] Creating layer res4b5_branch2a
I0726 17:33:37.314494   959 net.cpp:84] Creating Layer res4b5_branch2a
I0726 17:33:37.314498   959 net.cpp:406] res4b5_branch2a <- res4b4_res4b4_relu_0_split_0
I0726 17:33:37.314503   959 net.cpp:380] res4b5_branch2a -> res4b5_branch2a
I0726 17:33:37.317543   959 net.cpp:122] Setting up res4b5_branch2a
I0726 17:33:37.317572   959 net.cpp:129] Top shape: 1 256 45 80 (921600)
I0726 17:33:37.317576   959 net.cpp:137] Memory required for data: 3944448084
I0726 17:33:37.317582   959 layer_factory.hpp:77] Creating layer bn4b5_branch2a
I0726 17:33:37.317592   959 net.cpp:84] Creating Layer bn4b5_branch2a
I0726 17:33:37.317596   959 net.cpp:406] bn4b5_branch2a <- res4b5_branch2a
I0726 17:33:37.317602   959 net.cpp:367] bn4b5_branch2a -> res4b5_branch2a (in-place)
I0726 17:33:37.318042   959 net.cpp:122] Setting up bn4b5_branch2a
I0726 17:33:37.318053   959 net.cpp:129] Top shape: 1 256 45 80 (921600)
I0726 17:33:37.318066   959 net.cpp:137] Memory required for data: 3948134484
I0726 17:33:37.318073   959 layer_factory.hpp:77] Creating layer scale4b5_branch2a
I0726 17:33:37.318081   959 net.cpp:84] Creating Layer scale4b5_branch2a
I0726 17:33:37.318085   959 net.cpp:406] scale4b5_branch2a <- res4b5_branch2a
I0726 17:33:37.318090   959 net.cpp:367] scale4b5_branch2a -> res4b5_branch2a (in-place)
I0726 17:33:37.318173   959 layer_factory.hpp:77] Creating layer scale4b5_branch2a
I0726 17:33:37.318430   959 net.cpp:122] Setting up scale4b5_branch2a
I0726 17:33:37.318441   959 net.cpp:129] Top shape: 1 256 45 80 (921600)
I0726 17:33:37.318444   959 net.cpp:137] Memory required for data: 3951820884
I0726 17:33:37.318450   959 layer_factory.hpp:77] Creating layer res4b5_branch2a_relu
I0726 17:33:37.318456   959 net.cpp:84] Creating Layer res4b5_branch2a_relu
I0726 17:33:37.318460   959 net.cpp:406] res4b5_branch2a_relu <- res4b5_branch2a
I0726 17:33:37.318466   959 net.cpp:367] res4b5_branch2a_relu -> res4b5_branch2a (in-place)
I0726 17:33:37.319176   959 net.cpp:122] Setting up res4b5_branch2a_relu
I0726 17:33:37.319191   959 net.cpp:129] Top shape: 1 256 45 80 (921600)
I0726 17:33:37.319207   959 net.cpp:137] Memory required for data: 3955507284
I0726 17:33:37.319211   959 layer_factory.hpp:77] Creating layer res4b5_branch2b
I0726 17:33:37.319221   959 net.cpp:84] Creating Layer res4b5_branch2b
I0726 17:33:37.319224   959 net.cpp:406] res4b5_branch2b <- res4b5_branch2a
I0726 17:33:37.319231   959 net.cpp:380] res4b5_branch2b -> res4b5_branch2b
I0726 17:33:37.322414   959 net.cpp:122] Setting up res4b5_branch2b
I0726 17:33:37.322430   959 net.cpp:129] Top shape: 1 256 45 80 (921600)
I0726 17:33:37.322445   959 net.cpp:137] Memory required for data: 3959193684
I0726 17:33:37.322451   959 layer_factory.hpp:77] Creating layer bn4b5_branch2b
I0726 17:33:37.322460   959 net.cpp:84] Creating Layer bn4b5_branch2b
I0726 17:33:37.322464   959 net.cpp:406] bn4b5_branch2b <- res4b5_branch2b
I0726 17:33:37.322469   959 net.cpp:367] bn4b5_branch2b -> res4b5_branch2b (in-place)
I0726 17:33:37.322916   959 net.cpp:122] Setting up bn4b5_branch2b
I0726 17:33:37.322940   959 net.cpp:129] Top shape: 1 256 45 80 (921600)
I0726 17:33:37.322944   959 net.cpp:137] Memory required for data: 3962880084
I0726 17:33:37.322952   959 layer_factory.hpp:77] Creating layer scale4b5_branch2b
I0726 17:33:37.322957   959 net.cpp:84] Creating Layer scale4b5_branch2b
I0726 17:33:37.322962   959 net.cpp:406] scale4b5_branch2b <- res4b5_branch2b
I0726 17:33:37.322968   959 net.cpp:367] scale4b5_branch2b -> res4b5_branch2b (in-place)
I0726 17:33:37.323051   959 layer_factory.hpp:77] Creating layer scale4b5_branch2b
I0726 17:33:37.323318   959 net.cpp:122] Setting up scale4b5_branch2b
I0726 17:33:37.323329   959 net.cpp:129] Top shape: 1 256 45 80 (921600)
I0726 17:33:37.323333   959 net.cpp:137] Memory required for data: 3966566484
I0726 17:33:37.323338   959 layer_factory.hpp:77] Creating layer res4b5_branch2b_relu
I0726 17:33:37.323344   959 net.cpp:84] Creating Layer res4b5_branch2b_relu
I0726 17:33:37.323348   959 net.cpp:406] res4b5_branch2b_relu <- res4b5_branch2b
I0726 17:33:37.323352   959 net.cpp:367] res4b5_branch2b_relu -> res4b5_branch2b (in-place)
I0726 17:33:37.324055   959 net.cpp:122] Setting up res4b5_branch2b_relu
I0726 17:33:37.324069   959 net.cpp:129] Top shape: 1 256 45 80 (921600)
I0726 17:33:37.324084   959 net.cpp:137] Memory required for data: 3970252884
I0726 17:33:37.324087   959 layer_factory.hpp:77] Creating layer res4b5_branch2c
I0726 17:33:37.324097   959 net.cpp:84] Creating Layer res4b5_branch2c
I0726 17:33:37.324101   959 net.cpp:406] res4b5_branch2c <- res4b5_branch2b
I0726 17:33:37.324107   959 net.cpp:380] res4b5_branch2c -> res4b5_branch2c
I0726 17:33:37.326761   959 net.cpp:122] Setting up res4b5_branch2c
I0726 17:33:37.326777   959 net.cpp:129] Top shape: 1 1024 45 80 (3686400)
I0726 17:33:37.326792   959 net.cpp:137] Memory required for data: 3984998484
I0726 17:33:37.326798   959 layer_factory.hpp:77] Creating layer bn4b5_branch2c
I0726 17:33:37.326807   959 net.cpp:84] Creating Layer bn4b5_branch2c
I0726 17:33:37.326812   959 net.cpp:406] bn4b5_branch2c <- res4b5_branch2c
I0726 17:33:37.326817   959 net.cpp:367] bn4b5_branch2c -> res4b5_branch2c (in-place)
I0726 17:33:37.327280   959 net.cpp:122] Setting up bn4b5_branch2c
I0726 17:33:37.327291   959 net.cpp:129] Top shape: 1 1024 45 80 (3686400)
I0726 17:33:37.327306   959 net.cpp:137] Memory required for data: 3999744084
I0726 17:33:37.327313   959 layer_factory.hpp:77] Creating layer scale4b5_branch2c
I0726 17:33:37.327320   959 net.cpp:84] Creating Layer scale4b5_branch2c
I0726 17:33:37.327324   959 net.cpp:406] scale4b5_branch2c <- res4b5_branch2c
I0726 17:33:37.327330   959 net.cpp:367] scale4b5_branch2c -> res4b5_branch2c (in-place)
I0726 17:33:37.327409   959 layer_factory.hpp:77] Creating layer scale4b5_branch2c
I0726 17:33:37.327682   959 net.cpp:122] Setting up scale4b5_branch2c
I0726 17:33:37.327692   959 net.cpp:129] Top shape: 1 1024 45 80 (3686400)
I0726 17:33:37.327695   959 net.cpp:137] Memory required for data: 4014489684
I0726 17:33:37.327726   959 layer_factory.hpp:77] Creating layer res4b5
I0726 17:33:37.327735   959 net.cpp:84] Creating Layer res4b5
I0726 17:33:37.327739   959 net.cpp:406] res4b5 <- res4b4_res4b4_relu_0_split_1
I0726 17:33:37.327744   959 net.cpp:406] res4b5 <- res4b5_branch2c
I0726 17:33:37.327750   959 net.cpp:380] res4b5 -> res4b5
I0726 17:33:37.327806   959 net.cpp:122] Setting up res4b5
I0726 17:33:37.327816   959 net.cpp:129] Top shape: 1 1024 45 80 (3686400)
I0726 17:33:37.327818   959 net.cpp:137] Memory required for data: 4029235284
I0726 17:33:37.327821   959 layer_factory.hpp:77] Creating layer res4b5_relu
I0726 17:33:37.327828   959 net.cpp:84] Creating Layer res4b5_relu
I0726 17:33:37.327831   959 net.cpp:406] res4b5_relu <- res4b5
I0726 17:33:37.327836   959 net.cpp:367] res4b5_relu -> res4b5 (in-place)
I0726 17:33:37.328047   959 net.cpp:122] Setting up res4b5_relu
I0726 17:33:37.328058   959 net.cpp:129] Top shape: 1 1024 45 80 (3686400)
I0726 17:33:37.328063   959 net.cpp:137] Memory required for data: 4043980884
I0726 17:33:37.328065   959 layer_factory.hpp:77] Creating layer res4b5_res4b5_relu_0_split
I0726 17:33:37.328073   959 net.cpp:84] Creating Layer res4b5_res4b5_relu_0_split
I0726 17:33:37.328078   959 net.cpp:406] res4b5_res4b5_relu_0_split <- res4b5
I0726 17:33:37.328084   959 net.cpp:380] res4b5_res4b5_relu_0_split -> res4b5_res4b5_relu_0_split_0
I0726 17:33:37.328090   959 net.cpp:380] res4b5_res4b5_relu_0_split -> res4b5_res4b5_relu_0_split_1
I0726 17:33:37.328181   959 net.cpp:122] Setting up res4b5_res4b5_relu_0_split
I0726 17:33:37.328188   959 net.cpp:129] Top shape: 1 1024 45 80 (3686400)
I0726 17:33:37.328192   959 net.cpp:129] Top shape: 1 1024 45 80 (3686400)
I0726 17:33:37.328196   959 net.cpp:137] Memory required for data: 4073472084
I0726 17:33:37.328198   959 layer_factory.hpp:77] Creating layer res4b6_branch2a
I0726 17:33:37.328207   959 net.cpp:84] Creating Layer res4b6_branch2a
I0726 17:33:37.328212   959 net.cpp:406] res4b6_branch2a <- res4b5_res4b5_relu_0_split_0
I0726 17:33:37.328218   959 net.cpp:380] res4b6_branch2a -> res4b6_branch2a
I0726 17:33:37.330859   959 net.cpp:122] Setting up res4b6_branch2a
I0726 17:33:37.330875   959 net.cpp:129] Top shape: 1 256 45 80 (921600)
I0726 17:33:37.330891   959 net.cpp:137] Memory required for data: 4077158484
I0726 17:33:37.330896   959 layer_factory.hpp:77] Creating layer bn4b6_branch2a
I0726 17:33:37.330905   959 net.cpp:84] Creating Layer bn4b6_branch2a
I0726 17:33:37.330909   959 net.cpp:406] bn4b6_branch2a <- res4b6_branch2a
I0726 17:33:37.330916   959 net.cpp:367] bn4b6_branch2a -> res4b6_branch2a (in-place)
I0726 17:33:37.331372   959 net.cpp:122] Setting up bn4b6_branch2a
I0726 17:33:37.331383   959 net.cpp:129] Top shape: 1 256 45 80 (921600)
I0726 17:33:37.331398   959 net.cpp:137] Memory required for data: 4080844884
I0726 17:33:37.331405   959 layer_factory.hpp:77] Creating layer scale4b6_branch2a
I0726 17:33:37.331411   959 net.cpp:84] Creating Layer scale4b6_branch2a
I0726 17:33:37.331415   959 net.cpp:406] scale4b6_branch2a <- res4b6_branch2a
I0726 17:33:37.331421   959 net.cpp:367] scale4b6_branch2a -> res4b6_branch2a (in-place)
I0726 17:33:37.331507   959 layer_factory.hpp:77] Creating layer scale4b6_branch2a
I0726 17:33:37.331768   959 net.cpp:122] Setting up scale4b6_branch2a
I0726 17:33:37.331778   959 net.cpp:129] Top shape: 1 256 45 80 (921600)
I0726 17:33:37.331781   959 net.cpp:137] Memory required for data: 4084531284
I0726 17:33:37.331786   959 layer_factory.hpp:77] Creating layer res4b6_branch2a_relu
I0726 17:33:37.331792   959 net.cpp:84] Creating Layer res4b6_branch2a_relu
I0726 17:33:37.331795   959 net.cpp:406] res4b6_branch2a_relu <- res4b6_branch2a
I0726 17:33:37.331800   959 net.cpp:367] res4b6_branch2a_relu -> res4b6_branch2a (in-place)
I0726 17:33:37.332541   959 net.cpp:122] Setting up res4b6_branch2a_relu
I0726 17:33:37.332556   959 net.cpp:129] Top shape: 1 256 45 80 (921600)
I0726 17:33:37.332571   959 net.cpp:137] Memory required for data: 4088217684
I0726 17:33:37.332573   959 layer_factory.hpp:77] Creating layer res4b6_branch2b
I0726 17:33:37.332583   959 net.cpp:84] Creating Layer res4b6_branch2b
I0726 17:33:37.332588   959 net.cpp:406] res4b6_branch2b <- res4b6_branch2a
I0726 17:33:37.332594   959 net.cpp:380] res4b6_branch2b -> res4b6_branch2b
I0726 17:33:37.335796   959 net.cpp:122] Setting up res4b6_branch2b
I0726 17:33:37.335825   959 net.cpp:129] Top shape: 1 256 45 80 (921600)
I0726 17:33:37.335829   959 net.cpp:137] Memory required for data: 4091904084
I0726 17:33:37.335835   959 layer_factory.hpp:77] Creating layer bn4b6_branch2b
I0726 17:33:37.335842   959 net.cpp:84] Creating Layer bn4b6_branch2b
I0726 17:33:37.335846   959 net.cpp:406] bn4b6_branch2b <- res4b6_branch2b
I0726 17:33:37.335853   959 net.cpp:367] bn4b6_branch2b -> res4b6_branch2b (in-place)
I0726 17:33:37.336316   959 net.cpp:122] Setting up bn4b6_branch2b
I0726 17:33:37.336326   959 net.cpp:129] Top shape: 1 256 45 80 (921600)
I0726 17:33:37.336340   959 net.cpp:137] Memory required for data: 4095590484
I0726 17:33:37.336347   959 layer_factory.hpp:77] Creating layer scale4b6_branch2b
I0726 17:33:37.336355   959 net.cpp:84] Creating Layer scale4b6_branch2b
I0726 17:33:37.336359   959 net.cpp:406] scale4b6_branch2b <- res4b6_branch2b
I0726 17:33:37.336364   959 net.cpp:367] scale4b6_branch2b -> res4b6_branch2b (in-place)
I0726 17:33:37.336452   959 layer_factory.hpp:77] Creating layer scale4b6_branch2b
I0726 17:33:37.336720   959 net.cpp:122] Setting up scale4b6_branch2b
I0726 17:33:37.336730   959 net.cpp:129] Top shape: 1 256 45 80 (921600)
I0726 17:33:37.336733   959 net.cpp:137] Memory required for data: 4099276884
I0726 17:33:37.336740   959 layer_factory.hpp:77] Creating layer res4b6_branch2b_relu
I0726 17:33:37.336745   959 net.cpp:84] Creating Layer res4b6_branch2b_relu
I0726 17:33:37.336748   959 net.cpp:406] res4b6_branch2b_relu <- res4b6_branch2b
I0726 17:33:37.336753   959 net.cpp:367] res4b6_branch2b_relu -> res4b6_branch2b (in-place)
I0726 17:33:37.337452   959 net.cpp:122] Setting up res4b6_branch2b_relu
I0726 17:33:37.337466   959 net.cpp:129] Top shape: 1 256 45 80 (921600)
I0726 17:33:37.337481   959 net.cpp:137] Memory required for data: 4102963284
I0726 17:33:37.337486   959 layer_factory.hpp:77] Creating layer res4b6_branch2c
I0726 17:33:37.337494   959 net.cpp:84] Creating Layer res4b6_branch2c
I0726 17:33:37.337498   959 net.cpp:406] res4b6_branch2c <- res4b6_branch2b
I0726 17:33:37.337505   959 net.cpp:380] res4b6_branch2c -> res4b6_branch2c
I0726 17:33:37.340268   959 net.cpp:122] Setting up res4b6_branch2c
I0726 17:33:37.340286   959 net.cpp:129] Top shape: 1 1024 45 80 (3686400)
I0726 17:33:37.340301   959 net.cpp:137] Memory required for data: 4117708884
I0726 17:33:37.340306   959 layer_factory.hpp:77] Creating layer bn4b6_branch2c
I0726 17:33:37.340313   959 net.cpp:84] Creating Layer bn4b6_branch2c
I0726 17:33:37.340317   959 net.cpp:406] bn4b6_branch2c <- res4b6_branch2c
I0726 17:33:37.340324   959 net.cpp:367] bn4b6_branch2c -> res4b6_branch2c (in-place)
…
I0726 17:33:37.543378   959 net.cpp:129] Top shape: 1 1024 45 80 (3686400)
I0726 17:33:37.543393   959 net.cpp:137] Memory required for data: 6108364884
I0726 17:33:37.543400   959 layer_factory.hpp:77] Creating layer bn4b21_branch2c
I0726 17:33:37.543407   959 net.cpp:84] Creating Layer bn4b21_branch2c
I0726 17:33:37.543411   959 net.cpp:406] bn4b21_branch2c <- res4b21_branch2c
I0726 17:33:37.543417   959 net.cpp:367] bn4b21_branch2c -> res4b21_branch2c (in-place)
I0726 17:33:37.543855   959 net.cpp:122] Setting up bn4b21_branch2c
I0726 17:33:37.543867   959 net.cpp:129] Top shape: 1 1024 45 80 (3686400)
I0726 17:33:37.543870   959 net.cpp:137] Memory required for data: 6123110484
I0726 17:33:37.543889   959 layer_factory.hpp:77] Creating layer scale4b21_branch2c
I0726 17:33:37.543895   959 net.cpp:84] Creating Layer scale4b21_branch2c
I0726 17:33:37.543898   959 net.cpp:406] scale4b21_branch2c <- res4b21_branch2c
I0726 17:33:37.543905   959 net.cpp:367] scale4b21_branch2c -> res4b21_branch2c (in-place)
I0726 17:33:37.543993   959 layer_factory.hpp:77] Creating layer scale4b21_branch2c
I0726 17:33:37.544260   959 net.cpp:122] Setting up scale4b21_branch2c
I0726 17:33:37.544270   959 net.cpp:129] Top shape: 1 1024 45 80 (3686400)
I0726 17:33:37.544273   959 net.cpp:137] Memory required for data: 6137856084
I0726 17:33:37.544279   959 layer_factory.hpp:77] Creating layer res4b21
I0726 17:33:37.544286   959 net.cpp:84] Creating Layer res4b21
I0726 17:33:37.544289   959 net.cpp:406] res4b21 <- res4b20_res4b20_relu_0_split_1
I0726 17:33:37.544294   959 net.cpp:406] res4b21 <- res4b21_branch2c
I0726 17:33:37.544299   959 net.cpp:380] res4b21 -> res4b21
I0726 17:33:37.544348   959 net.cpp:122] Setting up res4b21
I0726 17:33:37.544356   959 net.cpp:129] Top shape: 1 1024 45 80 (3686400)
I0726 17:33:37.544359   959 net.cpp:137] Memory required for data: 6152601684
I0726 17:33:37.544363   959 layer_factory.hpp:77] Creating layer res4b21_relu
I0726 17:33:37.544368   959 net.cpp:84] Creating Layer res4b21_relu
I0726 17:33:37.544371   959 net.cpp:406] res4b21_relu <- res4b21
I0726 17:33:37.544375   959 net.cpp:367] res4b21_relu -> res4b21 (in-place)
I0726 17:33:37.544610   959 net.cpp:122] Setting up res4b21_relu
I0726 17:33:37.544621   959 net.cpp:129] Top shape: 1 1024 45 80 (3686400)
I0726 17:33:37.544626   959 net.cpp:137] Memory required for data: 6167347284
I0726 17:33:37.544630   959 layer_factory.hpp:77] Creating layer res4b21_res4b21_relu_0_split
I0726 17:33:37.544636   959 net.cpp:84] Creating Layer res4b21_res4b21_relu_0_split
I0726 17:33:37.544639   959 net.cpp:406] res4b21_res4b21_relu_0_split <- res4b21
I0726 17:33:37.544644   959 net.cpp:380] res4b21_res4b21_relu_0_split -> res4b21_res4b21_relu_0_split_0
I0726 17:33:37.544651   959 net.cpp:380] res4b21_res4b21_relu_0_split -> res4b21_res4b21_relu_0_split_1
I0726 17:33:37.544733   959 net.cpp:122] Setting up res4b21_res4b21_relu_0_split
I0726 17:33:37.544742   959 net.cpp:129] Top shape: 1 1024 45 80 (3686400)
I0726 17:33:37.544746   959 net.cpp:129] Top shape: 1 1024 45 80 (3686400)
I0726 17:33:37.544749   959 net.cpp:137] Memory required for data: 6196838484
I0726 17:33:37.544752   959 layer_factory.hpp:77] Creating layer res4b22_branch2a
I0726 17:33:37.544761   959 net.cpp:84] Creating Layer res4b22_branch2a
I0726 17:33:37.544765   959 net.cpp:406] res4b22_branch2a <- res4b21_res4b21_relu_0_split_0
I0726 17:33:37.544772   959 net.cpp:380] res4b22_branch2a -> res4b22_branch2a
I0726 17:33:37.547632   959 net.cpp:122] Setting up res4b22_branch2a
I0726 17:33:37.547660   959 net.cpp:129] Top shape: 1 256 45 80 (921600)
I0726 17:33:37.547664   959 net.cpp:137] Memory required for data: 6200524884
I0726 17:33:37.547669   959 layer_factory.hpp:77] Creating layer bn4b22_branch2a
I0726 17:33:37.547678   959 net.cpp:84] Creating Layer bn4b22_branch2a
I0726 17:33:37.547683   959 net.cpp:406] bn4b22_branch2a <- res4b22_branch2a
I0726 17:33:37.547689   959 net.cpp:367] bn4b22_branch2a -> res4b22_branch2a (in-place)
I0726 17:33:37.548095   959 net.cpp:122] Setting up bn4b22_branch2a
I0726 17:33:37.548105   959 net.cpp:129] Top shape: 1 256 45 80 (921600)
I0726 17:33:37.548120   959 net.cpp:137] Memory required for data: 6204211284
I0726 17:33:37.548126   959 layer_factory.hpp:77] Creating layer scale4b22_branch2a
I0726 17:33:37.548133   959 net.cpp:84] Creating Layer scale4b22_branch2a
I0726 17:33:37.548138   959 net.cpp:406] scale4b22_branch2a <- res4b22_branch2a
I0726 17:33:37.548144   959 net.cpp:367] scale4b22_branch2a -> res4b22_branch2a (in-place)
I0726 17:33:37.548221   959 layer_factory.hpp:77] Creating layer scale4b22_branch2a
I0726 17:33:37.548456   959 net.cpp:122] Setting up scale4b22_branch2a
I0726 17:33:37.548467   959 net.cpp:129] Top shape: 1 256 45 80 (921600)
I0726 17:33:37.548470   959 net.cpp:137] Memory required for data: 6207897684
I0726 17:33:37.548476   959 layer_factory.hpp:77] Creating layer res4b22_branch2a_relu
I0726 17:33:37.548481   959 net.cpp:84] Creating Layer res4b22_branch2a_relu
I0726 17:33:37.548485   959 net.cpp:406] res4b22_branch2a_relu <- res4b22_branch2a
I0726 17:33:37.548491   959 net.cpp:367] res4b22_branch2a_relu -> res4b22_branch2a (in-place)
I0726 17:33:37.549227   959 net.cpp:122] Setting up res4b22_branch2a_relu
I0726 17:33:37.549242   959 net.cpp:129] Top shape: 1 256 45 80 (921600)
I0726 17:33:37.549257   959 net.cpp:137] Memory required for data: 6211584084
I0726 17:33:37.549260   959 layer_factory.hpp:77] Creating layer res4b22_branch2b
I0726 17:33:37.549269   959 net.cpp:84] Creating Layer res4b22_branch2b
I0726 17:33:37.549273   959 net.cpp:406] res4b22_branch2b <- res4b22_branch2a
I0726 17:33:37.549280   959 net.cpp:380] res4b22_branch2b -> res4b22_branch2b
I0726 17:33:37.552654   959 net.cpp:122] Setting up res4b22_branch2b
I0726 17:33:37.552682   959 net.cpp:129] Top shape: 1 256 45 80 (921600)
I0726 17:33:37.552686   959 net.cpp:137] Memory required for data: 6215270484
I0726 17:33:37.552693   959 layer_factory.hpp:77] Creating layer bn4b22_branch2b
I0726 17:33:37.552702   959 net.cpp:84] Creating Layer bn4b22_branch2b
I0726 17:33:37.552706   959 net.cpp:406] bn4b22_branch2b <- res4b22_branch2b
I0726 17:33:37.552712   959 net.cpp:367] bn4b22_branch2b -> res4b22_branch2b (in-place)
I0726 17:33:37.553123   959 net.cpp:122] Setting up bn4b22_branch2b
I0726 17:33:37.553133   959 net.cpp:129] Top shape: 1 256 45 80 (921600)
I0726 17:33:37.553148   959 net.cpp:137] Memory required for data: 6218956884
I0726 17:33:37.553155   959 layer_factory.hpp:77] Creating layer scale4b22_branch2b
I0726 17:33:37.553164   959 net.cpp:84] Creating Layer scale4b22_branch2b
I0726 17:33:37.553167   959 net.cpp:406] scale4b22_branch2b <- res4b22_branch2b
I0726 17:33:37.553172   959 net.cpp:367] scale4b22_branch2b -> res4b22_branch2b (in-place)
I0726 17:33:37.553248   959 layer_factory.hpp:77] Creating layer scale4b22_branch2b
I0726 17:33:37.553479   959 net.cpp:122] Setting up scale4b22_branch2b
I0726 17:33:37.553489   959 net.cpp:129] Top shape: 1 256 45 80 (921600)
I0726 17:33:37.553493   959 net.cpp:137] Memory required for data: 6222643284
I0726 17:33:37.553498   959 layer_factory.hpp:77] Creating layer res4b22_branch2b_relu
I0726 17:33:37.553506   959 net.cpp:84] Creating Layer res4b22_branch2b_relu
I0726 17:33:37.553510   959 net.cpp:406] res4b22_branch2b_relu <- res4b22_branch2b
I0726 17:33:37.553514   959 net.cpp:367] res4b22_branch2b_relu -> res4b22_branch2b (in-place)
I0726 17:33:37.554255   959 net.cpp:122] Setting up res4b22_branch2b_relu
I0726 17:33:37.554270   959 net.cpp:129] Top shape: 1 256 45 80 (921600)
I0726 17:33:37.554285   959 net.cpp:137] Memory required for data: 6226329684
I0726 17:33:37.554287   959 layer_factory.hpp:77] Creating layer res4b22_branch2c
I0726 17:33:37.554297   959 net.cpp:84] Creating Layer res4b22_branch2c
I0726 17:33:37.554302   959 net.cpp:406] res4b22_branch2c <- res4b22_branch2b
I0726 17:33:37.554309   959 net.cpp:380] res4b22_branch2c -> res4b22_branch2c
I0726 17:33:37.557072   959 net.cpp:122] Setting up res4b22_branch2c
I0726 17:33:37.557101   959 net.cpp:129] Top shape: 1 1024 45 80 (3686400)
I0726 17:33:37.557104   959 net.cpp:137] Memory required for data: 6241075284
I0726 17:33:37.557111   959 layer_factory.hpp:77] Creating layer bn4b22_branch2c
I0726 17:33:37.557118   959 net.cpp:84] Creating Layer bn4b22_branch2c
I0726 17:33:37.557123   959 net.cpp:406] bn4b22_branch2c <- res4b22_branch2c
I0726 17:33:37.557129   959 net.cpp:367] bn4b22_branch2c -> res4b22_branch2c (in-place)
I0726 17:33:37.557574   959 net.cpp:122] Setting up bn4b22_branch2c
I0726 17:33:37.557585   959 net.cpp:129] Top shape: 1 1024 45 80 (3686400)
I0726 17:33:37.557600   959 net.cpp:137] Memory required for data: 6255820884
I0726 17:33:37.557607   959 layer_factory.hpp:77] Creating layer scale4b22_branch2c
I0726 17:33:37.557615   959 net.cpp:84] Creating Layer scale4b22_branch2c
I0726 17:33:37.557618   959 net.cpp:406] scale4b22_branch2c <- res4b22_branch2c
I0726 17:33:37.557623   959 net.cpp:367] scale4b22_branch2c -> res4b22_branch2c (in-place)
I0726 17:33:37.557711   959 layer_factory.hpp:77] Creating layer scale4b22_branch2c
I0726 17:33:37.558522   959 net.cpp:122] Setting up scale4b22_branch2c
I0726 17:33:37.558537   959 net.cpp:129] Top shape: 1 1024 45 80 (3686400)
I0726 17:33:37.558552   959 net.cpp:137] Memory required for data: 6270566484
I0726 17:33:37.558557   959 layer_factory.hpp:77] Creating layer res4b22
I0726 17:33:37.558563   959 net.cpp:84] Creating Layer res4b22
I0726 17:33:37.558568   959 net.cpp:406] res4b22 <- res4b21_res4b21_relu_0_split_1
I0726 17:33:37.558573   959 net.cpp:406] res4b22 <- res4b22_branch2c
I0726 17:33:37.558578   959 net.cpp:380] res4b22 -> res4b22
I0726 17:33:37.558634   959 net.cpp:122] Setting up res4b22
I0726 17:33:37.558645   959 net.cpp:129] Top shape: 1 1024 45 80 (3686400)
I0726 17:33:37.558647   959 net.cpp:137] Memory required for data: 6285312084
I0726 17:33:37.558650   959 layer_factory.hpp:77] Creating layer res4b22_relu
I0726 17:33:37.558655   959 net.cpp:84] Creating Layer res4b22_relu
I0726 17:33:37.558660   959 net.cpp:406] res4b22_relu <- res4b22
I0726 17:33:37.558663   959 net.cpp:367] res4b22_relu -> res4b22 (in-place)
I0726 17:33:37.558902   959 net.cpp:122] Setting up res4b22_relu
I0726 17:33:37.558915   959 net.cpp:129] Top shape: 1 1024 45 80 (3686400)
I0726 17:33:37.558919   959 net.cpp:137] Memory required for data: 6300057684
I0726 17:33:37.558923   959 layer_factory.hpp:77] Creating layer res4b22_res4b22_relu_0_split
I0726 17:33:37.558928   959 net.cpp:84] Creating Layer res4b22_res4b22_relu_0_split
I0726 17:33:37.558931   959 net.cpp:406] res4b22_res4b22_relu_0_split <- res4b22
I0726 17:33:37.558938   959 net.cpp:380] res4b22_res4b22_relu_0_split -> res4b22_res4b22_relu_0_split_0
I0726 17:33:37.558945   959 net.cpp:380] res4b22_res4b22_relu_0_split -> res4b22_res4b22_relu_0_split_1
I0726 17:33:37.559033   959 net.cpp:122] Setting up res4b22_res4b22_relu_0_split
I0726 17:33:37.559042   959 net.cpp:129] Top shape: 1 1024 45 80 (3686400)
I0726 17:33:37.559046   959 net.cpp:129] Top shape: 1 1024 45 80 (3686400)
I0726 17:33:37.559051   959 net.cpp:137] Memory required for data: 6329548884
I0726 17:33:37.559053   959 layer_factory.hpp:77] Creating layer rpn_conv/3x3
I0726 17:33:37.559062   959 net.cpp:84] Creating Layer rpn_conv/3x3
I0726 17:33:37.559072   959 net.cpp:406] rpn_conv/3x3 <- res4b22_res4b22_relu_0_split_0
I0726 17:33:37.559080   959 net.cpp:380] rpn_conv/3x3 -> rpn/output
I0726 17:33:37.621531   959 net.cpp:122] Setting up rpn_conv/3x3
I0726 17:33:37.621572   959 net.cpp:129] Top shape: 1 256 45 80 (921600)
I0726 17:33:37.621587   959 net.cpp:137] Memory required for data: 6333235284
I0726 17:33:37.621598   959 layer_factory.hpp:77] Creating layer rpn_relu/3x3
I0726 17:33:37.621608   959 net.cpp:84] Creating Layer rpn_relu/3x3
I0726 17:33:37.621613   959 net.cpp:406] rpn_relu/3x3 <- rpn/output
I0726 17:33:37.621620   959 net.cpp:367] rpn_relu/3x3 -> rpn/output (in-place)
I0726 17:33:37.622488   959 net.cpp:122] Setting up rpn_relu/3x3
I0726 17:33:37.622503   959 net.cpp:129] Top shape: 1 256 45 80 (921600)
I0726 17:33:37.622519   959 net.cpp:137] Memory required for data: 6336921684
I0726 17:33:37.622522   959 layer_factory.hpp:77] Creating layer rpn/output_rpn_relu/3x3_0_split
I0726 17:33:37.622529   959 net.cpp:84] Creating Layer rpn/output_rpn_relu/3x3_0_split
I0726 17:33:37.622532   959 net.cpp:406] rpn/output_rpn_relu/3x3_0_split <- rpn/output
I0726 17:33:37.622539   959 net.cpp:380] rpn/output_rpn_relu/3x3_0_split -> rpn/output_rpn_relu/3x3_0_split_0
I0726 17:33:37.622545   959 net.cpp:380] rpn/output_rpn_relu/3x3_0_split -> rpn/output_rpn_relu/3x3_0_split_1
I0726 17:33:37.622650   959 net.cpp:122] Setting up rpn/output_rpn_relu/3x3_0_split
I0726 17:33:37.622661   959 net.cpp:129] Top shape: 1 256 45 80 (921600)
I0726 17:33:37.622666   959 net.cpp:129] Top shape: 1 256 45 80 (921600)
I0726 17:33:37.622669   959 net.cpp:137] Memory required for data: 6344294484
I0726 17:33:37.622673   959 layer_factory.hpp:77] Creating layer rpn_cls_score
I0726 17:33:37.622685   959 net.cpp:84] Creating Layer rpn_cls_score
I0726 17:33:37.622691   959 net.cpp:406] rpn_cls_score <- rpn/output_rpn_relu/3x3_0_split_0
I0726 17:33:37.622697   959 net.cpp:380] rpn_cls_score -> rpn_cls_score
I0726 17:33:37.625244   959 net.cpp:122] Setting up rpn_cls_score
I0726 17:33:37.625262   959 net.cpp:129] Top shape: 1 18 45 80 (64800)
I0726 17:33:37.625277   959 net.cpp:137] Memory required for data: 6344553684
I0726 17:33:37.625284   959 layer_factory.hpp:77] Creating layer rpn_cls_score_rpn_cls_score_0_split
I0726 17:33:37.625290   959 net.cpp:84] Creating Layer rpn_cls_score_rpn_cls_score_0_split
I0726 17:33:37.625295   959 net.cpp:406] rpn_cls_score_rpn_cls_score_0_split <- rpn_cls_score
I0726 17:33:37.625303   959 net.cpp:380] rpn_cls_score_rpn_cls_score_0_split -> rpn_cls_score_rpn_cls_score_0_split_0
I0726 17:33:37.625309   959 net.cpp:380] rpn_cls_score_rpn_cls_score_0_split -> rpn_cls_score_rpn_cls_score_0_split_1
I0726 17:33:37.625396   959 net.cpp:122] Setting up rpn_cls_score_rpn_cls_score_0_split
I0726 17:33:37.625406   959 net.cpp:129] Top shape: 1 18 45 80 (64800)
I0726 17:33:37.625409   959 net.cpp:129] Top shape: 1 18 45 80 (64800)
I0726 17:33:37.625413   959 net.cpp:137] Memory required for data: 6345072084
I0726 17:33:37.625416   959 layer_factory.hpp:77] Creating layer rpn_bbox_pred
I0726 17:33:37.625427   959 net.cpp:84] Creating Layer rpn_bbox_pred
I0726 17:33:37.625432   959 net.cpp:406] rpn_bbox_pred <- rpn/output_rpn_relu/3x3_0_split_1
I0726 17:33:37.625440   959 net.cpp:380] rpn_bbox_pred -> rpn_bbox_pred
I0726 17:33:37.628365   959 net.cpp:122] Setting up rpn_bbox_pred
I0726 17:33:37.628393   959 net.cpp:129] Top shape: 1 36 45 80 (129600)
I0726 17:33:37.628398   959 net.cpp:137] Memory required for data: 6345590484
I0726 17:33:37.628406   959 layer_factory.hpp:77] Creating layer rpn_bbox_pred_rpn_bbox_pred_0_split
I0726 17:33:37.628412   959 net.cpp:84] Creating Layer rpn_bbox_pred_rpn_bbox_pred_0_split
I0726 17:33:37.628417   959 net.cpp:406] rpn_bbox_pred_rpn_bbox_pred_0_split <- rpn_bbox_pred
I0726 17:33:37.628422   959 net.cpp:380] rpn_bbox_pred_rpn_bbox_pred_0_split -> rpn_bbox_pred_rpn_bbox_pred_0_split_0
I0726 17:33:37.628429   959 net.cpp:380] rpn_bbox_pred_rpn_bbox_pred_0_split -> rpn_bbox_pred_rpn_bbox_pred_0_split_1
I0726 17:33:37.628515   959 net.cpp:122] Setting up rpn_bbox_pred_rpn_bbox_pred_0_split
I0726 17:33:37.628525   959 net.cpp:129] Top shape: 1 36 45 80 (129600)
I0726 17:33:37.628528   959 net.cpp:129] Top shape: 1 36 45 80 (129600)
I0726 17:33:37.628532   959 net.cpp:137] Memory required for data: 6346627284
I0726 17:33:37.628535   959 layer_factory.hpp:77] Creating layer rpn_cls_score_reshape
I0726 17:33:37.628545   959 net.cpp:84] Creating Layer rpn_cls_score_reshape
I0726 17:33:37.628548   959 net.cpp:406] rpn_cls_score_reshape <- rpn_cls_score_rpn_cls_score_0_split_0
I0726 17:33:37.628554   959 net.cpp:380] rpn_cls_score_reshape -> rpn_cls_score_reshape
I0726 17:33:37.628605   959 net.cpp:122] Setting up rpn_cls_score_reshape
I0726 17:33:37.628614   959 net.cpp:129] Top shape: 1 2 405 80 (64800)
I0726 17:33:37.628618   959 net.cpp:137] Memory required for data: 6346886484
I0726 17:33:37.628621   959 layer_factory.hpp:77] Creating layer rpn_cls_score_reshape_rpn_cls_score_reshape_0_split
I0726 17:33:37.628626   959 net.cpp:84] Creating Layer rpn_cls_score_reshape_rpn_cls_score_reshape_0_split
I0726 17:33:37.628630   959 net.cpp:406] rpn_cls_score_reshape_rpn_cls_score_reshape_0_split <- rpn_cls_score_reshape
I0726 17:33:37.628635   959 net.cpp:380] rpn_cls_score_reshape_rpn_cls_score_reshape_0_split -> rpn_cls_score_reshape_rpn_cls_score_reshape_0_split_0
I0726 17:33:37.628641   959 net.cpp:380] rpn_cls_score_reshape_rpn_cls_score_reshape_0_split -> rpn_cls_score_reshape_rpn_cls_score_reshape_0_split_1
I0726 17:33:37.628715   959 net.cpp:122] Setting up rpn_cls_score_reshape_rpn_cls_score_reshape_0_split
I0726 17:33:37.628723   959 net.cpp:129] Top shape: 1 2 405 80 (64800)
I0726 17:33:37.628728   959 net.cpp:129] Top shape: 1 2 405 80 (64800)
I0726 17:33:37.628731   959 net.cpp:137] Memory required for data: 6347404884
I0726 17:33:37.628734   959 layer_factory.hpp:77] Creating layer rpn-data
I0726 17:33:37.629189   959 net.cpp:84] Creating Layer rpn-data
I0726 17:33:37.629204   959 net.cpp:406] rpn-data <- rpn_cls_score_rpn_cls_score_0_split_1
I0726 17:33:37.629222   959 net.cpp:406] rpn-data <- gt_boxes_input-data_2_split_0
I0726 17:33:37.629227   959 net.cpp:406] rpn-data <- im_info_input-data_1_split_0
I0726 17:33:37.629231   959 net.cpp:406] rpn-data <- data_input-data_0_split_1
I0726 17:33:37.629237   959 net.cpp:380] rpn-data -> rpn_labels
I0726 17:33:37.629245   959 net.cpp:380] rpn-data -> rpn_bbox_targets
I0726 17:33:37.629252   959 net.cpp:380] rpn-data -> rpn_bbox_inside_weights
I0726 17:33:37.629258   959 net.cpp:380] rpn-data -> rpn_bbox_outside_weights
I0726 17:33:37.630129   959 net.cpp:122] Setting up rpn-data
I0726 17:33:37.630147   959 net.cpp:129] Top shape: 1 1 405 80 (32400)
I0726 17:33:37.630164   959 net.cpp:129] Top shape: 1 36 45 80 (129600)
I0726 17:33:37.630168   959 net.cpp:129] Top shape: 1 36 45 80 (129600)
I0726 17:33:37.630172   959 net.cpp:129] Top shape: 1 36 45 80 (129600)
I0726 17:33:37.630174   959 net.cpp:137] Memory required for data: 6349089684
I0726 17:33:37.630179   959 layer_factory.hpp:77] Creating layer rpn_loss_cls
I0726 17:33:37.630187   959 net.cpp:84] Creating Layer rpn_loss_cls
I0726 17:33:37.630192   959 net.cpp:406] rpn_loss_cls <- rpn_cls_score_reshape_rpn_cls_score_reshape_0_split_0
I0726 17:33:37.630198   959 net.cpp:406] rpn_loss_cls <- rpn_labels
…
I0726 17:33:37.635924   959 net.cpp:129] Top shape: (1)
I0726 17:33:37.635941   959 net.cpp:132]     with loss weight 1
I0726 17:33:37.635946   959 net.cpp:137] Memory required for data: 6349089692
I0726 17:33:37.635949   959 layer_factory.hpp:77] Creating layer rpn_cls_prob
I0726 17:33:37.635957   959 net.cpp:84] Creating Layer rpn_cls_prob
I0726 17:33:37.635960   959 net.cpp:406] rpn_cls_prob <- rpn_cls_score_reshape_rpn_cls_score_reshape_0_split_1
I0726 17:33:37.635967   959 net.cpp:380] rpn_cls_prob -> rpn_cls_prob
I0726 17:33:37.636375   959 net.cpp:122] Setting up rpn_cls_prob
I0726 17:33:37.636389   959 net.cpp:129] Top shape: 1 2 405 80 (64800)
I0726 17:33:37.636404   959 net.cpp:137] Memory required for data: 6349348892
I0726 17:33:37.636409   959 layer_factory.hpp:77] Creating layer rpn_cls_prob_reshape
I0726 17:33:37.636416   959 net.cpp:84] Creating Layer rpn_cls_prob_reshape
I0726 17:33:37.636420   959 net.cpp:406] rpn_cls_prob_reshape <- rpn_cls_prob
I0726 17:33:37.636426   959 net.cpp:380] rpn_cls_prob_reshape -> rpn_cls_prob_reshape
I0726 17:33:37.636481   959 net.cpp:122] Setting up rpn_cls_prob_reshape
I0726 17:33:37.636489   959 net.cpp:129] Top shape: 1 18 45 80 (64800)
I0726 17:33:37.636492   959 net.cpp:137] Memory required for data: 6349608092
I0726 17:33:37.636495   959 layer_factory.hpp:77] Creating layer proposal
I0726 17:33:37.636649   959 net.cpp:84] Creating Layer proposal
I0726 17:33:37.636662   959 net.cpp:406] proposal <- rpn_cls_prob_reshape
I0726 17:33:37.636668   959 net.cpp:406] proposal <- rpn_bbox_pred_rpn_bbox_pred_0_split_1
I0726 17:33:37.636673   959 net.cpp:406] proposal <- im_info_input-data_1_split_1
I0726 17:33:37.636678   959 net.cpp:380] proposal -> rpn_rois
I0726 17:33:37.637243   959 net.cpp:122] Setting up proposal
I0726 17:33:37.637261   959 net.cpp:129] Top shape: 1 5 (5)
I0726 17:33:37.637277   959 net.cpp:137] Memory required for data: 6349608112
I0726 17:33:37.637281   959 layer_factory.hpp:77] Creating layer roi-data
I0726 17:33:37.637428   959 net.cpp:84] Creating Layer roi-data
I0726 17:33:37.637442   959 net.cpp:406] roi-data <- rpn_rois
I0726 17:33:37.637449   959 net.cpp:406] roi-data <- gt_boxes_input-data_2_split_1
I0726 17:33:37.637454   959 net.cpp:380] roi-data -> rois
I0726 17:33:37.637462   959 net.cpp:380] roi-data -> labels
I0726 17:33:37.637470   959 net.cpp:380] roi-data -> bbox_targets
I0726 17:33:37.637476   959 net.cpp:380] roi-data -> bbox_inside_weights
I0726 17:33:37.637481   959 net.cpp:380] roi-data -> bbox_outside_weights
I0726 17:33:37.637989   959 net.cpp:122] Setting up roi-data
I0726 17:33:37.638015   959 net.cpp:129] Top shape: 1 5 (5)
I0726 17:33:37.638031   959 net.cpp:129] Top shape: 1 1 (1)
I0726 17:33:37.638036   959 net.cpp:129] Top shape: 1 8 (8)
I0726 17:33:37.638038   959 net.cpp:129] Top shape: 1 8 (8)
I0726 17:33:37.638042   959 net.cpp:129] Top shape: 1 8 (8)
I0726 17:33:37.638046   959 net.cpp:137] Memory required for data: 6349608232
I0726 17:33:37.638049   959 layer_factory.hpp:77] Creating layer roi_pool5
I0726 17:33:37.638056   959 net.cpp:84] Creating Layer roi_pool5
I0726 17:33:37.638062   959 net.cpp:406] roi_pool5 <- res4b22_res4b22_relu_0_split_1
I0726 17:33:37.638067   959 net.cpp:406] roi_pool5 <- rois
I0726 17:33:37.638073   959 net.cpp:380] roi_pool5 -> roi_pool5
I0726 17:33:37.638080   959 roi_pooling_layer.cpp:30] Spatial scale: 0.0625
I0726 17:33:37.638173   959 net.cpp:122] Setting up roi_pool5
I0726 17:33:37.638183   959 net.cpp:129] Top shape: 1 1024 14 14 (200704)
I0726 17:33:37.638187   959 net.cpp:137] Memory required for data: 6350411048
I0726 17:33:37.638191   959 layer_factory.hpp:77] Creating layer roi_pool5_roi_pool5_0_split
I0726 17:33:37.638197   959 net.cpp:84] Creating Layer roi_pool5_roi_pool5_0_split
I0726 17:33:37.638201   959 net.cpp:406] roi_pool5_roi_pool5_0_split <- roi_pool5
I0726 17:33:37.638208   959 net.cpp:380] roi_pool5_roi_pool5_0_split -> roi_pool5_roi_pool5_0_split_0
I0726 17:33:37.638214   959 net.cpp:380] roi_pool5_roi_pool5_0_split -> roi_pool5_roi_pool5_0_split_1
I0726 17:33:37.638293   959 net.cpp:122] Setting up roi_pool5_roi_pool5_0_split
I0726 17:33:37.638300   959 net.cpp:129] Top shape: 1 1024 14 14 (200704)
I0726 17:33:37.638305   959 net.cpp:129] Top shape: 1 1024 14 14 (200704)
I0726 17:33:37.638309   959 net.cpp:137] Memory required for data: 6352016680
I0726 17:33:37.638311   959 layer_factory.hpp:77] Creating layer res5a_branch1
I0726 17:33:37.638320   959 net.cpp:84] Creating Layer res5a_branch1
I0726 17:33:37.638325   959 net.cpp:406] res5a_branch1 <- roi_pool5_roi_pool5_0_split_0
I0726 17:33:37.638331   959 net.cpp:380] res5a_branch1 -> res5a_branch1
I0726 17:33:37.648926   959 net.cpp:122] Setting up res5a_branch1
I0726 17:33:37.648954   959 net.cpp:129] Top shape: 1 2048 7 7 (100352)
I0726 17:33:37.648958   959 net.cpp:137] Memory required for data: 6352418088
I0726 17:33:37.648964   959 layer_factory.hpp:77] Creating layer bn5a_branch1
I0726 17:33:37.648974   959 net.cpp:84] Creating Layer bn5a_branch1
I0726 17:33:37.648979   959 net.cpp:406] bn5a_branch1 <- res5a_branch1
I0726 17:33:37.648984   959 net.cpp:367] bn5a_branch1 -> res5a_branch1 (in-place)
I0726 17:33:37.649464   959 net.cpp:122] Setting up bn5a_branch1
I0726 17:33:37.649475   959 net.cpp:129] Top shape: 1 2048 7 7 (100352)
I0726 17:33:37.649490   959 net.cpp:137] Memory required for data: 6352819496
I0726 17:33:37.649498   959 layer_factory.hpp:77] Creating layer scale5a_branch1
I0726 17:33:37.649507   959 net.cpp:84] Creating Layer scale5a_branch1
I0726 17:33:37.649511   959 net.cpp:406] scale5a_branch1 <- res5a_branch1
I0726 17:33:37.649515   959 net.cpp:367] scale5a_branch1 -> res5a_branch1 (in-place)
I0726 17:33:37.649593   959 layer_factory.hpp:77] Creating layer scale5a_branch1
I0726 17:33:37.649852   959 net.cpp:122] Setting up scale5a_branch1
I0726 17:33:37.649863   959 net.cpp:129] Top shape: 1 2048 7 7 (100352)
I0726 17:33:37.649866   959 net.cpp:137] Memory required for data: 6353220904
I0726 17:33:37.649873   959 layer_factory.hpp:77] Creating layer res5a_branch2a
I0726 17:33:37.649881   959 net.cpp:84] Creating Layer res5a_branch2a
I0726 17:33:37.649888   959 net.cpp:406] res5a_branch2a <- roi_pool5_roi_pool5_0_split_1
I0726 17:33:37.649893   959 net.cpp:380] res5a_branch2a -> res5a_branch2a
I0726 17:33:37.653414   959 net.cpp:122] Setting up res5a_branch2a
I0726 17:33:37.653430   959 net.cpp:129] Top shape: 1 512 7 7 (25088)
I0726 17:33:37.653434   959 net.cpp:137] Memory required for data: 6353321256
I0726 17:33:37.653439   959 layer_factory.hpp:77] Creating layer bn5a_branch2a
I0726 17:33:37.653448   959 net.cpp:84] Creating Layer bn5a_branch2a
I0726 17:33:37.653452   959 net.cpp:406] bn5a_branch2a <- res5a_branch2a
I0726 17:33:37.653458   959 net.cpp:367] bn5a_branch2a -> res5a_branch2a (in-place)
I0726 17:33:37.653933   959 net.cpp:122] Setting up bn5a_branch2a
I0726 17:33:37.653944   959 net.cpp:129] Top shape: 1 512 7 7 (25088)
I0726 17:33:37.653949   959 net.cpp:137] Memory required for data: 6353421608
I0726 17:33:37.653955   959 layer_factory.hpp:77] Creating layer scale5a_branch2a
I0726 17:33:37.653961   959 net.cpp:84] Creating Layer scale5a_branch2a
I0726 17:33:37.653965   959 net.cpp:406] scale5a_branch2a <- res5a_branch2a
I0726 17:33:37.653971   959 net.cpp:367] scale5a_branch2a -> res5a_branch2a (in-place)
I0726 17:33:37.654065   959 layer_factory.hpp:77] Creating layer scale5a_branch2a
I0726 17:33:37.654338   959 net.cpp:122] Setting up scale5a_branch2a
I0726 17:33:37.654348   959 net.cpp:129] Top shape: 1 512 7 7 (25088)
I0726 17:33:37.654351   959 net.cpp:137] Memory required for data: 6353521960
I0726 17:33:37.654356   959 layer_factory.hpp:77] Creating layer res5a_branch2a_relu
I0726 17:33:37.654362   959 net.cpp:84] Creating Layer res5a_branch2a_relu
I0726 17:33:37.654366   959 net.cpp:406] res5a_branch2a_relu <- res5a_branch2a
I0726 17:33:37.654371   959 net.cpp:367] res5a_branch2a_relu -> res5a_branch2a (in-place)
I0726 17:33:37.654611   959 net.cpp:122] Setting up res5a_branch2a_relu
I0726 17:33:37.654623   959 net.cpp:129] Top shape: 1 512 7 7 (25088)
I0726 17:33:37.654626   959 net.cpp:137] Memory required for data: 6353622312
I0726 17:33:37.654630   959 layer_factory.hpp:77] Creating layer res5a_branch2b
I0726 17:33:37.654639   959 net.cpp:84] Creating Layer res5a_branch2b
I0726 17:33:37.654644   959 net.cpp:406] res5a_branch2b <- res5a_branch2a
I0726 17:33:37.654651   959 net.cpp:380] res5a_branch2b -> res5a_branch2b
I0726 17:33:37.661804   959 net.cpp:122] Setting up res5a_branch2b
I0726 17:33:37.661823   959 net.cpp:129] Top shape: 1 512 7 7 (25088)
I0726 17:33:37.661826   959 net.cpp:137] Memory required for data: 6353722664
I0726 17:33:37.661833   959 layer_factory.hpp:77] Creating layer bn5a_branch2b
I0726 17:33:37.661844   959 net.cpp:84] Creating Layer bn5a_branch2b
I0726 17:33:37.661849   959 net.cpp:406] bn5a_branch2b <- res5a_branch2b
I0726 17:33:37.661854   959 net.cpp:367] bn5a_branch2b -> res5a_branch2b (in-place)
I0726 17:33:37.662327   959 net.cpp:122] Setting up bn5a_branch2b
I0726 17:33:37.662338   959 net.cpp:129] Top shape: 1 512 7 7 (25088)
I0726 17:33:37.662343   959 net.cpp:137] Memory required for data: 6353823016
I0726 17:33:37.662349   959 layer_factory.hpp:77] Creating layer scale5a_branch2b
I0726 17:33:37.662355   959 net.cpp:84] Creating Layer scale5a_branch2b
I0726 17:33:37.662359   959 net.cpp:406] scale5a_branch2b <- res5a_branch2b
I0726 17:33:37.662365   959 net.cpp:367] scale5a_branch2b -> res5a_branch2b (in-place)
I0726 17:33:37.662461   959 layer_factory.hpp:77] Creating layer scale5a_branch2b
I0726 17:33:37.662736   959 net.cpp:122] Setting up scale5a_branch2b
I0726 17:33:37.662746   959 net.cpp:129] Top shape: 1 512 7 7 (25088)
I0726 17:33:37.662750   959 net.cpp:137] Memory required for data: 6353923368
I0726 17:33:37.662755   959 layer_factory.hpp:77] Creating layer res5a_branch2b_relu
I0726 17:33:37.662760   959 net.cpp:84] Creating Layer res5a_branch2b_relu
I0726 17:33:37.662765   959 net.cpp:406] res5a_branch2b_relu <- res5a_branch2b
I0726 17:33:37.662770   959 net.cpp:367] res5a_branch2b_relu -> res5a_branch2b (in-place)
I0726 17:33:37.663533   959 net.cpp:122] Setting up res5a_branch2b_relu
I0726 17:33:37.663549   959 net.cpp:129] Top shape: 1 512 7 7 (25088)
I0726 17:33:37.663553   959 net.cpp:137] Memory required for data: 6354023720
I0726 17:33:37.663556   959 layer_factory.hpp:77] Creating layer res5a_branch2c
I0726 17:33:37.663566   959 net.cpp:84] Creating Layer res5a_branch2c
I0726 17:33:37.663570   959 net.cpp:406] res5a_branch2c <- res5a_branch2b
I0726 17:33:37.663578   959 net.cpp:380] res5a_branch2c -> res5a_branch2c
I0726 17:33:37.668004   959 net.cpp:122] Setting up res5a_branch2c
I0726 17:33:37.668021   959 net.cpp:129] Top shape: 1 2048 7 7 (100352)
I0726 17:33:37.668025   959 net.cpp:137] Memory required for data: 6354425128
I0726 17:33:37.668030   959 layer_factory.hpp:77] Creating layer bn5a_branch2c
I0726 17:33:37.668038   959 net.cpp:84] Creating Layer bn5a_branch2c
I0726 17:33:37.668043   959 net.cpp:406] bn5a_branch2c <- res5a_branch2c
I0726 17:33:37.668048   959 net.cpp:367] bn5a_branch2c -> res5a_branch2c (in-place)
I0726 17:33:37.668488   959 net.cpp:122] Setting up bn5a_branch2c
I0726 17:33:37.668498   959 net.cpp:129] Top shape: 1 2048 7 7 (100352)
I0726 17:33:37.668501   959 net.cpp:137] Memory required for data: 6354826536
I0726 17:33:37.668509   959 layer_factory.hpp:77] Creating layer scale5a_branch2c
I0726 17:33:37.668514   959 net.cpp:84] Creating Layer scale5a_branch2c
I0726 17:33:37.668519   959 net.cpp:406] scale5a_branch2c <- res5a_branch2c
I0726 17:33:37.668524   959 net.cpp:367] scale5a_branch2c -> res5a_branch2c (in-place)
I0726 17:33:37.668598   959 layer_factory.hpp:77] Creating layer scale5a_branch2c
I0726 17:33:37.668848   959 net.cpp:122] Setting up scale5a_branch2c
I0726 17:33:37.668859   959 net.cpp:129] Top shape: 1 2048 7 7 (100352)
I0726 17:33:37.668862   959 net.cpp:137] Memory required for data: 6355227944
I0726 17:33:37.668869   959 layer_factory.hpp:77] Creating layer res5a
I0726 17:33:37.668877   959 net.cpp:84] Creating Layer res5a
I0726 17:33:37.668881   959 net.cpp:406] res5a <- res5a_branch1
I0726 17:33:37.668886   959 net.cpp:406] res5a <- res5a_branch2c
I0726 17:33:37.668891   959 net.cpp:380] res5a -> res5a
I0726 17:33:37.668942   959 net.cpp:122] Setting up res5a
I0726 17:33:37.668951   959 net.cpp:129] Top shape: 1 2048 7 7 (100352)
I0726 17:33:37.668953   959 net.cpp:137] Memory required for data: 6355629352
I0726 17:33:37.668957   959 layer_factory.hpp:77] Creating layer res5a_relu
I0726 17:33:37.668962   959 net.cpp:84] Creating Layer res5a_relu
I0726 17:33:37.668965   959 net.cpp:406] res5a_relu <- res5a
I0726 17:33:37.668970   959 net.cpp:367] res5a_relu -> res5a (in-place)
I0726 17:33:37.669217   959 net.cpp:122] Setting up res5a_relu
I0726 17:33:37.669230   959 net.cpp:129] Top shape: 1 2048 7 7 (100352)
I0726 17:33:37.669234   959 net.cpp:137] Memory required for data: 6356030760
I0726 17:33:37.669237   959 layer_factory.hpp:77] Creating layer res5a_res5a_relu_0_split
I0726 17:33:37.669242   959 net.cpp:84] Creating Layer res5a_res5a_relu_0_split
I0726 17:33:37.669246   959 net.cpp:406] res5a_res5a_relu_0_split <- res5a
I0726 17:33:37.669252   959 net.cpp:380] res5a_res5a_relu_0_split -> res5a_res5a_relu_0_split_0
I0726 17:33:37.669260   959 net.cpp:380] res5a_res5a_relu_0_split -> res5a_res5a_relu_0_split_1
I0726 17:33:37.669349   959 net.cpp:122] Setting up res5a_res5a_relu_0_split
I0726 17:33:37.669360   959 net.cpp:129] Top shape: 1 2048 7 7 (100352)
I0726 17:33:37.669364   959 net.cpp:129] Top shape: 1 2048 7 7 (100352)
I0726 17:33:37.669368   959 net.cpp:137] Memory required for data: 6356833576
I0726 17:33:37.669370   959 layer_factory.hpp:77] Creating layer res5b_branch2a
I0726 17:33:37.669378   959 net.cpp:84] Creating Layer res5b_branch2a
I0726 17:33:37.669381   959 net.cpp:406] res5b_branch2a <- res5a_res5a_relu_0_split_0
I0726 17:33:37.669389   959 net.cpp:380] res5b_branch2a -> res5b_branch2a
I0726 17:33:37.673672   959 net.cpp:122] Setting up res5b_branch2a
I0726 17:33:37.673689   959 net.cpp:129] Top shape: 1 512 7 7 (25088)
I0726 17:33:37.673693   959 net.cpp:137] Memory required for data: 6356933928
I0726 17:33:37.673699   959 layer_factory.hpp:77] Creating layer bn5b_branch2a
I0726 17:33:37.673707   959 net.cpp:84] Creating Layer bn5b_branch2a
I0726 17:33:37.673712   959 net.cpp:406] bn5b_branch2a <- res5b_branch2a
I0726 17:33:37.673717   959 net.cpp:367] bn5b_branch2a -> res5b_branch2a (in-place)
I0726 17:33:37.674191   959 net.cpp:122] Setting up bn5b_branch2a
I0726 17:33:37.674202   959 net.cpp:129] Top shape: 1 512 7 7 (25088)
I0726 17:33:37.674206   959 net.cpp:137] Memory required for data: 6357034280
I0726 17:33:37.674212   959 layer_factory.hpp:77] Creating layer scale5b_branch2a
I0726 17:33:37.674219   959 net.cpp:84] Creating Layer scale5b_branch2a
I0726 17:33:37.674223   959 net.cpp:406] scale5b_branch2a <- res5b_branch2a
I0726 17:33:37.674228   959 net.cpp:367] scale5b_branch2a -> res5b_branch2a (in-place)
I0726 17:33:37.674324   959 layer_factory.hpp:77] Creating layer scale5b_branch2a
I0726 17:33:37.674604   959 net.cpp:122] Setting up scale5b_branch2a
I0726 17:33:37.674614   959 net.cpp:129] Top shape: 1 512 7 7 (25088)
I0726 17:33:37.674618   959 net.cpp:137] Memory required for data: 6357134632
I0726 17:33:37.674623   959 layer_factory.hpp:77] Creating layer res5b_branch2a_relu
I0726 17:33:37.674628   959 net.cpp:84] Creating Layer res5b_branch2a_relu
I0726 17:33:37.674631   959 net.cpp:406] res5b_branch2a_relu <- res5b_branch2a
I0726 17:33:37.674636   959 net.cpp:367] res5b_branch2a_relu -> res5b_branch2a (in-place)
I0726 17:33:37.674883   959 net.cpp:122] Setting up res5b_branch2a_relu
I0726 17:33:37.674896   959 net.cpp:129] Top shape: 1 512 7 7 (25088)
I0726 17:33:37.674901   959 net.cpp:137] Memory required for data: 6357234984
I0726 17:33:37.674903   959 layer_factory.hpp:77] Creating layer res5b_branch2b
I0726 17:33:37.674912   959 net.cpp:84] Creating Layer res5b_branch2b
I0726 17:33:37.674916   959 net.cpp:406] res5b_branch2b <- res5b_branch2a
I0726 17:33:37.674922   959 net.cpp:380] res5b_branch2b -> res5b_branch2b
I0726 17:33:37.682063   959 net.cpp:122] Setting up res5b_branch2b
I0726 17:33:37.682092   959 net.cpp:129] Top shape: 1 512 7 7 (25088)
I0726 17:33:37.682096   959 net.cpp:137] Memory required for data: 6357335336
I0726 17:33:37.682103   959 layer_factory.hpp:77] Creating layer bn5b_branch2b
I0726 17:33:37.682112   959 net.cpp:84] Creating Layer bn5b_branch2b
I0726 17:33:37.682117   959 net.cpp:406] bn5b_branch2b <- res5b_branch2b
I0726 17:33:37.682122   959 net.cpp:367] bn5b_branch2b -> res5b_branch2b (in-place)
I0726 17:33:37.682622   959 net.cpp:122] Setting up bn5b_branch2b
I0726 17:33:37.682632   959 net.cpp:129] Top shape: 1 512 7 7 (25088)
I0726 17:33:37.682636   959 net.cpp:137] Memory required for data: 6357435688
I0726 17:33:37.682643   959 layer_factory.hpp:77] Creating layer scale5b_branch2b
I0726 17:33:37.682651   959 net.cpp:84] Creating Layer scale5b_branch2b
I0726 17:33:37.682654   959 net.cpp:406] scale5b_branch2b <- res5b_branch2b
I0726 17:33:37.682659   959 net.cpp:367] scale5b_branch2b -> res5b_branch2b (in-place)
I0726 17:33:37.682760   959 layer_factory.hpp:77] Creating layer scale5b_branch2b
I0726 17:33:37.683040   959 net.cpp:122] Setting up scale5b_branch2b
I0726 17:33:37.683051   959 net.cpp:129] Top shape: 1 512 7 7 (25088)
I0726 17:33:37.683054   959 net.cpp:137] Memory required for data: 6357536040
I0726 17:33:37.683059   959 layer_factory.hpp:77] Creating layer res5b_branch2b_relu
I0726 17:33:37.683064   959 net.cpp:84] Creating Layer res5b_branch2b_relu
I0726 17:33:37.683087   959 net.cpp:406] res5b_branch2b_relu <- res5b_branch2b
I0726 17:33:37.683094   959 net.cpp:367] res5b_branch2b_relu -> res5b_branch2b (in-place)
I0726 17:33:37.684451   959 net.cpp:122] Setting up res5b_branch2b_relu
I0726 17:33:37.684466   959 net.cpp:129] Top shape: 1 512 7 7 (25088)
I0726 17:33:37.684470   959 net.cpp:137] Memory required for data: 6357636392
I0726 17:33:37.684473   959 layer_factory.hpp:77] Creating layer res5b_branch2c
I0726 17:33:37.684484   959 net.cpp:84] Creating Layer res5b_branch2c
I0726 17:33:37.684487   959 net.cpp:406] res5b_branch2c <- res5b_branch2b
I0726 17:33:37.684494   959 net.cpp:380] res5b_branch2c -> res5b_branch2c
I0726 17:33:37.688815   959 net.cpp:122] Setting up res5b_branch2c
I0726 17:33:37.688832   959 net.cpp:129] Top shape: 1 2048 7 7 (100352)
I0726 17:33:37.688836   959 net.cpp:137] Memory required for data: 6358037800
I0726 17:33:37.688841   959 layer_factory.hpp:77] Creating layer bn5b_branch2c
I0726 17:33:37.688850   959 net.cpp:84] Creating Layer bn5b_branch2c
I0726 17:33:37.688854   959 net.cpp:406] bn5b_branch2c <- res5b_branch2c
I0726 17:33:37.688859   959 net.cpp:367] bn5b_branch2c -> res5b_branch2c (in-place)
I0726 17:33:37.689311   959 net.cpp:122] Setting up bn5b_branch2c
I0726 17:33:37.689321   959 net.cpp:129] Top shape: 1 2048 7 7 (100352)
I0726 17:33:37.689324   959 net.cpp:137] Memory required for data: 6358439208
I0726 17:33:37.689332   959 layer_factory.hpp:77] Creating layer scale5b_branch2c
I0726 17:33:37.689338   959 net.cpp:84] Creating Layer scale5b_branch2c
I0726 17:33:37.689342   959 net.cpp:406] scale5b_branch2c <- res5b_branch2c
I0726 17:33:37.689348   959 net.cpp:367] scale5b_branch2c -> res5b_branch2c (in-place)
I0726 17:33:37.689424   959 layer_factory.hpp:77] Creating layer scale5b_branch2c
I0726 17:33:37.689679   959 net.cpp:122] Setting up scale5b_branch2c
I0726 17:33:37.689689   959 net.cpp:129] Top shape: 1 2048 7 7 (100352)
I0726 17:33:37.689692   959 net.cpp:137] Memory required for data: 6358840616
I0726 17:33:37.689699   959 layer_factory.hpp:77] Creating layer res5b
I0726 17:33:37.689704   959 net.cpp:84] Creating Layer res5b
I0726 17:33:37.689709   959 net.cpp:406] res5b <- res5a_res5a_relu_0_split_1
I0726 17:33:37.689716   959 net.cpp:406] res5b <- res5b_branch2c
I0726 17:33:37.689720   959 net.cpp:380] res5b -> res5b
I0726 17:33:37.689770   959 net.cpp:122] Setting up res5b
I0726 17:33:37.689779   959 net.cpp:129] Top shape: 1 2048 7 7 (100352)
I0726 17:33:37.689781   959 net.cpp:137] Memory required for data: 6359242024
I0726 17:33:37.689785   959 layer_factory.hpp:77] Creating layer res5b_relu
I0726 17:33:37.689791   959 net.cpp:84] Creating Layer res5b_relu
I0726 17:33:37.689795   959 net.cpp:406] res5b_relu <- res5b
I0726 17:33:37.689800   959 net.cpp:367] res5b_relu -> res5b (in-place)
I0726 17:33:37.690043   959 net.cpp:122] Setting up res5b_relu
I0726 17:33:37.690057   959 net.cpp:129] Top shape: 1 2048 7 7 (100352)
I0726 17:33:37.690060   959 net.cpp:137] Memory required for data: 6359643432
I0726 17:33:37.690063   959 layer_factory.hpp:77] Creating layer res5b_res5b_relu_0_split
I0726 17:33:37.690070   959 net.cpp:84] Creating Layer res5b_res5b_relu_0_split
I0726 17:33:37.690076   959 net.cpp:406] res5b_res5b_relu_0_split <- res5b
I0726 17:33:37.690083   959 net.cpp:380] res5b_res5b_relu_0_split -> res5b_res5b_relu_0_split_0
I0726 17:33:37.690090   959 net.cpp:380] res5b_res5b_relu_0_split -> res5b_res5b_relu_0_split_1
I0726 17:33:37.690181   959 net.cpp:122] Setting up res5b_res5b_relu_0_split
I0726 17:33:37.690189   959 net.cpp:129] Top shape: 1 2048 7 7 (100352)
I0726 17:33:37.690193   959 net.cpp:129] Top shape: 1 2048 7 7 (100352)
I0726 17:33:37.690196   959 net.cpp:137] Memory required for data: 6360446248
I0726 17:33:37.690199   959 layer_factory.hpp:77] Creating layer res5c_branch2a
I0726 17:33:37.690208   959 net.cpp:84] Creating Layer res5c_branch2a
I0726 17:33:37.690212   959 net.cpp:406] res5c_branch2a <- res5b_res5b_relu_0_split_0
I0726 17:33:37.690219   959 net.cpp:380] res5c_branch2a -> res5c_branch2a
I0726 17:33:37.694506   959 net.cpp:122] Setting up res5c_branch2a
I0726 17:33:37.694524   959 net.cpp:129] Top shape: 1 512 7 7 (25088)
I0726 17:33:37.694527   959 net.cpp:137] Memory required for data: 6360546600
I0726 17:33:37.694532   959 layer_factory.hpp:77] Creating layer bn5c_branch2a
I0726 17:33:37.694541   959 net.cpp:84] Creating Layer bn5c_branch2a
I0726 17:33:37.694545   959 net.cpp:406] bn5c_branch2a <- res5c_branch2a
I0726 17:33:37.694551   959 net.cpp:367] bn5c_branch2a -> res5c_branch2a (in-place)
I0726 17:33:37.695039   959 net.cpp:122] Setting up bn5c_branch2a
I0726 17:33:37.695050   959 net.cpp:129] Top shape: 1 512 7 7 (25088)
I0726 17:33:37.695053   959 net.cpp:137] Memory required for data: 6360646952
I0726 17:33:37.695060   959 layer_factory.hpp:77] Creating layer scale5c_branch2a
I0726 17:33:37.695072   959 net.cpp:84] Creating Layer scale5c_branch2a
I0726 17:33:37.695089   959 net.cpp:406] scale5c_branch2a <- res5c_branch2a
I0726 17:33:37.695096   959 net.cpp:367] scale5c_branch2a -> res5c_branch2a (in-place)
I0726 17:33:37.695225   959 layer_factory.hpp:77] Creating layer scale5c_branch2a
I0726 17:33:37.695564   959 net.cpp:122] Setting up scale5c_branch2a
I0726 17:33:37.695574   959 net.cpp:129] Top shape: 1 512 7 7 (25088)
I0726 17:33:37.695577   959 net.cpp:137] Memory required for data: 6360747304
I0726 17:33:37.695582   959 layer_factory.hpp:77] Creating layer res5c_branch2a_relu
I0726 17:33:37.695587   959 net.cpp:84] Creating Layer res5c_branch2a_relu
I0726 17:33:37.695591   959 net.cpp:406] res5c_branch2a_relu <- res5c_branch2a
I0726 17:33:37.695595   959 net.cpp:367] res5c_branch2a_relu -> res5c_branch2a (in-place)
I0726 17:33:37.695842   959 net.cpp:122] Setting up res5c_branch2a_relu
I0726 17:33:37.695854   959 net.cpp:129] Top shape: 1 512 7 7 (25088)
I0726 17:33:37.695858   959 net.cpp:137] Memory required for data: 6360847656
I0726 17:33:37.695861   959 layer_factory.hpp:77] Creating layer res5c_branch2b
I0726 17:33:37.695869   959 net.cpp:84] Creating Layer res5c_branch2b
I0726 17:33:37.695876   959 net.cpp:406] res5c_branch2b <- res5c_branch2a
I0726 17:33:37.695883   959 net.cpp:380] res5c_branch2b -> res5c_branch2b
I0726 17:33:37.702916   959 net.cpp:122] Setting up res5c_branch2b
I0726 17:33:37.702934   959 net.cpp:129] Top shape: 1 512 7 7 (25088)
I0726 17:33:37.702939   959 net.cpp:137] Memory required for data: 6360948008
I0726 17:33:37.702944   959 layer_factory.hpp:77] Creating layer bn5c_branch2b
I0726 17:33:37.702951   959 net.cpp:84] Creating Layer bn5c_branch2b
I0726 17:33:37.702955   959 net.cpp:406] bn5c_branch2b <- res5c_branch2b
I0726 17:33:37.702966   959 net.cpp:367] bn5c_branch2b -> res5c_branch2b (in-place)
I0726 17:33:37.703562   959 net.cpp:122] Setting up bn5c_branch2b
I0726 17:33:37.703573   959 net.cpp:129] Top shape: 1 512 7 7 (25088)
I0726 17:33:37.703577   959 net.cpp:137] Memory required for data: 6361048360
I0726 17:33:37.703584   959 layer_factory.hpp:77] Creating layer scale5c_branch2b
I0726 17:33:37.703603   959 net.cpp:84] Creating Layer scale5c_branch2b
I0726 17:33:37.703608   959 net.cpp:406] scale5c_branch2b <- res5c_branch2b
I0726 17:33:37.703613   959 net.cpp:367] scale5c_branch2b -> res5c_branch2b (in-place)
I0726 17:33:37.703714   959 layer_factory.hpp:77] Creating layer scale5c_branch2b
I0726 17:33:37.704017   959 net.cpp:122] Setting up scale5c_branch2b
I0726 17:33:37.704027   959 net.cpp:129] Top shape: 1 512 7 7 (25088)
I0726 17:33:37.704030   959 net.cpp:137] Memory required for data: 6361148712
I0726 17:33:37.704035   959 layer_factory.hpp:77] Creating layer res5c_branch2b_relu
I0726 17:33:37.704052   959 net.cpp:84] Creating Layer res5c_branch2b_relu
I0726 17:33:37.704056   959 net.cpp:406] res5c_branch2b_relu <- res5c_branch2b
I0726 17:33:37.704061   959 net.cpp:367] res5c_branch2b_relu -> res5c_branch2b (in-place)
I0726 17:33:37.704861   959 net.cpp:122] Setting up res5c_branch2b_relu
I0726 17:33:37.704876   959 net.cpp:129] Top shape: 1 512 7 7 (25088)
I0726 17:33:37.704879   959 net.cpp:137] Memory required for data: 6361249064
I0726 17:33:37.704883   959 layer_factory.hpp:77] Creating layer res5c_branch2c
I0726 17:33:37.704895   959 net.cpp:84] Creating Layer res5c_branch2c
I0726 17:33:37.704900   959 net.cpp:406] res5c_branch2c <- res5c_branch2b
I0726 17:33:37.704905   959 net.cpp:380] res5c_branch2c -> res5c_branch2c
I0726 17:33:37.709225   959 net.cpp:122] Setting up res5c_branch2c
I0726 17:33:37.709242   959 net.cpp:129] Top shape: 1 2048 7 7 (100352)
I0726 17:33:37.709246   959 net.cpp:137] Memory required for data: 6361650472
I0726 17:33:37.709251   959 layer_factory.hpp:77] Creating layer bn5c_branch2c
I0726 17:33:37.709260   959 net.cpp:84] Creating Layer bn5c_branch2c
I0726 17:33:37.709265   959 net.cpp:406] bn5c_branch2c <- res5c_branch2c
I0726 17:33:37.709270   959 net.cpp:367] bn5c_branch2c -> res5c_branch2c (in-place)
I0726 17:33:37.709718   959 net.cpp:122] Setting up bn5c_branch2c
I0726 17:33:37.709728   959 net.cpp:129] Top shape: 1 2048 7 7 (100352)
I0726 17:33:37.709733   959 net.cpp:137] Memory required for data: 6362051880
I0726 17:33:37.709739   959 layer_factory.hpp:77] Creating layer scale5c_branch2c
I0726 17:33:37.709746   959 net.cpp:84] Creating Layer scale5c_branch2c
I0726 17:33:37.709750   959 net.cpp:406] scale5c_branch2c <- res5c_branch2c
I0726 17:33:37.709756   959 net.cpp:367] scale5c_branch2c -> res5c_branch2c (in-place)
I0726 17:33:37.709832   959 layer_factory.hpp:77] Creating layer scale5c_branch2c
I0726 17:33:37.710093   959 net.cpp:122] Setting up scale5c_branch2c
I0726 17:33:37.710103   959 net.cpp:129] Top shape: 1 2048 7 7 (100352)
I0726 17:33:37.710106   959 net.cpp:137] Memory required for data: 6362453288
I0726 17:33:37.710111   959 layer_factory.hpp:77] Creating layer res5c
I0726 17:33:37.710117   959 net.cpp:84] Creating Layer res5c
I0726 17:33:37.710121   959 net.cpp:406] res5c <- res5b_res5b_relu_0_split_1
I0726 17:33:37.710126   959 net.cpp:406] res5c <- res5c_branch2c
I0726 17:33:37.710134   959 net.cpp:380] res5c -> res5c
I0726 17:33:37.710183   959 net.cpp:122] Setting up res5c
I0726 17:33:37.710192   959 net.cpp:129] Top shape: 1 2048 7 7 (100352)
I0726 17:33:37.710196   959 net.cpp:137] Memory required for data: 6362854696
I0726 17:33:37.710198   959 layer_factory.hpp:77] Creating layer res5c_relu
I0726 17:33:37.710204   959 net.cpp:84] Creating Layer res5c_relu
I0726 17:33:37.710207   959 net.cpp:406] res5c_relu <- res5c
I0726 17:33:37.710216   959 net.cpp:367] res5c_relu -> res5c (in-place)
I0726 17:33:37.710461   959 net.cpp:122] Setting up res5c_relu
I0726 17:33:37.710474   959 net.cpp:129] Top shape: 1 2048 7 7 (100352)
I0726 17:33:37.710477   959 net.cpp:137] Memory required for data: 6363256104
I0726 17:33:37.710480   959 layer_factory.hpp:77] Creating layer pool5
I0726 17:33:37.710489   959 net.cpp:84] Creating Layer pool5
I0726 17:33:37.710492   959 net.cpp:406] pool5 <- res5c
I0726 17:33:37.710499   959 net.cpp:380] pool5 -> pool5
I0726 17:33:37.711321   959 net.cpp:122] Setting up pool5
I0726 17:33:37.711338   959 net.cpp:129] Top shape: 1 2048 1 1 (2048)
I0726 17:33:37.711340   959 net.cpp:137] Memory required for data: 6363264296
I0726 17:33:37.711344   959 layer_factory.hpp:77] Creating layer pool5_pool5_0_split
I0726 17:33:37.711350   959 net.cpp:84] Creating Layer pool5_pool5_0_split
I0726 17:33:37.711354   959 net.cpp:406] pool5_pool5_0_split <- pool5
I0726 17:33:37.711360   959 net.cpp:380] pool5_pool5_0_split -> pool5_pool5_0_split_0
I0726 17:33:37.711366   959 net.cpp:380] pool5_pool5_0_split -> pool5_pool5_0_split_1
I0726 17:33:37.711454   959 net.cpp:122] Setting up pool5_pool5_0_split
I0726 17:33:37.711463   959 net.cpp:129] Top shape: 1 2048 1 1 (2048)
I0726 17:33:37.711468   959 net.cpp:129] Top shape: 1 2048 1 1 (2048)
I0726 17:33:37.711470   959 net.cpp:137] Memory required for data: 6363280680
I0726 17:33:37.711473   959 layer_factory.hpp:77] Creating layer cls_score
I0726 17:33:37.711483   959 net.cpp:84] Creating Layer cls_score
I0726 17:33:37.711486   959 net.cpp:406] cls_score <- pool5_pool5_0_split_0
I0726 17:33:37.711493   959 net.cpp:380] cls_score -> cls_score
I0726 17:33:37.711843   959 net.cpp:122] Setting up cls_score
I0726 17:33:37.711853   959 net.cpp:129] Top shape: 1 2 (2)
I0726 17:33:37.711855   959 net.cpp:137] Memory required for data: 6363280688
I0726 17:33:37.711861   959 layer_factory.hpp:77] Creating layer bbox_pred
I0726 17:33:37.711868   959 net.cpp:84] Creating Layer bbox_pred
I0726 17:33:37.711871   959 net.cpp:406] bbox_pred <- pool5_pool5_0_split_1
I0726 17:33:37.711877   959 net.cpp:380] bbox_pred -> bbox_pred
I0726 17:33:37.712577   959 net.cpp:122] Setting up bbox_pred
I0726 17:33:37.712587   959 net.cpp:129] Top shape: 1 8 (8)
I0726 17:33:37.712590   959 net.cpp:137] Memory required for data: 6363280720
I0726 17:33:37.712596   959 layer_factory.hpp:77] Creating layer loss_cls
I0726 17:33:37.712604   959 net.cpp:84] Creating Layer loss_cls
I0726 17:33:37.712606   959 net.cpp:406] loss_cls <- cls_score
I0726 17:33:37.712611   959 net.cpp:406] loss_cls <- labels
I0726 17:33:37.712617   959 net.cpp:380] loss_cls -> loss_cls
…
